Braille_character_recognition/models/model_simple_6_cells.pt (torch, 113449 bytes, 18 tensors)

l1.0.weight f4 [16, 3, 5, 5]
-0.38068432 -0.42240345 -0.25795522 -0.20213462 -0.1585855 -0.16338947 -0.08959104 0.07580966
0.049998987 0.1720301 0.104505256 0.20664133 0.10981728 0.11904747 0.021327557 0.14899834
0.21365201 0.2701248 0.0023625104 -0.06507425 0.059624564 0.13014312 -0.05173694 0.066869296
-0.17603879 -0.4750109 -0.41525447 -0.21769877 -0.043209337 -0.10816471 -0.11869439 -0.09634281
0.13845654 0.11918757 0.1845911 -0.043803044 0.088899165 0.14267932 0.04249462 0.044552866
0.33593756 0.25792345 0.20187013 0.07509638 -0.10730473 0.061845865 0.0782987 0.10908631
0.08734256 -0.15715455 -0.39745384 -0.50075793 -0.071130894 -0.081531405 -0.041704178 -0.18410012
-0.06444876 0.06445118 0.08722467 0.01747605 0.040367763 0.117440194 0.20302357 0.18546987
-0.109099686 0.20076603 0.40396512 0.16090588 -0.021841772 -0.21249007 0.072635956 0.15618525
0.089320816 0.010280632 -0.09700409 -0.19969276 -0.2554914 0.11971134 -0.050855696 -0.09465336
0.07506926 0.21661249 0.37410453 0.14560427 -0.04247845 0.047042146 -0.09317613 -0.032159127
0.18941648 -0.08048908 -0.057848375 -0.16736042 -0.37827814 -0.29802158 -0.42068544 -0.15997554
-0.10445612 -0.21644321 0.08602736 -0.32840386 -0.19799185 -0.12222401 0.061691493 -0.014182655
0.09765158 0.08060688 0.20151511 0.28868398 0.16527231 -0.06968353 0.029680194 -0.16092451
0.16132356 0.26270986 -0.046903737 -0.008287012 -0.17848638 -0.4140877 -0.18784879 -0.25519362
-0.21648379 0.0027072076 -0.09320309 -0.056428567 -0.30965325 -0.17738858 -0.04354328 0.098755
0.08330224 0.1187139 0.15253414 0.26757446 0.1918437 0.124464564 -0.14422166 -0.023209112
-0.011665372 0.13458091 0.12255502 -0.018476894 -0.19043711 -0.25600007 -0.4258049 -0.28059882
-0.2867346 -0.17347543 -0.07962868 -0.07649589 -0.12745234 -0.11812747 -0.05050421 -0.16646409
0.21719928 0.21563226 0.046603587 -0.19641791 0.06338563 0.274172 0.07675976 -0.15196064
0.080812275 0.0637641 -0.44835353 -0.68179333 -0.5571781 -0.14488843 0.08672036 0.12181045
-0.09997183 -0.0118669635 -0.18952055 -0.07773048 0.2648954 0.27732867 0.011690845 -0.27489918
-0.14485249 0.07180943 0.20196861 0.15288979 -0.065449856 0.09141317 0.27145857 0.03706553
-0.03259502 0.17502466 0.101652175 -0.4465133 -0.5011721 -0.5020236 -0.00015505136 0.12316436
0.21481547 -0.10724077 -0.15292206 -0.28063625 0.057132624 0.26744837 0.204515 0.10338553
-0.20970726 -0.02932334 0.13594276 0.17081845 0.15304632 0.00283048 -0.107843645 0.09448494
0.16015309 -0.08333114 0.078154795 0.059309952 -0.41510433 -0.5724613 -0.55843735 0.037522394
0.1598115 0.1669761 -0.10330986 -0.093292676 -0.13173649 -0.0335738 0.23980407 0.26142862
0.20106506 0.0628745 0.10577063 -0.0583183 -0.089213036 0.05814026 0.15053214 0.2037216
0.17787705 0.029636659 -0.19562292 -0.06791983 0.22535217 0.44436374 0.36621037 0.15943995
-0.11240763 -0.08101533 0.2057722 -0.18300846 0.023274498 -0.15167144 -0.44013667 -0.44595912
-0.4295326 -0.23571292 0.008031722 -0.0002806181 0.06273327 -0.077827625 -0.05921312 -0.009654278
00000000: 0ee9 c2be 4445 d8be b512 84be 61fc 4ebe
00000010: 3d64 22be 924f 27be 827b b7bd 1842 9b3d
00000020: bdcb 4c3d a928 303e da06 d63d c999 533e
00000030: e2e7 e03d 29cf f33d 21b7 ae3c 0593 183e
00000040: 98c7 5a3e cc4d 8a3e 59d4 1a3b a645 85bd
00000050: e338 743d 3d44 053e 1dea 53bd c5f2 883d
00000060: 8343 34be a134 f3be 3c9c d4be 6dec 5ebe
00000070: 46fc 30bd 7685 ddbd 0b16 f3bd 614f c5bd
00000080: 8dc7 0d3e 9d18 f43d 7305 3d3e d26a 33bd
00000090: c410 b63d 871a 123e d70e 2e3d 117d 363d
000000a0: 0200 ac3e 8b0e 843e 0bb7 4e3e 22cc 993d
000000b0: 95c2 dbbd 1752 7d3d 125b a03d a568 df3d
000000c0: a8e0 b23d 1fed 20be 127f cbbe ac31 00bf
000000d0: 13ad 91bd f0f9 a6bd 00d2 2abd be84 3cbe
000000e0: b6fd 83bd fbfe 833d d9a2 b23d ef29 8f3c
000000f0: ab58 253d 7c84 f03d 69e5 4f3e d0eb 3d3e
00000100: a86f dfbd 9c95 4d3e 84d4 ce3e 83c4 243e
00000110: 84ed b2bc ff96 59be 29c2 943d 07ef 1f3e
00000120: d5ed b63d 1970 283c 15aa c6bd 427c 4cbe
00000130: c5cf 82be 382b f53d 104e 50bd 9fd9 c1bd
00000140: eabd 993d aacf 5d3e a18a bf3e 4919 153e
00000150: e2fd 2dbd 44af 403d 20d3 bebd 4ab9 03bd
00000160: 65f6 413e 75d7 a4bd 6bf2 6cbd 8860 2bbe
00000170: acad c1be 4996 98be 1564 d7be a1d0 23be
00000180: 17ed d5bd 4aa3 5dbe 1d2f b03d 8d24 a8be
00000190: 60be 4abe 9550 fabd 38b0 7c3d 5e5e 68bc
000001a0: 8dfd c73d 3815 a53d fa59 4e3e 63ce 933e
000001b0: 253d 293e 3db6 8ebd e123 f33c 65c9 24be
000001c0: 0132 253e e881 863e 221e 40bd 3fc6 07bc
000001d0: 22c5 36be 4e03 d4be 6f5b 40be bda8 82be
000001e0: edad 5dbe 686b 313b 43e1 bebd a421 67bd
000001f0: df8a 9ebe 5aa5 35be 705a 32bd 1040 ca3d
00000200: 5d9a aa3d 4620 f33d e931 1c3e 85ff 883e
00000210: ad72 443e 47e7 fe3d d8ae 13be 0921 bebc
00000220: 1e20 3fbc 94cf 093e 20fe fa3d db5c 97bc
00000230: f201 43be 7112 83be 1a03 dabe a6aa 8fbe
00000240: e1ce 92be 8ba3 31be 5d14 a3bd e1a9 9cbd
00000250: de82 02be d1ec f1bd 81dd 4ebd 9075 2abe
00000260: 7d69 5e3e b4ce 5c3e 67e3 3e3d c721 49be
00000270: 53d0 813d 4660 8c3e 3934 9d3d 929b 1bbe
00000280: e880 a53d c196 823d 988e e5be 028a 2ebf
00000290: 39a3 0ebf a25d 14be 729a b13d c277 f93d
000002a0: 08be ccbd a76d 42bc ad11 42be 2831 9fbd
000002b0: 5fa0 873e 06fe 8d3e f58a 3f3c 96bf 8cbe
000002c0: 3654 14be d310 933d dcd0 4e3e 248f 1c3e
000002d0: 930a 86bd d436 bb3d 9efc 8a3e 06d2 173d
000002e0: 5b82 05bd aa39 333e 042f d03d 649d e4be
000002f0: d14c 00bf 9e84 00bf 4895 22b9 993d fc3d
00000300: 96f8 5b3e 0ca1 dbbd 9a97 1cbe 8eaf 8fbe
00000310: e603 6a3d feee 883e 616c 513e cbbb d33d
00000320: 80bd 56be 8037 f0bc 9434 0b3e 08eb 2e3e
00000330: 2db8 1c3e 937f 393b 21dd dcbd 5281 c13d
00000340: 2cff 233e 84a9 aabd 9f0f a03d feee 723d
00000350: 8e88 d4be d38c 12bf c0f5 0ebf 15b1 193d
00000360: a0a5 233e c8fb 2a3e 1f94 d3bd 3b10 bfbd
00000370: eee5 06be ae84 09bd 338f 753e f9d9 853e
00000380: 00e4 4d3e 59c4 803d 469e d83d 2bdf 6ebd
00000390: 53b5 b6bd 7b24 6e3d 1925 1a3e 659c 503e
000003a0: 6725 363e 94c8 f23c 6051 48be 8d19 8bbd
000003b0: b8c2 663e a583 e33e ed7f bb3e 3a44 233e
000003c0: f935 e6bd 5eeb a5bd f3b5 523e 9266 3bbe
000003d0: 29aa be3c c24f 1bbe 9859 e1be c154 e4be
000003e0: b2eb dbbe ba5e 71be 7c97 033c ec1f 93b9
000003f0: 4d7a 803d 1764 9fbd 7589 72bd fa2c 1ebc

l1.0.bias f4 [16]
0.2677421 -1.5781451 -1.115666 -0.7609546 -0.74147743 -0.42698824 -0.1819022 -0.49536976
-0.50352836 -0.29310006 -0.7453256 0.15057175 -0.7114793 -0.4435608 -0.663608 -0.7178546
00000000: 7e15 893e a900 cabf 25ce 8ebf eccd 42bf
00000010: 77d1 3dbf 349e dabe 9244 3abe 1ba1 fdbe
00000020: 3ce7 00bf 3611 96be a9cd 3ebf 7b2f 1a3e
00000030: 8223 36bf 671a e3be 37e2 29bf 52c5 37bf

l1.2.weight f4 [16]
0.17956525 1.1007365 1.4325523 0.28293958 1.1858542 0.14288431 1.0556129 0.5635384
1.1582116 0.29748923 1.2367976 0.05572568 1.1739762 1.2199458 1.2500638 1.0086337
00000000: f4df 373e efe4 8c3f e05d b73f 75dd 903e
00000010: 12ca 973f 4450 123e 531e 873f 0d44 103f
00000020: 4740 943f 8250 983e 624f 9e3f 9c40 643d
00000030: da44 963f 2f27 9c3f 1702 a03f e91a 813f

l1.2.bias f4 [16]
-0.009713519 -0.82765555 -0.6618654 -0.0715602 -0.20246205 0.53825635 0.4247587 0.2443634
0.051674474 0.11332168 -0.12940268 -0.004514294 0.3363059 0.27274665 -0.104071364 -0.03497763
00000000: 7425 1fbc 3ce1 53bf 0370 29bf 278e 92bd
00000010: 3652 4fbe 2bcb 093f f979 d93e 663a 7a3e
00000020: 9da8 533d 3215 e83d 2382 04be a5ec 93bb
00000030: 4930 ac3e 73a5 8b3e 5e23 d5bd b444 0fbd

l1.2.running_mean f4 [16]
1.0525327 0.29298434 0.20310096 0.7378855 0.53742856 3.0374608 0.73324573 0.7956848
0.99754065 0.3238565 0.4827423 3.47223 0.73241657 1.0046334 0.45869172 0.8419574
00000000: 64b9 863f 0b02 963e b3f9 4f3e 10e6 3c3f
00000010: eb94 093f c265 4240 feb5 3b3f 00b2 4b3f
00000020: d35e 7f3f 85d0 a53e 002a f73e 0439 5e40
00000030: a77f 3b3f d497 803f a4d9 ea3e 858a 573f

l1.2.running_var f4 [16]
3.9433122 0.83285797 0.59971464 3.770982 2.4827337 8.938398 4.4833765 4.019877
6.278789 1.0636089 2.3831139 6.391236 4.7362003 5.6281576 2.3898764 5.424781
00000000: 3a5f 7c40 2e36 553f e686 193f c557 7140
00000010: 1ce5 1e40 ae03 0f41 d277 8f40 d5a2 8040
00000020: d7eb c840 5624 883f f084 1840 0185 cc40
00000030: f48e 9740 de19 b440 bcf3 1840 ce97 ad40

l2.0.weight f4 [32, 16, 5, 5]
0.05882632 0.020136405 -0.097606696 -0.024789317 0.03412245 0.08062193 -0.035428498 -0.11806569
-0.048060738 -0.02654481 0.015071625 0.049876686 0.1760618 0.14677909 0.022719543 -0.021450879
-0.21757966 -0.12542531 -0.053684425 -0.04960145 0.030353267 -0.06169539 -0.15463054 -0.17790245
-0.073803 0.11651652 0.11056694 0.23508193 0.16690858 0.17006725 0.049305707 0.0779556
0.21549912 0.2442601 0.2518311 -0.064531595 -0.04135271 -0.03710334 0.111516595 0.09547403
-0.23108149 0.0013661825 0.057959076 0.12579918 0.14612816 -0.27333143 -0.18933544 -0.1537409
-0.11073595 0.21528396 0.14611739 -0.10741629 -0.42757264 -0.016750129 0.016564533 0.28924105
0.52327 0.6134547 0.17720313 0.2715982 -0.3173408 -0.20834994 -0.0010510596 0.442131
0.004601158 -0.08037423 -0.15585956 -0.16516773 0.40032518 0.61290777 0.009336272 0.13815327
0.20932 0.095306806 0.00057761616 0.033192065 0.005272891 0.18209155 0.03436358 0.042216923
0.026879948 -0.104456864 -0.088293135 0.10420165 0.10548839 0.10095361 -0.0009359229 -0.10816631
-0.17070693 -0.07347271 -0.040018715 0.09439936 0.23204087 0.061667003 -0.06425042 -0.24095346
-0.25405884 -0.12380528 -0.09642374 0.015681395 -0.043725643 -0.47983372 -0.37813556 -0.25700936
-0.14064121 0.0847951 0.052976623 0.2641837 0.106328666 0.27026868 -0.0671836 0.116677165
0.33980137 0.14279945 -0.021210812 -0.34860554 -0.35814485 -0.3421339 0.021581423 0.0645283
-0.25352785 0.06264445 -0.16041458 -0.22421163 -0.1530198 -0.10072733 0.014873764 -0.0374892
-0.16345946 -0.14029628 0.09695271 0.00973578 0.1116536 -0.08571341 -0.11500329 0.0766587
-0.020425094 0.046597555 -0.02976834 -0.042398944 -0.10923304 -0.10096158 -0.07210061 -0.13771604
-0.08794556 -0.08103961 -0.084304936 -0.20849395 -0.19939901 -0.1330306 -0.17702825 -0.21021646
-0.03230061 -0.12367088 -0.3669877 0.17524895 0.16383031 0.51862186 0.47873577 0.12917942
0.013969512 -0.32321283 -0.16907647 0.016855583 0.08866103 -0.21287921 -0.08608579 0.044547867
-0.17022626 -0.09185321 -0.4139181 -0.09545264 0.16796155 0.046599947 -0.23565535 -0.057957083
0.028462233 0.16760448 -0.05615179 -0.14817443 0.13585275 -0.053362273 0.20935476 -0.06719135
-0.1348906 0.29268542 -0.023402805 0.08467073 0.07372814 -0.032297373 -0.0010176962 0.14606582
0.08738877 -0.108262055 -0.0724792 0.10429576 0.11874421 0.15796927 -0.36300936 -0.2122122
0.0153114945 -0.30541983 -0.1462458 0.08417421 -0.10856615 0.111947596 -0.08831248 -0.13480313
-0.05777704 0.19263144 0.076371506 0.2558401 0.4711507 0.07666038 -0.20508996 -0.26800126
-0.21626776 -0.005815718 0.084210746 0.0967768 -0.15373325 -0.2172751 -0.4672581 -0.048564047
0.268097 0.05944327 -0.07217793 -0.2224123 -0.21983348 -0.14064208 0.059063658 0.199385
0.2685318 -0.021514766 0.00204708 -0.17103323 -0.29119894 -0.15464194 -0.13381661 -0.0593933
0.0055932915 -0.16256079 -0.13583258 0.011887145 0.22578372 0.01888951 -0.06603699 -0.04193968
-0.12546259 -0.108266264 0.011974381 -0.13826503 -0.06825329 -0.31052762 -0.0010748351 0.19946304
00000000: def3 703d 1af5 a43c 05e6 c7bd f712 cbbc
00000010: fbc3 0b3d 1c1d a53d 791d 11bd 6dcc f1bd
00000020: 56db 44bd 8074 d9bc faee 763c 7f4b 4c3d
00000030: 8b49 343e 424d 163e 561e ba3c c1b9 afbc
00000040: 34cd 5ebe 7e6f 00be 33e4 5bbd e42a 4bbd
00000050: 6aa7 f83c 4eb4 7cbd 7857 1ebe 0f2c 36be
00000060: 0726 97bd 37a0 ee3d eb70 e23d 51b9 703e
00000070: 15ea 2a3e 1c26 2e3e c8f4 493d 30a7 9f3d
00000080: cdab 5c3e 521f 7a3e 02f0 803e 2429 84bd
00000090: 7661 29bd acf9 17bd d062 e43d e387 c33d
000000a0: a0a0 6cbe 7a11 b33a 7f66 6d3d 80d1 003e
000000b0: 9fa2 153e 19f2 8bbe 26e1 41be 416e 1dbe
000000c0: 88c9 e2bd 6673 5c3e cc9f 153e 12fd dbbd
000000d0: cdea dabe 9137 89bc 58b2 873c 6717 943e
000000e0: 06f5 053f 5e0b 1d3f bd74 353e eb0e 8b3e
000000f0: 7e7a a2be b059 55be b5c3 89ba ff5e e23e
00000100: 50c5 963b 3f9b a4bd a699 1fbe bb21 29be
00000110: 6cf7 cc3e 86e7 1c3f 2af7 183c 0d78 0d3e
00000120: fb57 563e 3730 c33d 2a6b 173a 67f4 073d
00000130: 37c8 ac3b 3576 3a3e d3c0 0c3d a7eb 2c3d
00000140: 5633 dc3c 7bed d5bd 08d3 b4bd ad67 d53d
00000150: 4c0a d83d c4c0 ce3d b958 75ba 4c86 ddbd
00000160: cccd 2ebe dc78 96bd aaea 23bd 7454 c13d
00000170: 1f9c 6d3e 8a96 7c3d b995 83bd 81bc 76be
00000180: 0014 82be 9f8d fdbd cf79 c5bd 4576 803c
00000190: a919 33bd c4ac f5be fc9a c1be bb96 83be
000001a0: 4004 10be 0ea9 ad3d 04fe 583d 1643 873e
000001b0: d8c2 d93d a860 8a3e 8e97 89bd 70f4 ee3d
000001c0: 72fa ad3e 053a 123e 4cc2 adbc 6d7c b2be
000001d0: c35e b7be 2d2c afbe 86cb b03c 6a27 843d
000001e0: 67ce 81be bc4b 803d b843 24be bc97 65be
000001f0: 39b1 1cbe 214a cebd 16b1 733c 468e 19bd
00000200: eb61 27be d4a9 0fbe 248f c63d d282 1f3c
00000210: a5aa e43d 838a afbd d886 ebbd 3dff 9c3d
00000220: 8752 a7bc 14dd 3e3d bcdc f3bc 84aa 2dbd
00000230: 92b5 dfbd f2c4 cebd 7ca9 93bd 6f05 0dbe
00000240: cd1c b4bd 18f8 a5bd 11a8 acbd 707f 55be
00000250: 412f 4cbe 2c39 08be e546 35be fc42 57be
00000260: a54d 04bd 2947 fdbd d0e5 bbbe 7674 333e
00000270: 22c3 273e 67c4 043f db1c f53e 9c47 043e
00000280: 61e0 643c 277c a5be 6222 2dbe b814 8a3c
00000290: ea93 b53d 02fd 59be bf4d b0bd d377 363d
000002a0: cb4f 2ebe 891d bcbd 13ed d3be ac7c c3bd
000002b0: 1dfe 2b3e 96df 3e3d a34f 71be 6864 6dbd
000002c0: a129 e93c 82a0 2b3e 6bff 65bd 0abb 17be
000002d0: fc1c 0b3e 6692 5abd 1861 563e 9e9b 89bd
000002e0: c320 0abe ddda 953e 3db7 bfbc d967 ad3d
000002f0: c7fe 963d 404a 04bd 3864 85ba 4792 153e
00000300: e2f8 b23d 7fb8 ddbd fa6f 94bd 0499 d53d
00000310: 2a30 f33d b2c2 213e 5ddc b9be 284e 59be
00000320: 10dd 7a3c fd5f 9cbe 76c1 15be 8763 ac3d
00000330: ee57 debd c844 e53d 2cdd b4bd d509 0abe
00000340: 9ea7 6cbd 2d41 453e aa68 9c3d 79fd 823e
00000350: aa3a f13e 1e00 9d3d 1a03 52be 7637 89be
00000360: 4c75 5dbe c791 bebb af76 ac3d ea32 c63d
00000370: 406c 1dbe 5d7d 5ebe 743c efbe 18eb 46bd
00000380: 0344 893e c97a 733d 06d2 93bd 0dc0 63be
00000390: 071c 61be 7a04 10be bcec 713d 952b 4c3e
000003a0: 007d 893e bc3f b0bc 4e28 063b 5623 2fbe
000003b0: 0718 95be 755a 1ebe 3907 09be 6446 73bd
000003c0: ee47 b73b 5676 26be b217 0bbe 4dc2 423c
000003d0: d933 673e 2cbe 9a3c 673e 87bd f1c8 2bbd
000003e0: 4479 00be b4ba ddbd 3230 443c 5995 0dbe
000003f0: 62c8 8bbd 7afd 9ebe 7be1 8cba 0a40 4c3e

l2.0.bias f4 [32]
-0.38645002 -0.22604154 -0.8249666 -0.18487516 -0.34413445 -0.094340205 -0.42277318 -0.7012886
-0.12493394 -0.19168814 -0.41491023 -0.052051984 -0.49979648 0.06743004 -0.33429846 -0.21308732
-0.31539488 -0.5910876 -0.34450397 -0.23166457 -0.46952927 -0.27061808 0.110065974 -0.4181593
-0.32338592 -0.14377192 -0.83541465 -0.80326957 -0.44214055 -0.21565816 0.0248301 -0.05496658
00000000: c7dc c5be 6f77 67be 0331 53bf ea4f 3dbe
00000010: 6432 b0be 7035 c1bd ba75 d8be a687 33bf
00000020: 5edd ffbd e549 44be 1d6f d4be 7634 55bd
00000030: 53e5 ffbe c318 8a3d 2b29 abbe 9033 5abe
00000040: 707b a1be 8451 17bf d362 b0be 7a39 6dbe
00000050: 2466 f0be 748e 8abe 456a e13d fa18 d6be
00000060: d792 a5be f238 13be bcdd 55bf 13a3 4dbf
00000070: 3f60 e2be 7ed5 5cbe 7e68 cb3c a324 61bd

l2.2.weight f4 [32]
0.31824562 0.20141526 0.5128253 0.17785901 0.18755075 0.32551503 0.11652296 0.5241756
0.26644367 0.29526576 0.30759257 0.20766486 0.86297685 -0.014742144 0.41303074 0.3738564
0.12309625 0.24790531 0.06809305 0.5980227 0.42986485 0.17950162 0.22994792 0.12948875
0.10209897 0.23652491 0.16618066 0.3989209 0.32391012 0.19160481 0.32024872 0.13827027
00000000: 17f1 a23e cd3f 4e3e 8548 033f ac20 363e
00000010: 4e0d 403e e8a9 a63e 97a3 ee3d 5f30 063f
00000020: 4e6b 883e 132d 973e c67c 9d3e 19a6 543e
00000030: 0dec 5c3f 0989 71bc c478 d33e 1b6a bf3e
00000040: e319 fc3d e4da 7d3e 5e74 8b3d 0418 193f
00000050: 3f17 dc3e 46cf 373e 7877 6b3e b398 043e
00000060: 4419 d13d 9633 723e 432b 2a3e 5c3f cc3e
00000070: 8cd7 a53e 0d34 443e a4f7 a33e b996 0d3e

l2.2.bias f4 [32]
-0.13197836 -0.0849015 -0.06362264 -0.09277369 -0.12167321 -0.10441935 -0.036750495 -0.13121101
-0.13806665 -0.22023115 -0.10372226 -0.10220498 -0.20468359 -0.01412372 -0.22653374 -0.28728077
-0.055363342 -0.10275479 -0.027223872 -0.06378786 -0.2584887 -0.076208375 -0.15498628 -0.056615364
-0.073637836 -0.087031476 -0.040498465 -0.054583013 -0.18130286 -0.09247936 -0.12760429 -0.09068946
00000000: 5625 07be d6e0 adbd 964c 82bd 2200 bebd
00000010: ce2f f9bd d0d9 d5bd b087 16bd 2e5c 06be
00000020: 5861 0dbe 4684 61be 566c d4bd d850 d1bd
00000030: 9398 51be 2d67 67bc 76f8 67be 7716 93be
00000040: acc4 62bd 1a71 d2bd 9904 dfbc 36a3 82bd
00000050: a258 84be 2313 9cbd b9b4 1ebe 83e5 67bd
00000060: 6fcf 96bd 8f3d b2bd b8e1 25bd 7092 5fbd
00000070: 75a7 39be d265 bdbd b3aa 02be 65bb b9bd

l2.2.running_mean f4 [32]
2.8606818 3.144884 0.983304 5.0353427 5.0413203 1.9801877 1.4412551 1.7570872
4.1197143 7.5318384 3.1776853 3.342178 2.1329205 4.4852896 3.5661979 4.080476
2.9426272 2.8796642 3.1034598 2.3346555 7.8695025 2.5473735 4.8762846 4.034319
4.2212095 2.3350859 1.2253757 1.7613866 6.9039783 4.0823574 2.8136647 7.017223
00000000: 6915 3740 c845 4940 d0b9 7b3f 8721 a140
00000010: 7f52 a140 ca76 fd3f 0c7b b83f 3ce8 e03f
00000020: b3d4 8340 d204 f140 325f 4b40 3fe6 5540
00000030: c581 0840 7e87 8f40 963c 6440 4293 8240
00000040: 0154 3c40 6b4c 3840 169f 4640 ff6a 1540
00000050: f7d2 fb40 2b08 2340 860a 9c40 2419 8140
00000060: 2614 8740 0c72 1540 1cd9 9c3f 1e75 e13f
00000070: 64ed dc40 aca2 8240 1513 3440 178d e040

l2.2.running_var f4 [32]
58.004288 62.227226 16.396227 95.218094 109.490486 15.536292 17.396206 33.683983
68.89624 132.80458 59.238766 23.72529 38.457672 31.286139 68.60964 63.738132
54.82744 59.519653 60.662205 19.633163 152.77585 51.68654 35.87932 80.839745
59.843773 35.788284 20.080431 33.868393 159.46986 75.22409 18.954212 156.11063
00000000: 6404 6842 aee8 7842 792b 8341 aa6f be42
00000010: 21fb da42 a794 7841 6e2b 8b41 66bc 0642
00000020: e0ca 8942 f9cd 0443 7ff4 6c42 65cd bd41
00000030: a8d4 1942 034a fa41 2338 8942 d9f3 7e42
00000040: 4c4f 5b42 2014 6e42 19a6 7242 b810 9d41
00000050: 9ec6 1843 04bf 4e42 6c84 0f42 f3ad a142
00000060: 0660 6f42 3427 0f42 b9a4 a041 3c79 0742
00000070: 4978 1f43 bc72 9642 3aa2 9741 521c 1c43

lin6.0.weight f4 [6, 1568]
0.20129053 0.23272534 0.2828894 0.11528991 0.07501854 0.0069203023 0.2229982 0.3203572
0.29788134 0.19398026 0.17629364 0.39308682 0.122361936 -0.07805154 -0.21160705 -0.09843929
0.004132251 -0.025343094 0.13335511 0.06225723 -0.011815161 -0.08505544 -0.21495469 -0.0912076
-0.02539431 -0.20057225 -0.019769866 -0.4028953 -0.10057813 -0.19916885 0.043878272 -0.027675759
-0.1596725 -0.17148276 -0.15654631 0.20536147 0.18197048 0.2706456 0.05620771 -0.1548045
-0.011321627 -0.101917565 -0.024514547 0.12248019 0.2787346 -0.21832989 -0.15219913 -0.19072196
-0.087701984 0.3104632 0.316348 0.24439146 0.19267765 0.047165513 -0.03422271 0.023859497
-0.07378717 0.027039329 0.20848829 0.11120732 0.10630873 0.06900872 -0.045665834 -0.56240785
-0.54526705 -0.27464047 -0.19670297 -0.23398603 -0.19246405 -0.0535518 -0.3351375 -0.3392573
-0.13735849 -0.23299836 -0.0055095395 -0.08690512 -0.1536167 -0.014445184 0.054176513 0.011544415
0.16287817 0.2643905 0.0032736813 -0.11908046 0.17974481 0.22987007 0.008098651 -0.1614957
-0.05949733 -0.12521324 -0.16592154 0.20333456 0.38606095 0.21927498 0.3023423 -0.09072461
-0.3310218 -0.2401324 0.28196478 0.1815227 0.03904298 -0.29558057 -0.10053826 0.30937177
-0.2096598 0.042305976 0.3934278 0.21492915 0.023778597 0.1644113 0.06258064 -0.25793865
-0.061419502 0.20393474 0.23387228 0.20371252 0.21337886 0.054888327 0.1696951 -0.6148883
-0.2763445 0.15817682 0.11801961 -0.010648074 -0.17272407 -0.3264355 -0.58815944 -0.38359845
-0.3181529 0.027818192 -0.21306013 -0.15826662 0.08636263 0.10932168 0.20370798 0.19224784
-0.06619006 -0.03872316 0.039262913 -0.058598835 0.0008550902 0.12793511 -0.041145585 -0.4241241
-0.088344924 -0.14065887 -0.22264916 0.28961167 0.29702577 0.07960047 0.12831576 0.0679241
0.07422275 -0.025036983 -0.058442857 -0.071916714 0.025306389 -0.11016399 -0.06631271 -0.10345473
-0.09186114 -0.07042277 -0.17940886 -0.17943935 -0.12485101 -0.15619248 -0.31103915 -0.19796787
-0.16489835 -0.079992115 -0.00717945 0.035385124 -0.055247426 -0.04653821 0.01347987 0.2618712
0.19119485 0.25673088 -0.03281619 -0.010684012 0.08055961 -0.0765137 0.047888886 0.22478895
0.25422463 0.06058357 -0.22685185 -0.22890612 -0.031420186 -0.3612933 0.13274123 0.15206592
-0.06941 0.046256643 -0.30033535 -0.12913853 0.17282856 0.18856171 0.35770822 0.1870033
-0.08689868 -0.05341996 0.06465179 0.22983454 0.4566335 0.37684414 0.24613132 0.25684056
0.22979906 0.024577191 -0.095182404 0.20946231 0.12537834 -0.2989755 0.03460412 -0.024370411
0.079056956 0.0008748709 -0.05781255 -0.29658616 -0.19566876 -0.3102047 -0.42251113 -0.23707306
-0.14155348 -0.4006764 -0.43422666 -0.22257699 0.031301487 -0.18422243 -0.020444743 0.10563572
0.008689038 0.040603008 -0.042039827 0.064442724 -0.044956204 0.08740447 -0.09659374 -0.06976474
0.0698153 0.07553815 -0.17633523 -0.10751864 -0.114349894 -0.033923883 -0.3742259 -0.2715187
-0.14547835 -0.022531807 0.05850284 -0.1656108 -0.041895576 0.031055361 0.1454139 0.29905957
00000000: 1b1f 4e3e 8d4f 6e3e e1d6 903e 1e1d ec3d
00000010: 52a3 993d b4c3 e23b a459 643e dc05 a43e
00000020: e783 983e c3a2 463e 5286 343e ad42 c93e
00000030: e598 fa3d 7cd9 9fbd 85af 58be 8a9a c9bd
00000040: d567 873b 529c cfbc 3e8e 083e 7001 7f3d
00000050: 6194 41bc 8c31 aebd 151d 5cbe 0dcb babd
00000060: ba07 d0bc d062 4dbe 6af4 a1bc 4b48 cebe
00000070: e8fb cdbd ebf2 4bbe b4b9 333d 46b8 e2bc
00000080: 3081 23be 2d99 2fbe ad4d 20be 474a 523e
00000090: 7856 3a3e 0f92 8a3e 0e3a 663d 1285 1ebe
000000a0: 587e 39bc 28ba d0bd bbd2 c8bc e5d6 fa3d
000000b0: 4db6 8e3e df91 5fbe 17da 1bbe 9e4c 43be
000000c0: 199d b3bd 08f5 9e3e 5df8 a13e c141 7a3e
000000d0: 4a4d 453e a030 413d 1d2d 0cbd fe74 c33c
000000e0: ba1d 97bd 9581 dd3c f47d 553e aac0 e33d
000000f0: 64b8 d93d 7254 8d3d 190c 3bbd f6f9 0fbf
00000100: 9f96 0bbf ad9d 8cbe 816c 49be 099a 6fbe
00000110: 4c15 45be 2259 5bbd 2497 abbe 22b3 adbe
00000120: b4a7 0cbe 1f97 6ebe 5e89 b4bb 50fb b1bd
00000130: b24d 1dbe 7eab 6cbc 31e8 5d3d c924 3d3c
00000140: 89c9 263e 315e 873e 428b 563b 75e0 f3bd
00000150: 060f 383e 0f63 6b3e 34b0 043c 215f 25be
00000160: 79b3 73bd e637 00be 56e7 29be ef36 503e
00000170: c8a9 c53e 9f89 603e 9ccc 9a3e d3cd b9bd
00000180: b07b a9be 45e5 75be b05d 903e 16e1 393e
00000190: 88eb 1f3d 5656 97be 01e7 cdbd fa65 9e3e
000001a0: 0fb1 56be 0849 2d3d 5e6f c93e 6316 5c3e
000001b0: 55cb c23c 705b 283e 472a 803d 8910 84be
000001c0: 0493 7bbd 45d4 503e 377c 6f3e 049a 503e
000001d0: fd7f 5a3e 95d2 603d 8dc4 2d3e 5269 1dbf
000001e0: 077d 8dbe 1bf9 213e 44b4 f13d 4275 2ebc
000001f0: 94de 30be 8e22 a7be 9e91 16bf 0467 c4be
00000200: f0e4 a2be fae2 e33c 6f2c 5abe a510 22be
00000210: e4de b03d 0ce4 df3d d398 503e 9edc 443e
00000220: a78e 87bd 2d9c 1ebd 26d2 203d 5505 70bd
00000230: 2228 603a 6c01 033e 4688 28bd cb26 d9be
00000240: 2fee b4bd e108 10be 24fe 63be fb47 943e
00000250: c313 983e 9205 a33d 3565 033e ca1b 8b3d
00000260: 1902 983d 5c1a cdbc c761 6fbd 1249 93bd
00000270: 584f cf3c a89d e1bd f5ce 87bd 13e0 d3bd
00000280: b221 bcbd d039 90bd f5b6 37be f3be 37be
00000290: e3b1 ffbd ecf0 1fbe 8640 9fbe 17b8 4abe
000002a0: 1ddb 28be e8d2 a3bd 9741 ebbb feef 103d
000002b0: 204b 62bd da9e 3ebd acda 5c3c fb13 863e
000002c0: 95c8 433e 3b72 833e 456a 06bd ff0b 2fbc
000002d0: 70fc a43d 37b3 9cbd 2327 443d 132f 663e
000002e0: bb29 823e 7a26 783d da4b 68be 5e66 6abe
000002f0: 74b2 00bd 6ffb b8be 51ed 073e 2bb7 1b3e
00000300: d526 8ebd 9b77 3d3d 8ec5 99be e43c 04be
00000310: f8f9 303e 5216 413e 8825 b73e cb7d 3f3e
00000320: eff7 b1bd e3ce 5abd 2868 843d bf59 6b3e
00000330: decb e93e b7f1 c03e d909 7c3e 9b80 833e
00000340: 7250 6b3e 1b56 c93c feee c2bd 4a7d 563e
00000350: 2e63 003e 5113 99be 0dbd 0d3d 75a4 c7bc
00000360: 9de8 a13d 9857 653a dacc 6cbd 24da 97be
00000370: 645d 48be 27d3 9ebe 6153 d8be 48c3 72be
00000380: 65f3 10be 7525 cdbe f552 debe 39eb 63be
00000390: fd35 003d cea4 3cbe bc7b a7bc 8a57 d83d
000003a0: 785c 0e3c 574f 263d f431 2cbd 8cfa 833d
000003b0: ff23 38bd 1d01 b33d f0d2 c5bd d1e0 8ebd
000003c0: 53fb 8e3d bfb3 9a3d 3991 34be bc32 dcbd
000003d0: 4730 eabd c5f3 0abd 8a9a bfbe 8004 8bbe
000003e0: 47f8 14be a094 b8bc ada0 6f3d e195 29be
000003f0: b29a 2bbd d067 fe3c 62e7 143e 561e 993e

lin6.0.bias f4 [6]
0.23268522 -0.023494076 0.0015818458 0.097125754 0.066766806 -0.10025214
00000000: 0945 6e3e a676 c0bc f055 cf3a dee9 c63d
00000010: 09bd 883d fe50 cdbd

res.0.weight f4 [100, 6]
0.06913525 -0.29245326 0.24740748 -0.18630189 0.10652165 0.033627685 0.24465393 0.32083845
-0.5487264 0.040630348 -0.67189515 -0.19930914 -0.36630943 0.059327867 -0.070814714 0.053979754
0.11075273 -0.23461996 -0.3358167 0.32376093 -0.54353654 -0.2609372 -0.56334674 -0.32516852
0.0888504 -0.4350872 0.017990155 0.025971651 0.2757091 -0.16345732 0.26345357 -0.28024465
-0.015828773 0.0021477668 -0.08477854 0.23768517 -0.36260548 0.29192927 0.16119653 -0.24158098
-0.03358299 -0.5610618 -1.2120234 -0.18446338 0.23034412 0.21776438 0.10765413 -0.12541223
-0.23935404 -0.75205123 0.31804729 -0.44045576 0.33083832 0.06393456 0.043431904 0.47758046
-0.4435765 -0.22877142 0.1301509 -0.5922351 0.49003202 -0.3574393 0.059864275 0.36762455
-0.017628415 0.10616186 -0.35499662 0.1291229 0.23728046 0.2331817 -0.00857237 -0.106290676
-0.13172254 0.20944162 0.16619977 0.29201892 0.18489912 -0.3450413 0.07105885 0.11998072
-0.02048532 0.040906567 -0.26257148 0.12043084 0.08171495 -0.07307585 0.03257173 -0.028214475
-1.0675856 0.15829907 0.09906999 -0.4601561 0.53736883 0.06847104 -0.47563478 0.27582905
0.024987424 -0.12258029 -0.2234918 -0.039268848 0.29003412 0.0030945945 0.16158453 0.14210974
0.27289483 -0.4291946 -0.44627306 0.12897988 -0.70390236 0.19869556 -0.7711799 0.22576143
0.15975417 0.06854676 -0.16193964 -0.018273517 -0.36788034 0.04541603 0.26754415 0.008673015
0.123727694 -0.7744037 -0.3248081 0.037254773 0.090468526 0.044622224 -0.37428293 -0.09055337
0.061251394 -0.5440484 0.19488399 -0.0311561 0.1375018 -0.32617188 -0.8726614 -0.08018676
-0.27161658 0.35465187 -0.762744 -0.44828144 0.3777317 -0.9607753 0.021827629 -0.010547704
0.03144601 0.21865353 -0.3828285 -0.26360855 0.25273776 -0.43153092 -0.02936549 -0.416176
0.2720965 0.06886462 -0.014631962 0.034628667 0.116181485 0.1707572 -0.6518959 0.19908248
-0.028540196 -0.10468101 0.113629766 -0.034026496 0.056858823 -0.086222455 0.104710124 0.16484992
-0.25115278 0.10712855 -0.118625544 -0.016180366 -0.50334764 0.050141428 -0.39714965 -0.1664729
0.17909342 -0.31901038 0.02118619 -0.046934176 -0.56987196 -0.18815005 0.36085284 0.15103476
-0.12359741 -0.19570617 -0.094291806 0.17838764 -0.08010984 -0.43264243 -0.5831163 -0.49888965
-0.009584756 0.067941375 -0.6674559 -0.11242605 0.21424584 0.03054021 -0.06700291 -0.07887827
-0.81465745 -0.6421749 0.18645296 -0.2635714 -0.06685056 -0.53561413 0.0004629227 -0.048521303
-0.78698 0.090013534 -0.059596755 -0.67696387 0.3692746 0.27555087 -0.58523256 -1.0334505
0.52109784 -0.295964 -0.25046116 -0.5973352 -0.33414087 0.3370582 0.100814864 0.27735516
0.06922633 0.145314 0.16270997 0.23023358 0.009022385 0.10029158 -0.43446273 -0.23464753
-0.08106289 -0.51709527 -0.08161167 -0.065817714 0.24849832 0.12226683 0.01945851 -0.20559885
0.48718992 0.26454604 -0.2238462 0.08247298 -0.12639287 -0.29383153 0.22939917 -0.020956641
-0.43560678 -0.21554275 -0.33980638 0.33736283 0.120084316 -0.56715477 -0.013871615 -0.04366432
00000000: c896 8d3d 6fbc 95be 6358 7d3e ecc5 3ebe
00000010: 0628 da3d 2fbd 093d 8f86 7a3e f044 a43e
00000020: 5579 0cbf 026c 263d 5201 2cbf b217 4cbe
00000030: e98c bbbe c701 733d 4e07 91bd e019 5d3d
00000040: 54d2 e23d 3740 70be 2bf0 abbe fec3 a53e
00000050: 3625 0bbf 9099 85be 7e37 10bf 7d7c a6be
00000060: 33f7 b53d c0c3 debe 1760 933c 80c2 d43c
00000070: be29 8d3e 5b61 27be 63e3 863e 3a7c 8fbe
00000080: 58ab 81bc 8cc1 0c3b 5fa0 adbd be63 733e
00000090: 6da7 b9be c177 953e b410 253e 0161 77be
000000a0: 518e 09bd bfa1 0fbf 9523 9bbf f8e3 3cbe
000000b0: 54df 6b3e a0fd 5e3e c579 dc3d 106c 00be
000000c0: 3a19 75be 6e86 40bf 18d7 a23e 6b83 e1be
000000d0: a463 a93e 1ff0 823d a7e5 313d 6d85 f43e
000000e0: 761c e3be 0e43 6abe 4746 053e b89c 17bf
000000f0: 7ae5 fa3e 4902 b7be 3e34 753d 4939 bc3e
00000100: 7769 90bc 646b d93d 1ec2 b5be cb38 043e
00000110: a6f9 723e 2fc7 6e3e 2073 0cbc edae d9bd
00000120: 46e2 06be dd77 563e 4630 2a3e 8183 953e
00000130: 3256 3d3e 41a9 b0be 4d87 913d 74b8 f53d
00000140: d4d0 a7bc a58d 273d c56f 86be 72a4 f63d
00000150: 2b5a a73d cba8 95bd ef69 053d 0b22 e7bc
00000160: a5a6 88bf 2719 223e 35e5 ca3d 9599 ebbe
00000170: 0191 093f 8b3a 8c3d 6786 f3be 7739 8d3e
00000180: 6db2 cc3c 600b fbbd 09db 64be 5fd8 20bd
00000190: 5a7f 943e aece 4a3b 6a76 253e 3785 113e
000001a0: dfb8 8b3e 65bf dbbe e77d e4be 4d13 043e
000001b0: f232 34bf d976 4b3e 0c6c 45bf 012e 673e
000001c0: 9996 233e 3e62 8c3d 81d3 25be 58b2 95bc
000001d0: d05a bcbe 2906 3a3d 8cfb 883e 4319 0e3c
000001e0: f264 fd3d 523f 46bf 3f4d a6be 7698 183d
000001f0: 9047 b93d cbc5 363d 03a2 bfbe 0c74 b9bd
00000200: bee2 7a3d c246 0bbf ab8f 473e 143b ffbc
00000210: 46cd 0c3e 0000 a7be bd66 5fbf f538 a4bd
00000220: 5411 8bbe ee94 b53e 3143 43bf 2585 e5be
00000230: 0d66 c13e 5ff5 75bf dbcf b23c 47d0 2cbc
00000240: 88cd 003d b6e6 5f3e 1902 c4be b3f7 86be
00000250: d866 813e 9ff1 dcbe e58f f0bc 0515 d5be
00000260: 3c50 8b3e e508 8d3d e6ba 6fbc cad6 0d3d
00000270: 8ff0 ed3d fada 2e3e a6e2 26bf 47dc 4b3e
00000280: 21cd e9bc ff62 d6bd b9b6 e83d 5e5f 0bbd
00000290: cce4 683d 6695 b0bd 4372 d63d 6bce 283e
000002a0: 1997 80be 3766 db3d f3f1 f2bd b08c 84bc
000002b0: 64db 00bf 1961 4d3d 3357 cbbe df77 2abe
000002c0: 4464 373e 5455 a3be a98e ad3c 0d3e 40bd
000002d0: 21e3 11bf 68aa 40be b4c1 b83e dba8 1a3e
000002e0: a420 fdbd 3367 48be 101c c1bd 40ab 363e
000002f0: a110 a4bd 4f83 ddbe 1c47 15bf 776e ffbe
00000300: 6109 1dbc d924 8b3d 64de 2abf a13f e6bd
00000310: 4363 5b3e 762f fa3c d238 89bd ee8a a1bd
00000320: 648d 50bf 9365 24bf 86ed 3e3e d5f2 86be
00000330: f2e8 88bd 021e 09bf 6fb4 f239 46be 46bd
00000340: 8577 49bf 0459 b83d ba1b 74bd 814d 2dbf
00000350: 8f11 bd3e 0115 8d3e cdd1 15bf 1b48 84bf
00000360: ab66 053f 9888 97be 723c 80be f6ea 18bf
00000370: 8314 abbe e492 ac3e 0678 ce3d 7f01 8e3e
00000380: 89c6 8d3d 31cd 143e 719d 263e 5ac2 6b3e
00000390: a0d2 133c ac65 cd3d e671 debe 7147 70be
000003a0: 4d04 a6bd 5b60 04bf 0524 a7bd 70cb 86bd
000003b0: 5876 7e3e 0867 fa3d 7467 9f3c 8188 52be
000003c0: f570 f93e 9472 873e f037 65be 98e7 a83d
000003d0: 226d 01be 1671 96be 9ee7 6a3e 43ad abbc
000003e0: da07 dfbe 3db7 5cbe 1afb adbe d2ba ac3e
000003f0: c4ee f53d 0e31 11bf c545 63bc 5cd9 32bd

res.0.bias f4 [100]
-1.5098884 0.36958468 -0.9459669 -0.31401697 -1.3924955 -0.8267573 -0.11283895 0.76630735
0.4049174 1.8568978 -1.3125142 -1.3880566 -1.0103744 -1.5451741 1.574433 -1.3378472
-1.1070714 -1.2892697 -1.1184975 -1.154528 1.5926089 0.21674097 1.5233406 0.07515342
-0.17315005 0.52516717 -1.4953153 -1.9276121 -0.8205376 -0.28996387 0.7289366 0.096659645
0.25204313 1.9673337 1.2336735 0.46714973 0.3550374 -2.2705953 0.10125431 0.5457984
-1.0899509 0.6990942 0.8488814 2.015705 -1.0093582 -0.6103541 -0.58206123 1.3009353
-0.8398227 -1.4003015 -0.95747143 0.9991489 -0.94381243 -0.019702053 -1.5124555 -1.0537308
-0.6702644 -1.0496106 -0.023925828 1.0722913 -0.03857834 1.1329521 -1.4250808 1.4919304
1.1101346 -1.6069343 -0.3331894 0.19511724 0.7161742 0.21386923 -1.2612846 0.7732955
0.34349686 1.5365214 0.9835845 -1.7036995 -1.6345396 -1.6451455 -0.7869754 -0.01332819
-0.5167925 -0.8310654 0.083403684 -0.068543695 0.86839443 1.3380022 -1.1059866 -0.26192635
-0.5868916 0.9916555 -1.068366 -0.7097919 0.8134677 1.8614404 0.8710152 1.0746729
-0.16537824 0.12207007 -0.27193046 -0.6556538
00000000: 0644 c1bf 343a bd3e e32a 72bf d5c6 a0be
00000010: 4b3d b2bf 5ea6 53bf 1b18 e7bd b82c 443f
00000020: 5551 cf3e d4ae ed3f 7700 a8bf d7ab b1bf
00000030: f353 81bf 44c8 c5bf 0587 c93f 943e abbf
00000040: 84b4 8dbf ca06 a5bf ed2a 8fbf 93c7 93bf
00000050: 9cda cb3f 58f1 5d3e d3fc c23f 09ea 993d
00000060: 3f4e 31be 5b71 063f 7e66 bfbf febb f6bf
00000070: c10e 52bf 2576 94be 979b 3a3f 7ef5 c53d
00000080: cc0b 813e 97d1 fb3f 03e9 9d3f 402e ef3e
00000090: 76c7 b53e 6f51 11c0 6b5e cf3d 72b9 0b3f
000000a0: 8383 8bbf d6f7 323f 4b50 593f 5001 0140
000000b0: a632 81bf 2b40 1cbf f701 15bf 0c85 a63f
000000c0: 9ffe 56bf 143d b3bf d91c 75bf 39c8 7f3f
000000d0: b19d 71bf 3366 a1bc 2498 c1bf a7e0 86bf
000000e0: 7396 2bbf a459 86bf 1900 c4bc d740 893f
000000f0: 5204 1ebd 9304 913f 0c69 b6bf 93f7 be3f
00000100: e418 8e3f 06b0 cdbf cd97 aabe d0cc 473e
00000110: 3157 373f 8900 5b3e c671 a1bf b2f6 453f
00000120: d2de af3e bcac c43f 32cc 7b3f d312 dabf
00000130: 9838 d1bf 2194 d2bf 3877 49bf 7b5e 5abc
00000140: 834c 04bf b4c0 54bf 8dcf aa3d a360 8cbd
00000150: 194f 5e3f a843 ab3f f890 8dbf 361b 86be
00000160: 873e 16bf 23dd 7d3f 38c0 88bf ecb4 35bf
00000170: 6b3f 503f ae43 ee3f dafa 5e3f e28e 893f
00000180: ea58 29be dfff f93d 783a 8bbe edd8 27bf

res.2.weight f4 [26, 100]
0.19388156 -0.6593676 -0.14181165 0.0060230214 0.17967236 0.16911007 -0.070784636 -0.030374797
-0.70138246 -0.7120433 0.19349544 0.038137022 -0.15201916 0.04168674 -1.0967801 -0.4347265
0.12451076 -0.25987852 -0.6004885 0.11449596 -1.296915 0.056204643 -0.47296426 -0.28975403
-0.23408592 -0.2013758 0.03530621 0.22164139 -0.05963589 -0.07765254 -0.2854871 -0.055043623
-0.0677915 -0.9497437 -0.4192476 -0.14513639 -0.2715605 0.27663943 -0.178028 -0.18557784
-0.6225211 -0.57467663 -0.061403766 -0.48107457 -0.1422065 -0.2574456 0.30183867 -0.3261546
0.047499668 0.04323722 -0.057405513 -0.6233445 0.13821957 -0.01337446 0.18449923 -0.09405139
-0.06774542 0.28104818 0.17051084 -0.21503578 0.1520322 -0.4323023 -0.061844263 -0.30179092
-0.21492724 0.22317943 -0.23892982 -1.0061978 -0.049125485 -0.36910805 -0.4385328 -0.15727675
-0.074747585 -0.34020057 -0.21811399 0.28043717 -0.73807645 0.017988501 0.10538239 -0.21877922
0.12756288 0.27386075 -0.23067364 0.016048513 -0.6611551 -0.2948607 -0.0053389953 -0.32562655
-0.059714876 -0.20741615 -0.06720202 -0.1744132 -0.05852004 -0.3491975 -0.07221164 -0.32547137
-0.15551347 -0.81541896 -0.07986392 -0.5352491 0.14910357 -0.073696926 0.039640542 -0.12250324
-0.32341596 -0.2350472 0.21621013 -0.1791652 -0.924341 -0.39948022 -0.022110818 0.25684023
0.234561 0.054873466 -0.21655886 -0.14905329 0.17711926 -0.3070294 0.010000494 0.26603886
-1.1101998 -0.18362372 -0.94809014 -0.30757654 -0.10497549 0.004779991 0.17382394 0.07825841
-0.0960582 0.10134401 -0.08364685 0.06793404 0.28311467 -1.0318052 -0.41715986 -0.21866855
-0.30646703 0.251368 -0.22518292 0.12536266 -0.31175822 -0.5325044 -0.12390105 -0.3414653
-0.3363341 -0.18213958 -0.05258486 -0.40187103 -0.5462431 0.1395801 -0.15541686 -0.48361647
0.18318647 -0.06436199 0.0851099 -0.19316588 -0.03264807 -0.21277004 0.029064726 -0.25577292
-0.48393822 -0.27001527 0.3410257 -0.6378461 -0.31810552 -0.07495192 -0.2441037 -1.7198741
-0.1544225 -0.33559915 0.16619599 -0.06853165 -0.12150373 -0.15993758 -0.64303434 -0.3322503
-0.5415425 -0.1741474 0.024918588 0.063925765 -0.42768842 0.053023696 -0.7403041 0.17264985
0.10574821 -0.52155674 0.18375191 0.26962924 0.123762764 -1.2580245 0.20143488 0.29105955
-0.091624446 -0.28168026 -0.506091 -0.37813377 -0.071976416 -0.40495202 -0.12244435 -0.7101234
-0.30573878 -0.70953727 -0.103738256 -0.12297089 -0.02861174 0.12112193 -0.113102265 0.058235038
-0.13044474 -0.37035784 0.30619705 -0.1607844 0.032119546 0.21248336 -0.264723 -0.11846037
0.1415979 0.31827587 -0.034347203 0.06954025 -0.9032263 0.058285244 -0.7998296 0.10766075
-0.03976172 -0.40707847 -0.2964668 0.13022117 -0.03844421 0.11897214 -0.23401888 -0.15487063
0.029698757 -0.4242085 -0.2553497 -0.048543133 -0.33080813 0.20593917 -0.0239462 -0.29253024
0.2548837 -0.5029106 -0.08985052 -0.990587 -0.15331718 -0.5661047 -0.30022463 -0.5092045
-0.819452 0.09704632 -0.29573542 -0.42267194 0.1550939 -0.07356887 -0.19592111 -0.13831191
00000000: e388 463e 51cc 28bf 1337 11be c45c c53b
00000010: 08fc 373e 312b 2d3e 89f7 90bd 91d4 f8bc
00000020: cd8d 33bf 7848 36bf ab23 463e 9135 1c3d
00000030: e9aa 1bbe b7bf 2a3d 4a63 8cbf 7994 debe
00000040: 7fff fe3d cc0e 85be 9db9 19bf dc7c ea3d
00000050: 5001 a6bf d736 663d 5f28 f2be a45a 94be
00000060: 38b4 6fbe 7535 4ebe 3f9d 103d f6f5 623e
00000070: c344 74bd 4b08 9fbd 5d2b 92be 6c75 61bd
00000080: 45d6 8abd 6722 73bf 9fa7 d6be a29e 14be
00000090: fa09 8bbe afa3 8d3e f94c 36be 1e08 3ebe
000000a0: 8b5d 1fbf 021e 13bf 8482 7bbd 684f f6be
000000b0: 959e 11be e9cf 83be 998a 9a3e bcfd a6be
000000c0: 038f 423d 8319 313d 0b22 6bbd 8193 1fbf
000000d0: 6e89 0d3e 8d20 5bbc 5eed 3c3e 049e c0bd
000000e0: 1cbe 8abd 8ce5 8f3e 659a 2e3e 5732 5cbe
000000f0: 54ae 1b3e ba56 ddbe 6950 7dbd 5784 9abe
00000100: e315 5cbe 2689 643e 05aa 74be 17cb 80bf
00000110: ce37 49bd bbfb bcbe 5f87 e0be 280d 21be
00000120: 4315 99bd c52e aebe 4659 5fbe 7695 8f3e
00000130: 94f2 3cbf 9f5c 933c b9d2 d73d a907 60be
00000140: d89f 023e 7a37 8c3e b635 6cbe 2c78 833c
00000150: 7641 29bf fbf7 96be bdf2 aebb 86b8 a6be
00000160: 9697 74bd e664 54be 36a1 89bd 6099 32be
00000170: b6b2 6fbd 04ca b2be b2e3 93bd 2fa4 a6be
00000180: ec3e 1fbe 4cbf 50bf b28f a3bd 1606 09bf
00000190: 9bae 183e 6aee 96bd 1f5e 223d fbe2 fabd
000001a0: c796 a5be 37b0 70be 3066 5d3e 1577 37be
000001b0: 9da1 6cbf ac88 ccbe bf21 b5bc 9080 833e
000001c0: c230 703e 00c3 603d 9bc1 5dbe 6da1 18be
000001d0: c05e 353e f532 9dbe 1dd9 233c 3f36 883e
000001e0: 071b 8ebf db07 3cbe 09b6 72bf ac7a 9dbe
000001f0: 64fd d6bd 79a1 9c3b e7fe 313e f245 a03d
00000200: 29ba c4bd 738d cf3d 0a4f abbd 0121 8b3d
00000210: 68f4 903e 3112 84bf fa95 d5be a6ea 5fbe
00000220: 3fe9 9cbe 4eb3 803e 5a96 66be 125f 003e
00000230: c69e 9fbe 3552 08bf d5bf fdbd 8ad4 aebe
00000240: fc33 acbe cc82 3abe 3963 57bd 0ac2 cdbe
00000250: 96d6 0bbf 16ee 0e3e 9925 1fbe 949c f7be
00000260: 3c95 3b3e 38d0 83bd 194e ae3d 47cd 45be
00000270: fcb9 05bd 64e0 59be 2619 ee3c abf4 82be
00000280: c0c6 f7be 713f 8abe ec9a ae3e e249 23bf
00000290: bade a2be 6480 99bd 52f6 79be d624 dcbf
000002a0: ef20 1ebe a7d3 abbe 482f 2a3e 525a 8cbd
000002b0: f3d6 f8bd adc6 23be e69d 24bf b61c aabe
000002c0: 87a2 0abf b253 32be 1122 cc3c 83eb 823d
000002d0: faf9 dabe 602f 593d 9284 3dbf 1fcb 303e
000002e0: 8492 d83d be84 05bf 7629 3c3e d80c 8a3e
000002f0: 5577 fd3d f206 a1bf f244 4e3e c205 953e
00000300: 99a5 bbbd 6538 90be 2e8f 01bf c09a c1be
00000310: 5f68 93bd df55 cfbe 1ac4 fabd a6ca 35bf
00000320: cb89 9cbe 3ca4 35bf b974 d4bd 29d8 fbbd
00000330: 2b63 eabc c60e f83d 29a2 e7bd dd87 6e3d
00000340: 4e93 05be 8b9f bdbe dcc5 9c3e aaa4 24be
00000350: c98f 033d 3d95 593e c689 87be 5a9b f2bd
00000360: 0aff 103e 0ef5 a23e a7af 0cbd 1e6b 8e3d
00000370: d739 67bf 82bc 6e3d a2c1 4cbf 3d7d dc3d
00000380: 2fdd 22bd 976c d0be 7fca 97be b358 053e
00000390: ad77 1dbd aaa7 f33d a5a2 6fbe 6896 1ebe
000003a0: cf4a f33c db31 d9be 32bd 82be 2ad5 46bd
000003b0: af5f a9be b8e1 523e d22a c4bc 86c6 95be
000003c0: 1e80 823e c0be 00bf 8d03 b8bd 1c97 7dbf
000003d0: 2eff 1cbe 3dec 10bf 0bb7 99be 3a5b 02bf
000003e0: 9bc7 51bf 39c0 c63d a26a 97be 7568 d8be
000003f0: efd0 1e3e 47ab 96bd 8b9f 48be a3a1 0dbe

res.2.bias f4 [26]
-0.48894274 -0.14122917 -0.28482205 -0.32690603 0.30472624 0.042475637 0.00306147 0.1552514
0.28249732 0.32454312 -0.4684571 -0.5928909 -0.42290816 0.26858917 -0.2574042 0.51090467
0.57443565 -0.1435336 -0.21436019 0.2648737 -0.8729454 -0.038772058 0.13782583 -0.32292435
0.10495839 0.3668184
00000000: b456 fabe 619e 10be 32d4 91be 3a60 a7be
00000010: 1405 9c3e effa 2d3d f2a2 483b 39fa 1e3e
00000020: 7da3 903e 842a a63e 9cd9 efbe b3c7 17bf
00000030: 6b87 d8be 8584 893e 7cca 83be a6ca 023f
00000040: 370e 133f 79fa 12be 3d81 5bbe 879d 873e
00000050: 5a79 5fbf 73cf 1ebd 3722 0d3e 5756 a5be
00000060: 6df4 d63d 9fcf bb3e
