Braille_character_recognition/models/model_6cells_best.pt (torch, 113449 bytes, 18 tensors)

l1.0.weight f4 [16, 3, 5, 5]
00000000: 714b c3be 76cc ccbe 7a92 71be b06d 4bbe
00000010: 6996 2bbe e000 54be f50e 16be 24e8 f23c
00000020: 4393 d43c 4f3d 153e 1888 bd3d 53dc 433e
00000030: 3dbe d93d 3882 d23d 2ed5 b0ba c858 023e
00000040: d1f7 4d3e 53ad 8a3e bf19 123c 75f6 80bd
00000050: 02b6 c93c 0472 c63d 0445 afbd 8dcb 223d
00000060: 545e 4cbe fb96 f3be 6e23 c9be 9659 48be
00000070: a4c1 22bd d4e9 efbd 573c 26be ebf8 1cbe
00000080: 1007 bd3d 8ed7 c23d 191a 223e 3968 64bd
00000090: df95 963d b085 0e3e 24ea d63c a835 b33c
000000a0: dde2 a03e 4e4d 7b3e 2b76 4f3e b138 a73d
000000b0: 5c73 d7bd 6ce8 db3c 2e89 383d b018 9a3d
000000c0: 55a7 763d f007 39be 75e1 cbbe 8cea f4be
000000d0: a10e 49bd 94dc 9fbd a99a 4fbd 0c36 69be
000000e0: 2aa0 f8bd b4db 953c c461 813d 6162 10bc
000000f0: 7cb6 e83c 9609 d13d 9250 4c3e 6145 2d3e
00000100: 62f0 06be 535b 373e 986c c83e a383 253e
00000110: 4d76 7abc 606f 57be 7326 1a3d 95c7 fb3d
00000120: b63b 633d f8fb 89bc c2df f6bd 15a9 56be
00000130: 2eec 81be 5b5f d23d 1876 65bd 6acd d9bd
00000140: a2ee 2f3d 0392 3f3e 37f8 a53e 6483 053e
00000150: c4b0 68bd 171f 843c 64f6 f2bd 94d0 41bd
00000160: dec8 343e a5b6 a2bd 5175 53bd 7902 20be
00000170: 79a4 aabe dfb3 a2be bf69 e2be 6269 f4bd
00000180: 1404 86bd aa2a 1ebe bd11 b63d 237d babe
00000190: 33eb 54be 67c2 f6bd 8518 373d 267f 9ebc
000001a0: bf09 b03d 449d 463d 531c 303e e177 743e
000001b0: 42a7 193e af0f acbd 4ab9 a1ba 03db 3ebe
000001c0: 30ac 153e 3ed6 7f3e acdc 3bbd dd47 07bb
000001d0: 1367 2bbe 1bfa bcbe 9b96 54be 67ae 8dbe
000001e0: 0112 34be b1e8 2a3d 22c0 ffbc 665c 5bbd
000001f0: 75e3 b0be 2dd2 3fbe 133e 2bbd 2f74 a73d
00000200: 5a06 a03d 812c db3d 1e9d f63d 6bc1 733e
00000210: ca4d 113e 93bb df3d 955b 22be 3db0 5dbd
00000220: 770e 18bd 7c93 f43d fda2 e03d e0d9 8ebc
00000230: b0a2 3cbe dfc6 7abe e7f9 c2be 3cc8 99be
00000240: 8bd4 9dbe 9e07 08be c456 26bd 34c5 6dbc
00000250: 2723 ffbd 82a7 1dbe 770d 5fbd 052f 3dbe
00000260: 9424 303e d5fb 2a3e ccee 853c abc8 66be
00000270: 2122 a23c 2b40 4a3e c02a 133d 0658 1bbe
00000280: 92f4 fd3c d73f a83c d2b8 e1be eee4 25bf
00000290: 4578 05bf 5eea 34be cd9f 033d 00d6 8f3d
000002a0: 5d4e 01be 922f 5e3c 562b 32be 8456 8fbd
000002b0: 23bf 8c3e 336c 9d3e ed08 913d 95c5 8ebe
000002c0: ab0d 27be 221c da3c fdfd 1c3e 3228 fb3d
000002d0: 8458 c1bd 1cde 433d dd78 473e 1fbb 76bb
000002e0: 1474 04bd c737 003e 7150 6f3d 9ec7 e0be
000002f0: 804f efbe 4fb3 eebe 7bd5 02bd 0d73 8c3d
00000300: b527 273e e0bf 08be cd8d 02be 61bc 87be
00000310: 9cdc 843d c10d 8e3e a648 703e b169 263e
00000320: 6ec9 5abe cc01 43bd 5ddf b93d 3a30 fa3d
00000330: 447a fb3d 9b07 d6bc 7512 1bbe 3d02 923c
00000340: 7c5f f43d 5722 aabd 6c2f e83c ddc2 833c
00000350: c8b2 d0be bfe7 09bf ccca 05bf 3ef1 bb3b
00000360: c580 d73d c655 ec3d 68b9 04be 9afc 8abd
00000370: 34ff edbd b49e d3bc b4cc 7f3e 2548 953e
00000380: de37 853e 364f 043d faea ad3d 4888 9bbd
00000390: d30a b4bd 9f0a 613d 0dbf de3d 1ec8 303e
000003a0: 1e7a 183e f797 b53c 645b 41be 3da1 c6bd
000003b0: 666f 453e 05f6 d23e b59d bb3e c09e 443e
000003c0: e72a 2cbe 9d0a ddbd b4aa 5c3e 66c5 0dbe
000003d0: 49a9 6f3d eff3 65be 6486 f6be ccec d7be
000003e0: 2229 b7be 8083 34be 40a7 b8bc e319 adbc
000003f0: 38c3 383d 99b9 9cbd 57a3 7fbd 77a1 52bd
-0.38143495 -0.3999974 -0.23591033 -0.19866061 -0.16756596 -0.20703459 -0.14654143 0.029651709
0.025949126 0.14574169 0.092544734 0.19127016 0.10631988 0.102787435 -0.0013491267 0.1272918
0.20114066 0.2708536 0.008917271 -0.06297008 0.02462292 0.096897155 -0.085580856 0.039744902
-0.19957858 -0.47576126 -0.39284843 -0.19565424 -0.03973545 -0.11714521 -0.16233955 -0.1532933
0.09229863 0.0951377 0.15830268 -0.055763457 0.073528044 0.13918185 0.026234694 0.021876171
0.31423083 0.24541208 0.20259921 0.0816511 -0.1052005 0.026844226 0.0450527 0.0752424
0.060218174 -0.18069434 -0.39820448 -0.47835195 -0.049086217 -0.07805744 -0.050684605 -0.22774523
-0.12139924 0.01829324 0.063174754 -0.008812518 0.028407328 0.102069065 0.1995261 0.16920997
-0.13177636 0.17905931 0.3914535 0.16163497 -0.015286994 -0.2103858 0.037634324 0.122939266
0.055476867 -0.01684378 -0.12054397 -0.20962937 -0.25375503 0.10272094 -0.056020826 -0.10634883
0.042952187 0.18708043 0.32415935 0.13038403 -0.0568092 0.016128106 -0.118634015 -0.047318056
0.1765475 -0.07944993 -0.051625554 -0.15625943 -0.33328608 -0.31777856 -0.44221303 -0.11934163
-0.065437466 -0.15445963 0.08890102 -0.36423597 -0.20792846 -0.12048798 0.044701118 -0.019347738
0.08595609 0.048489824 0.17198305 0.23873855 0.1500521 -0.08401429 -0.0012338546 -0.18638234
0.14616466 0.2498407 -0.045864746 -0.00206422 -0.16738538 -0.36909565 -0.20760576 -0.2767212
-0.17584993 0.041725818 -0.031219546 -0.053554915 -0.34548536 -0.1873252 -0.041807245 0.08176457
0.078137115 0.10701848 0.120416865 0.23804252 0.1418983 0.10924449 -0.15855248 -0.054123152
-0.03712317 0.11942193 0.109685875 -0.017437875 -0.18421435 -0.24489926 -0.38081285 -0.3003558
-0.3082622 -0.13284156 -0.04061009 -0.014512349 -0.12457877 -0.1539593 -0.0544562 -0.18474968
0.17201453 0.16697629 0.016349219 -0.22537486 0.019791665 0.1975104 0.03592944 -0.15170297
0.03100041 0.020538254 -0.4408632 -0.64802444 -0.5213664 -0.17667529 0.03213482 0.07023239
-0.1262755 0.013561146 -0.17399344 -0.069989234 0.27489576 0.30746612 0.070817806 -0.27885118
-0.16313808 0.026624743 0.15331264 0.12263526 -0.09440711 0.047819242 0.194797 -0.0037648154
-0.032337263 0.12521277 0.058426324 -0.43902296 -0.4674034 -0.46621177 -0.031941872 0.06857882
0.16323741 -0.13354445 -0.12749405 -0.2651091 0.064873904 0.27744868 0.23465213 0.16251256
-0.21365902 -0.047609136 0.09075806 0.1221623 0.1227918 -0.026126673 -0.1514376 0.017823333
0.11932275 -0.08307331 0.028342925 0.016084129 -0.407614 -0.5386924 -0.5226257 0.0057355454
0.10522608 0.115397975 -0.12961352 -0.06786461 -0.11620942 -0.025832511 0.24980432 0.29156604
0.26019186 0.032302104 0.08492084 -0.07594353 -0.08791127 0.05494177 0.10876284 0.17263839
0.14890334 0.022167189 -0.18882519 -0.096987225 0.19280776 0.41203323 0.36643758 0.19201183
-0.16813241 -0.1079304 0.21549493 -0.13844833 0.058511052 -0.22456335 -0.48149407 -0.4217285
-0.3577357 -0.17628288 -0.022540689 -0.021130508 0.04510805 -0.076525874 -0.062411632 -0.051423516

l1.0.bias f4 [16]
00000000: b4eb 823e 7cfe cabf 818d 93bf 494a 4abf
00000010: b854 3abf 4017 debe ff73 35be 7c20 04bf
00000020: dc27 01bf 9bb0 8bbe 20cb 3abf fd5d 003e
00000030: 28a7 29bf be1c e4be ba88 21bf dceb 30bf
0.25570452 -1.5858912 -1.1527559 -0.790196 -0.7278552 -0.43377113 -0.1772003 -0.5161207
-0.50451446 -0.27283177 -0.72966194 0.12535854 -0.66270685 -0.4455318 -0.63099253 -0.6910989

l1.2.weight f4 [16]
00000000: 57ee 1e3e 885d 8d3f 3b02 b73f 4ffe a23e
00000010: c214 983f b6ae 2c3e 0767 863f 3b35 1b3f
00000020: c21f 8e3f aff7 893e db59 9c3f 3ce3 733d
00000030: 27f1 933f 964b 953f 0bbb 9f3f 98b9 803f
0.15520607 1.1044168 1.4297556 0.31834647 1.1881335 0.16863522 1.0500191 0.606281
1.1103442 0.2694678 1.2214922 0.05954288 1.1557969 1.1663692 1.2478956 1.0056639

l1.2.bias f4 [16]
00000000: 235b b5bc e9a2 5bbf 3616 34bf 5955 adbd
00000010: 25cc 55be 67a4 0a3f 1d66 e13e 36f0 833e
00000020: 7212 e33b 9b2a b03d 7c00 1fbe ced7 3a3d
00000030: 8e11 c03e f015 9a3e b981 fbbd 3c53 b3bc
-0.022138184 -0.85795456 -0.7034639 -0.084635444 -0.20878656 0.5415711 0.4402322 0.25769204
0.006929689 0.08601876 -0.15527529 0.045615964 0.37513393 0.30094862 -0.12280602 -0.021890275

l1.2.running_mean f4 [16]
00000000: 270e 453f 1ab2 653e 2a41 7b3e f1bc 173f
00000010: 894d 053f e03c e93f 72dd 363f fa12 453f
00000020: df0e 733f 812e a83e 4b9e fb3e 23c4 2540
00000030: 8862 8f3f a246 5c3f a36a f93e 04fe 663f
0.7697472 0.22431222 0.24536577 0.59272677 0.52071434 1.8221703 0.7143165 0.7698208
0.94944566 0.3284798 0.49144205 2.5900962 1.1201944 0.8604528 0.4871417 0.9023135

l1.2.running_var f4 [16]
00000000: 981c 4240 a2ed 1c3f 361b 363f a99f 1d40
00000010: 737b 0d40 ae02 e540 ad77 8d40 cb68 7a40
00000020: 142c ba40 c55f 853f 109f 1140 4b15 9d40
00000030: 4af0 bb40 14b9 8f40 a355 1740 2b0c cd40
3.0329952 0.613001 0.7113527 2.46287 2.2106597 7.156577 4.420859 3.912646
5.8178806 1.0419852 2.2753334 4.9088492 5.873082 4.4913425 2.3646019 6.4077353

l2.0.weight f4 [32, 16, 5, 5]
00000000: 2fc1 813c 1a24 59bc f557 b2bd fb78 cdbc
00000010: dec9 dc3c 9e1b 903d 9328 9bbc 8f27 afbd
00000020: 41e1 32bd 3dcb 60bd c29e a83c 884d 783d
00000030: ac10 233e 3f9a 023e 4faa 84bc 5b66 aa3b
00000040: 40b0 58be 663a eebd 9dbf 40bd 2235 20bd
00000050: 2b8e e53b ab11 93bd 7d9f 09be 9d4a 0dbe
00000060: 6c9d 15bd d20a e53d 1d10 b53d 223e 1f3e
00000070: 6f50 d83d 2e74 c73d ca93 8f3a bf6a bd3c
00000080: 39ff 253e e153 723e 4b42 803e eb35 cbbd
00000090: d232 64bd 3a49 89bd 2ab3 a03d 0571 1d3d
000000a0: 3b66 5bbe ad3f 0c3d a886 e23c 179d 6f3d
000000b0: 8d29 623d 82cd 6abe e445 f8bd 2690 d2bd
000000c0: 2277 99bd 8ed5 403e 77d6 0e3e 4552 babd
000000d0: df64 d6be a91c 52bd a0de c4bb 83d3 903e
000000e0: d109 f63e 55af 0b3f 6553 043e 7aa2 6c3e
000000f0: 7971 97be 4cb8 45be 87f3 6b3d 11c1 dd3e
00000100: 8e0d 57bc 0a47 b4bd 18d5 f8bd 46d0 cebd
00000110: 9bb6 cc3e 799a 0d3f d282 a73d becb 263e
00000120: c447 4a3e 0421 f53c 94cb debd 1d07 6b3d
00000130: 5c1f fcbb e93a e13d 6f8e 81bc 26c1 8f3c
00000140: c783 033c d394 10be d617 cabd 7ba7 d53d
00000150: 9d1d dd3d d49b 0a3d 68ea 17bd 24ef fabd
00000160: f761 3ebe 7175 00be fae5 aa3a be82 003e
00000170: 77ff 7b3e 42e8 3f3d 394a a2bd bcdc 3ebe
00000180: 054c 35be 7df4 1cbd a80b 39bc 2655 873c
00000190: eeba d1bd 70a1 e5be 7bdc adbe 1bad 84be
000001a0: 46c6 10be a087 ea3d 24ed b53d 591c 833e
000001b0: fd41 ae3d 5210 3e3e 08da 40bd a6f4 c43d
000001c0: 116e 833e 329f d83d 7147 b1bd 1ad6 afbe
000001d0: 81db d0be 9984 b4be b773 af3c 3b9f 853d
000001e0: 1846 89be a162 8e3d d3eb 21be 8118 47be
000001f0: a036 1cbe cddb c9bd a7b2 d5bb 4d7f 2abd
00000200: 5fb1 26be bb35 03be 2568 c23d e2e1 b6bc
00000210: a110 e43d 63be 90bd ccbe e2bd 2d40 723d
00000220: c969 8abd 4a03 333d 8034 273b 1f38 63bd
00000230: 9bf4 c5bd ff1d d1bd 1a9f 66bd e5e3 bbbd
00000240: fda1 d2bd 1432 52bd cdae a5bd bd41 49be
00000250: bfb4 1dbe 38f8 11be 9a82 3dbe 52c9 45be
00000260: d4e3 2b3d e3e2 b2bd 48bf b8be bbce 473e
00000270: d166 1b3e 5486 063f a895 d83e fbba d73d
00000280: 1840 2d3d 2f80 cbbe e585 0dbe 7f56 943b
00000290: fc52 e23d cdc3 8abe b4d0 24be e5b2 a53d
000002a0: 6874 f8bd ff14 d6bc 79c4 cfbe 5ca7 4abd
000002b0: 164f 733e 5d0f 7e3d bac6 58be cdbb 7abd
000002c0: 7980 1c3d 4a10 253e 2e68 c6bd a485 39be
000002d0: 9841 df3d 0299 9bbd 53e9 493e 4ba0 91bd
000002e0: 3249 06be 6223 663e 8227 4ebd 2450 9b3d
000002f0: d77a ae3d 70d1 90bd abd7 74bd 7c5e e63d
00000300: c197 933d 8fd7 c4bd c6c7 12be 6a4c 013e
00000310: 41da de3d 41af fa3d c7aa aebe 1bff 98be
00000320: b31b fcbc c3ba 8abe 168b d2bd 4d49 d73d
00000330: ae45 e9bd ab7c 153e 95c4 dabc e25b d7bd
00000340: 3cef 82bd 05f8 393e 5474 9f3d 25c4 7b3e
00000350: 0ba8 d83e 2a32 3f3d 7a28 79be 42e6 5cbe
00000360: f73b 43be 18c3 363d c4d8 113e 3251 fb3d
00000370: fc48 46be c7b8 4abe ef5a c7be 7f51 643c
00000380: 4f87 903e 2065 8e3d 49e0 2dbd 42e3 56be
00000390: 0097 66be c431 2dbe 94b9 873d 7377 363e
000003a0: 7a3b 4f3e 3f0d c8bd be62 20bd bc3c 2dbe
000003b0: b21f 9fbe 9c23 0fbe 0dcf 02be e816 a8bd
000003c0: 94bf 37bc 1ea1 28be 05d8 d7bd 8e87 cc3c
000003d0: deda 5f3e 231d 503d bd74 dabc b252 ffbb
000003e0: e6df f1bd 3f23 fdbd 5f54 8f3c 8742 d1bd
000003f0: f576 49bd a0d1 a9be 4a7a 80bd 9b5b 183e
0.015839187 -0.013253236 -0.08708183 -0.025082102 0.026951727 0.070365176 -0.018940246 -0.08552467
-0.04367185 -0.054881323 0.020583514 0.060620815 0.15924329 0.12754153 -0.01619449 0.00520019
-0.21160984 -0.11632232 -0.047057737 -0.03911317 0.007005473 -0.07181104 -0.13439746 -0.13797994
-0.036527082 0.111837044 0.08840964 0.15551046 0.105622165 0.097389564 0.0010954079 0.02312219
0.16210641 0.2366481 0.25050578 -0.099223934 -0.05571253 -0.0670342 0.07846673 0.038437862
-0.21425717 0.034240413 0.0276521 0.058499422 0.055215407 -0.22929958 -0.121227056 -0.102814004
-0.07493426 0.18831465 0.13949 -0.09097723 -0.41873834 -0.051296864 -0.0060079843 0.2828637
0.48054364 0.5456441 0.12922437 0.23108855 -0.2957876 -0.19308585 0.057605293 0.4331136
-0.01312579 -0.08802612 -0.121500194 -0.10098319 0.39983067 0.5531383 0.08179249 0.16288659
0.19753939 0.02992297 -0.10878673 0.05737983 -0.007694168 0.10997564 -0.015814988 0.017548155
0.008027024 -0.14119272 -0.098678276 0.10432335 0.10796664 0.033840016 -0.03708878 -0.12252644
-0.18592058 -0.125448 0.0013038509 0.12549874 0.24609171 0.046852358 -0.07924313 -0.18638891
-0.1770478 -0.0383191 -0.011294283 0.016520094 -0.10240732 -0.4484973 -0.33957276 -0.2591332
-0.14138135 0.1145165 0.088831216 0.25607565 0.0850868 0.18560913 -0.04708293 0.096169755
0.25669912 0.10577239 -0.086562045 -0.34343034 -0.40792468 -0.35257414 0.021417482 0.065245114
-0.2681129 0.06952406 -0.15812616 -0.19442941 -0.15255213 -0.09856377 -0.006521541 -0.04162531
-0.16278599 -0.12813465 0.0949252 -0.022324506 0.11135984 -0.070675634 -0.11071548 0.059143234
-0.06758458 0.04370431 0.002551347 -0.055473443 -0.096657954 -0.102107994 -0.056304075 -0.09174327
-0.10284803 -0.05131729 -0.08089981 -0.19653983 -0.1540098 -0.14254844 -0.18506852 -0.19315079
0.04196532 -0.087346815 -0.36083436 0.19512455 0.1517594 0.5254872 0.4230168 0.105337106
0.042297453 -0.39746234 -0.13820608 0.0045269127 0.11050984 -0.2710251 -0.16095239 0.08090762
-0.12131578 -0.026133059 -0.40579584 -0.049476013 0.23760638 0.06202637 -0.21169558 -0.061214257
0.03820846 0.16119495 -0.096878394 -0.18117386 0.10901183 -0.07597543 0.19717912 -0.071106516
-0.1311386 0.22474435 -0.050330646 0.07583645 0.085195236 -0.07071197 -0.05977599 0.1124849
0.07206679 -0.09611427 -0.1433402 0.12626806 0.108814724 0.12240458 -0.34114668 -0.2988213
-0.030774927 -0.27095613 -0.10280435 0.10512028 -0.113902435 0.14598338 -0.026705066 -0.10515572
-0.063932866 0.18161018 0.0778586 0.24586542 0.42315707 0.0466787 -0.24331847 -0.21572211
-0.19065844 0.04461965 0.14242846 0.12271346 -0.19363779 -0.1979705 -0.38936564 0.013935446
0.28228232 0.06952882 -0.042450223 -0.2098513 -0.2251854 -0.16913515 0.06627193 0.17819004
0.20237532 -0.097681515 -0.039156668 -0.169177 -0.3107887 -0.13978428 -0.12774296 -0.08207494
-0.011215109 -0.16467711 -0.10539249 0.024966981 0.21860835 0.050809037 -0.026666993 -0.0077918405
-0.11810283 -0.12360238 0.017496286 -0.10217767 -0.049185712 -0.33167744 -0.06273325 0.14878695

l2.0.bias f4 [32]
00000000: 100f c9be c5aa 93be dd32 40bf 567c 4cbe
00000010: 45bb a9be 86af c2bd ca1d d7be 20a8 27bf
00000020: 70e0 43be 256d ffbd c7a9 dfbe 9583 acbd
00000030: 51cb 02bf 44ea c43d 0d8c abbe dc4f 80be
00000040: 938e a6be e8db 18bf e4b1 c1be 1cd6 73be
00000050: 6b0e f0be 7991 9dbe 8d7b ee3d 33da e4be
00000060: 17e1 9ebe 1a9c 24be 0c23 59bf edea 55bf
00000070: aa78 b5be a0c7 80be 778e 393d 7ec4 b5bd
-0.39269304 -0.28841224 -0.7507761 -0.19969305 -0.33150688 -0.09506135 -0.42014915 -0.65490913
-0.19128585 -0.124719895 -0.43684217 -0.08423535 -0.51091486 0.09614995 -0.33505288 -0.25060928
-0.3253065 -0.5971055 -0.37831032 -0.23812145 -0.46886 -0.3077505 0.11644659 -0.44697723
-0.31031105 -0.16075173 -0.848191 -0.83561593 -0.35443622 -0.25152302 0.04530188 -0.088753685

l2.2.weight f4 [32]
00000000: efee ba3e 0dbf 3f3e 749e fa3e 77a4 2e3e
00000010: 0ce2 6a3e 6987 ab3e 3633 063e 1ab6 063f
00000020: f818 9f3e 9255 993e 5127 b83e d4aa 703e
00000030: 22ce 653f 4157 0b3d 12d3 b63e 2c0c c83e
00000040: 614e 423e 7803 843e addd b03d 8eba 153f
00000050: e85d e63e 7b12 503e 565c 513e eb5e 153e
00000060: 6fb0 df3d 033b 7b3e 2ca7 603e d7b2 013f
00000070: 0cb6 aa3e 2561 343e c943 9f3e 42d9 473e
0.36510417 0.18725224 0.48949015 0.17054926 0.22937793 0.33501747 0.13105473 0.52621615
0.31073737 0.29948097 0.35967496 0.23502666 0.8976766 0.03401876 0.3570791 0.39071786
0.18975212 0.25783896 0.08636031 0.58487785 0.4499352 0.2031955 0.2044538 0.1458699
0.10922324 0.2453423 0.21938771 0.5066351 0.33342016 0.17615183 0.31106403 0.19516471

l2.2.bias f4 [32]
00000000: a98a 0ebe 2408 cabd 5edb 89bd d72f c6bd
00000010: 5fbd d8bd 2433 ebbd f234 70bd 7f47 09be
00000020: d40b 0abe 40cf 59be 427e efbd 80d8 cebd
00000030: fe01 3cbe dc5a 08bd 5d2d 61be 9820 90be
00000040: cadb 88bd e238 debd d7bc f9bc 5508 66bd
00000050: b2bc 75be be21 8dbd 3cdb 2abe da35 83bd
00000060: 039a 70bd e48f 72bd 0bb1 99bc b9cb 17bd
00000070: c97f 1dbe bb08 b1bd 2817 e0bd e9d6 acbd
-0.13920082 -0.09864834 -0.06731294 -0.096770935 -0.10582995 -0.11484364 -0.058644243 -0.1340618
-0.13481075 -0.21270466 -0.11694004 -0.10099888 -0.18360135 -0.033289775 -0.21989961 -0.28149867
-0.066825464 -0.10850693 -0.030485554 -0.05616029 -0.23997763 -0.068912014 -0.16685194 -0.06406756
-0.058740627 -0.059219256 -0.018761178 -0.03705952 -0.15380777 -0.08644243 -0.10941917 -0.08439428

l2.2.running_mean f4 [32]
00000000: 0182 3140 5475 5240 3d2d d83f 2742 9a40
00000010: bf01 b040 8f50 df3f 2ca0 953f b37e f93f
00000020: ef9c 6a40 fe3a 0641 0bb0 3e40 fce9 1340
00000030: 1ba3 ec3f 5af0 a040 44ed 6840 3bd3 6c40
00000040: 48ee 4e40 19f9 1340 e978 3440 c584 1f40
00000050: 425a 0141 f899 1340 b065 a040 ce99 8040
00000060: f931 8e40 aae3 0c40 b857 633f 985e dc3f
00000070: 4aa9 f240 e06a 8c40 51a6 4c40 7909 e440
2.7735598 3.2884111 1.6888806 4.820575 5.500213 1.744646 1.1689506 1.949179
3.6658285 8.389402 2.9794948 2.3111563 1.8487276 5.02934 3.6394815 3.7003925
3.2332935 2.3120787 2.8198798 2.4924786 8.084536 2.3062725 5.012413 4.018775
4.4436 2.2013955 0.88805723 1.7216368 7.583165 4.3880463 3.1976511 7.1261563

l2.2.running_var f4 [32]
00000000: b8a4 4342 803d 8642 92ff 0c42 7cae b542
00000010: 5d64 ec42 2874 4a41 2b70 3841 d004 1242
00000020: d85d 7842 c18d 0043 3b5d 4d42 0cc5 6c41
00000030: 0a81 e241 a5f9 f541 33b7 8642 3859 4842
00000040: 741b 7d42 5d37 3942 7f0d 5e42 2b23 ab41
00000050: 208f 1743 00f1 4142 f7a3 0c42 22a0 9e42
00000060: 1ce5 7b42 e7ad 0f42 cae5 3941 70d3 0242
00000070: a5ae 1a43 803e b042 dec8 b441 550a 1843
48.91086 67.12012 35.24958 90.84079 118.19602 12.653358 11.527385 36.5047
62.091644 128.55373 51.341045 14.798107 28.313007 30.746897 67.35781 50.087128
63.27681 46.304066 55.51318 21.392172 151.55908 48.48535 35.160122 79.31276
62.97374 35.919827 11.618601 32.706482 154.6822 88.12207 22.59808 152.04036

lin6.0.weight f4 [6, 1568]
00000000: 2529 4f3e 5ff3 733e 7bec 7e3e b45c df3d
00000010: c733 c13d e04c 673c befa 4a3e 3c40 a53e
00000020: 7cfa 7c3e 967c 3f3e 73e7 4b3e 13b1 d23e
00000030: 279a 413e 8fcb d6bc 2a66 5abe b8d8 c1bd
00000040: 019f 95bc cc44 66bd 423e 123e f3e1 ad3d
00000050: c66b fe3c 0ce7 e5bd 6c15 37be e451 35bd
00000060: 474d 27bc 9e50 47be 3025 e6bc a9e1 b6be
00000070: e29c 47bd 34e0 44be 8761 053d 48b3 253d
00000080: 4c93 bbbd 1a2d 2abe 8ca6 2dbe 6073 5d3e
00000090: e4c7 443e da38 723e 82de 043d df81 10be
000000a0: 8bb7 f73c 986c b8bd d10d 783d e538 ea3d
000000b0: efc2 8c3e 7a3e 5dbe 430e 0fbe 65d3 51be
000000c0: 09f7 d5bd 2ffc 9b3e f7da ad3e 148f 823e
000000d0: 72b3 4f3e 7109 983d 28aa 393c 818b 573d
000000e0: b604 4fbd eeea 903c c242 333e 65fc 843d
000000f0: 8f3a cb3d 21f5 c53d 9964 883c b476 05bf
00000100: 4e2a 02bf 6570 6ebe f27f 53be 320a 76be
00000110: 6b43 3cbe f37c 12bd 29e9 9dbe 446f 98be
00000120: a0ac f1bd 656f 3dbe c7a7 2f3c 9df1 acbd
00000130: 75ee 1cbe 6f3f b83b 0193 963d aa35 2e3c
00000140: 8fe0 3d3e 3be1 933e 5d3a 8e3d e8de a3bd
00000150: e437 513e bcf1 7b3e ae18 453d d7a3 0abe
00000160: a427 e0bd 852f 97bd 8cbc 05be 347b 343e
00000170: cec1 b33e b5b8 223e b413 773e 4900 03be
00000180: 584e 9dbe 579b 53be 0029 8e3e 84cb 283e
00000190: f08c 3d3c 1199 96be 8696 a5bd edc6 a13e
000001a0: e2e2 59be 8651 8b3d 13a0 c03e 4dbb 323e
000001b0: 92c2 1c3d 82b3 3a3e da57 b83d de2c 4cbe
000001c0: 734b 84bd b7a5 b53d d258 253e 58be 2e3e
000001d0: 3ab8 6c3e bae6 ac3d b75c 503e 19c9 0cbf
000001e0: 7c4b 42be 63a3 1a3e 7548 043e e551 4b3c
000001f0: 5140 15be 503b 9abe e987 10bf 22ce bdbe
00000200: 6339 80be 0e3d a83d 4bf1 27be e8a2 16be
00000210: bb9f 903d 6172 de3d 5ffb 633e f15c 2c3e
00000220: a399 16bc c6c5 373c 50c0 133d b714 b23c
00000230: b221 233d aac9 0d3e f662 98bd 99f7 dfbe
00000240: 431b b2bd dc9c 29be 5a08 45be d1b5 933e
00000250: 7134 913e d8b4 5d3d 9355 f03d a81f aa3d
00000260: 6853 ca3d e7ec cc3c 8157 8dbd f568 a4bd
00000270: 5cac ec3c 030c debd 0f05 58bd 4deb 9cbd
00000280: ef8e 4ebd 454e 88bd bed4 1abe f26d 15be
00000290: abaf d5bd bdb3 18be 2c6e 98be 02ee 55be
000002a0: fd4c 22be 564e 8fbd 4b4e 003b 983a a53d
000002b0: ee05 5ebd 54cc 02bd c6a4 cfbc 5188 8a3e
000002c0: 9165 463e 477a 583e 4e7e 86bd d4f9 ccbc
000002d0: 4255 a63d 5f73 91bd d8dc 073d f797 423e
000002e0: 2c82 753e 886b 3a3d 22ca 57be f416 5abe
000002f0: 7883 44bd 17c5 ccbe 20a9 b23d 48ba d53d
00000300: 1246 08be a56f 933d ac3a 58be cb12 fcbd
00000310: 5a1e 0e3e f1a8 363e 6e2b bb3e bfe2 3c3e
00000320: 8cc4 b9bd 9e99 cdbc c78e 803d d899 4e3e
00000330: 37b2 de3e 7761 c33e da51 7f3e 742d 8a3e
00000340: a5ba 6f3e aa78 1d3d e65e 46bd 649d 3e3e
00000350: cd1f b03d 95c7 a0be 761a f23c 0c36 00bd
00000360: 8a80 903d 11b2 c5bd 3cdb edbd f857 85be
00000370: f01c 29be 2ea2 97be ce0e e4be 6875 6abe
00000380: 281c 01be f9dd adbe cf78 dabe 28aa 3dbe
00000390: f342 033d 0655 e0bd b97a b7bc f731 bb3d
000003a0: c8ec 383d 9075 8d3d b4d6 61bd 3e23 803d
000003b0: 202d 4ebc 4fbc cc3d 060a 1fbd 400f 42bc
000003c0: 74c9 b23d a821 803d 0c57 22be eeff 02be
000003d0: 4d99 e3bd 4389 25bd a679 9fbe 01c0 9bbe
000003e0: 03e2 11be bdfa bdbc b9c2 da3c 31d3 4bbe
000003f0: b530 b73b 93be 913d 25e2 ee3d d14e 853e
0.20230539 0.23823307 0.24894898 0.109063536 0.09433704 0.0141174495 0.19822213 0.3227557
0.24704927 0.1869987 0.1991251 0.41150722 0.1890646 -0.026220111 -0.21328035 -0.09465164
-0.018264296 -0.056217954 0.14281562 0.08490362 0.03105725 -0.11225709 -0.17879266 -0.04426755
-0.010211295 -0.19464347 -0.028093904 -0.3571904 -0.0487336 -0.19226152 0.032563712 0.04045418
-0.09158954 -0.16618767 -0.16958064 0.21626043 0.19216877 0.236545 0.032438762 -0.14112042
0.030238887 -0.090050876 0.06056005 0.11436633 0.27492473 -0.21605864 -0.13970284 -0.20490797
-0.10447509 0.30465838 0.3395612 0.25499785 0.20283297 0.07423676 0.011332072 0.052623276
-0.050541602 0.017690148 0.17505935 0.06493453 0.099232785 0.09665895 0.016649531 -0.5213425
-0.508458 -0.23285063 -0.20654276 -0.24027327 -0.18385093 -0.035763692 -0.3084195 -0.2977239
-0.11800504 -0.18499525 0.010721154 -0.084445216 -0.15325339 0.0056227962 0.073522575 0.010632912
0.18542694 0.28882775 0.06944726 -0.080015 0.20431477 0.24603933 0.04811924 -0.13539062
-0.10945061 -0.073821105 -0.13060206 0.17625123 0.351088 0.15890773 0.2412861 -0.12793078
-0.30723834 -0.20664726 0.27765656 0.16483885 0.011569247 -0.29413655 -0.08085351 0.3159708
-0.21277955 0.06802659 0.37622127 0.17454262 0.038271494 0.1823254 0.09001131 -0.1993899
-0.06459703 0.08869498 0.16147164 0.17064798 0.23117152 0.08442445 0.20347868 -0.5499435
-0.18974108 0.1510139 0.12918265 0.012409662 -0.14575316 -0.30123377 -0.5645738 -0.3707133
-0.25043783 0.0821477 -0.1640064 -0.14710581 0.07061716 0.1086166 0.22263859 0.1683233
-0.009191903 0.011216586 0.036072075 0.021738393 0.039827056 0.1384646 -0.0744075 -0.4374359
-0.08696606 -0.16563743 -0.19241467 0.28849652 0.28360322 0.054127544 0.11735072 0.08306819
0.0987919 0.025015308 -0.06901456 -0.080278315 0.028890781 -0.10842135 -0.0527392 -0.076620676
-0.05042928 -0.06655554 -0.15120217 -0.14592722 -0.10433897 -0.14912315 -0.29771554 -0.20891574
-0.15849681 -0.06997363 0.0019577916 0.080678165 -0.054204874 -0.031933144 -0.025347125 0.27057126
0.19374682 0.21140395 -0.065670595 -0.025021471 0.081217304 -0.071020834 0.033169597 0.19003282
0.23975438 0.045512706 -0.21073201 -0.21297818 -0.04797694 -0.39994118 0.08723664 0.10435921
-0.1330798 0.07199029 -0.21116132 -0.12308272 0.13878766 0.17837884 0.36556572 0.18445872
-0.090706915 -0.025097664 0.062772326 0.20175874 0.43495342 0.38160297 0.24933568 0.26987803
0.23411043 0.038445152 -0.048430346 0.18614727 0.085998155 -0.3140227 0.029553633 -0.031301543
0.07055767 -0.09653104 -0.11614081 -0.26043677 -0.16514945 -0.2961592 -0.44542545 -0.2289635
-0.12608397 -0.33958414 -0.42670295 -0.1852194 0.03204627 -0.10953717 -0.022397386 0.091403894
0.045147687 0.06907189 -0.055136397 0.06256722 -0.012584001 0.099968545 -0.03882792 -0.011844456
0.087298304 0.062564194 -0.15853518 -0.12792942 -0.11113224 -0.040414106 -0.31147498 -0.30419925
-0.14246373 -0.02319085 0.02670418 -0.19904782 0.005590523 0.07116427 0.116642274 0.26036695

lin6.0.bias f4 [6]
00000000: d274 533e 6ca5 0ebd b119 4ebc 07ce ea3d
00000010: d1c1 af3d 3b13 f9bd
0.20650032 -0.034825727 -0.0125793675 0.11465078 0.085818894 -0.12161871

res.0.weight f4 [100, 6]
00000000: e336 b93d cd44 88be 41ed 883e 7718 43be
00000010: 44c5 bc3d f219 633c 8ec2 713e 25f5 a93e
00000020: d78d 0abf 0ec7 c43d 6b3b 24bf c966 25be
00000030: 0eb4 b6be 3b77 a73d 28e5 e0bc c517 843d
00000040: b170 2e3e b6ed 3abe 8d4f 9bbe 5b6f a43e
00000050: e5a8 e6be d47b 67be 7ed1 05bf 561f a2be
00000060: 410d cb3d fc26 d7be c183 113d 307b 3d3c
00000070: be39 903e 58a9 24be 4a41 713e 6840 85be
00000080: 1af6 b83b 78e3 043d a1ed 9abd 668c 943e
00000090: 7c09 d6be 6d9e 823e 24cb 703e 8d36 92be
000000a0: 7294 50bb db28 01bf 6b66 99bf c815 14be
000000b0: e891 843e 42b4 5a3e e264 f43d 13cd c3bd
000000c0: 89da 7dbe 6851 3bbf c8fa 8a3e fc4a 00bf
000000d0: bbc3 ac3e 74ec 043d fdca 4b3d 7657 fa3e
000000e0: 5280 d4be a70a 4fbe 404b e13d b4fb 1cbf
000000f0: c139 fb3e 76fe a3be 9045 ce3d e023 be3e
00000100: fec9 883b d2b7 ec3d 39ba babe 5b85 c63d
00000110: e18e 7d3e 4bad 633e 3d11 59ba d8bd d6bd
00000120: 941f 13be 58c7 4e3e 7859 323e 3e07 803e
00000130: 5759 483e 2781 a9be 0548 143d 2d6d 073e
00000140: bf62 0abd da9b 863c 6dd8 8bbe f080 de3d
00000150: 2925 753d 910a 14bd e7e0 4f3d 08e7 e93b
00000160: 5207 83bf 8fed 383e 98cb cb3d b3d6 00bf
00000170: ec21 033f f1bd 763d a89f edbe 4473 7a3e
00000180: 89e5 ac3c 670e adbd db8c 2abe bdbd 23bd
00000190: 3b49 963e ecfb a43c 2ab2 1f3e 9a7b 1e3e
000001a0: ca5c 7b3e c033 dcbe 2fed eabe 0da6 1c3e
000001b0: 98a7 2dbf 5153 5f3e b9b1 35bf 72cb 723e
000001c0: 04b8 4f3e dde5 3d3d 5991 1fbe 68f6 ae3c
000001d0: 8fa0 abbe 4cc7 0c3d acad 8a3e 8484 bf3c
000001e0: f418 153e 0e3a 32bf fd69 a6be 71a8 8e3d
000001f0: 34c7 c73d e881 f83c 0af0 b8be 997c bcbd
00000200: ac9a 6a3d e940 02bf 4204 443e 556e fcbc
00000210: 8a2a 053e d352 c0be 0ef5 5bbf 2b17 80bd
00000220: aa38 67be 238a b43e c74f 28bf 7cd3 adbe
00000230: 5663 de3e b17a 6dbf 71c2 e03b 2d74 b3bc
00000240: 4038 053c 86ab 5a3e 3bdc c1be bef5 5cbe
00000250: 5ddf 7a3e 8bbc d4be cc0e 953b 8910 babe
00000260: 452e a53e a723 9e3d d549 1abd 6b9a 0e3c
00000270: 9207 063e e1ae 353e 42b6 27bf 0103 713e
00000280: ba35 38bd 96ea 6fbd 6901 bf3d 5ce0 90bd
00000290: 9ef7 353d b25b b5bd c22e b53d 5399 173e
000002a0: fd2d 69be 4b41 ea3d c731 bbbd c416 5d3b
000002b0: c590 f7be 5b67 e43d 3615 c4be 480e 23be
000002c0: b140 5c3e fb76 a7be e84e 253d 5c88 96bd
000002d0: 7303 11bf 1a92 2ebe 3f76 c13e 988a 253e
000002e0: 8477 a0bd 8978 27be 271f 7fbd d9cc 383e
000002f0: 019c bcbc 6203 d3be 71a0 0fbf c9a1 efbe
00000300: 001a c6ba 26ca 8d3d 6065 33bf 01da 58be
00000310: cf2e 383e b6a0 7c3c 0765 88bd ca13 d2bd
00000320: d258 42bf 0aa3 1ebf 120f 3d3e 494f 96be
00000330: ca24 8bbd b066 11bf eea2 4fbb 2e04 b0bc
00000340: 5ec6 42bf 1077 cc3d b487 77bd f169 21bf
00000350: 96bc b83e 1c57 8a3e 2cf6 12bf 18b9 78bf
00000360: 31d6 053f 916b 77be 6c4b 8abe 9800 1abf
00000370: 8436 aabe 7f7c a53e a98f c43d 727c 853e
00000380: 9d04 9c3d 7b49 f23d ac3b 113e ae53 5f3e
00000390: 5b00 6a3c e00f c13d b666 cbbe a0d2 79be
000003a0: cb5a 90bd 7817 04bf dfcb 14be 1ec7 68bd
000003b0: 1820 853e f4a4 b33d 69eb 1cbc 8342 7bbe
000003c0: 4e83 e93e b4fb 6c3e 7cfe 77be b68f e33d
000003d0: ecbd 14be 74a5 94be 8f0d 533e b6c4 91bc
000003e0: bbc3 e5be 90f8 78be eea0 b3be 2127 a73e
000003f0: 9362 023e ab15 15bf 956a 55bc 0389 31bd
0.09043672 -0.2661499 0.2674351 -0.19052301 0.09217313 0.013861166 0.23609373 0.33194843
-0.5412268 0.09608279 -0.64153165 -0.1615249 -0.35684246 0.08177038 -0.02745302 0.06449846
0.17035176 -0.18254742 -0.3033413 0.32116207 -0.4505073 -0.2260583 -0.52272785 -0.31664532
0.09914637 -0.4202193 0.03552604 0.011565015 0.28169054 -0.16080225 0.23560062 -0.260257
0.005644572 0.032443494 -0.07564855 0.29013366 -0.4180411 0.25511494 0.23514992 -0.28557244
-0.0031826762 -0.50452965 -1.198438 -0.14461434 0.25892568 0.21357825 0.11933304 -0.09560599
-0.24790396 -0.7317109 0.27144456 -0.5011442 0.3374308 0.03245206 0.04975413 0.48894852
-0.4150415 -0.20218907 0.11000681 -0.6132157 0.490675 -0.32030076 0.10071862 0.37136745
0.00417447 0.115584984 -0.36470202 0.09693404 0.24761535 0.22234075 -0.0008280462 -0.104854286
-0.14367515 0.20193231 0.17416942 0.25005525 0.1956533 -0.33106348 0.036201496 0.13225241
-0.033785578 0.016431738 -0.27313557 0.108644366 0.05984989 -0.03614289 0.050751593 0.007138137
-1.0236609 0.18059371 0.09950942 -0.50327605 0.51223636 0.060239736 -0.4641087 0.24458033
0.021105545 -0.08450013 -0.16655295 -0.03997587 0.29352745 0.020139657 0.15595308 0.15476838
0.24547115 -0.43008232 -0.45884082 0.15297718 -0.6783385 0.21809126 -0.7097431 0.2371042
0.2028504 0.046361793 -0.1558279 0.02135773 -0.33520934 0.03436975 0.27085626 0.023378618
0.145603 -0.69619834 -0.32502738 0.069657214 0.09754792 0.030335382 -0.36120635 -0.092034526
0.057276413 -0.50880295 0.19142249 -0.03081433 0.13004509 -0.3756319 -0.859208 -0.06254419
-0.2258021 0.3526164 -0.6574673 -0.33950412 0.43435162 -0.9276534 0.0068591167 -0.021905983
0.008131087 0.21354493 -0.37863335 -0.21578118 0.24499269 -0.41550097 0.004548883 -0.3634074
0.32261863 0.07721644 -0.037668068 0.008703808 0.13088825 0.17742492 -0.6551248 0.23536302
-0.044973113 -0.058573328 0.09326441 -0.07074043 0.0444256 -0.0885538 0.08846809 0.14804582
-0.2277145 0.11438235 -0.09140354 0.0033735493 -0.48352638 0.11152526 -0.38297433 -0.15923417
0.21509053 -0.32707962 0.040358454 -0.07350227 -0.5664589 -0.17047921 0.37785527 0.1616615
-0.07835296 -0.16354574 -0.06228557 0.18046893 -0.023023607 -0.41213518 -0.5610419 -0.4680312
-0.001511395 0.069233224 -0.7007656 -0.21176912 0.17986606 0.015419176 -0.066598944 -0.10257681
-0.7591678 -0.6196753 0.1846278 -0.29357365 -0.06794126 -0.56797314 -0.0031682807 -0.021486368
-0.76083934 0.09983647 -0.06043215 -0.6305228 0.3608138 0.27019584 -0.5740688 -0.9715743
0.52279955 -0.24162127 -0.27010667 -0.60157156 -0.33244717 0.32321545 0.095977135 0.26071507
0.076180674 0.118304215 0.1418292 0.21809265 0.014282311 0.09426856 -0.397268 -0.24396753
-0.070485674 -0.5159831 -0.14530896 -0.056830518 0.26001048 0.08771697 -0.0095776105 -0.24537091
0.4560799 0.23142892 -0.24218172 0.11111395 -0.14525574 -0.2903248 0.20610641 -0.017793994
-0.44875893 -0.24313569 -0.35083717 0.3264704 0.12732916 -0.5823619 -0.013025899 -0.043343555

res.0.bias f4 [100]
00000000: c336 bcbf 28a6 ca3e 0a4b 61bf 3a09 a1be
00000010: 0ceb aebf 0ddf 3abf 4b53 d8bd 0f71 2e3f
00000020: 393d db3e a9e8 e63f 4c53 a0bf 3d4f adbf
00000030: c219 81bf b910 bdbf f901 c33f 52e5 a1bf
00000040: c988 89bf f812 a1bf 2b89 8abf fc7c 8ebf
00000050: a018 c63f 6f38 713e 9f6c bc3f 2517 023e
00000060: 63d0 1ebe 4bdb 053f 5b8e b0bf 0182 eebf
00000070: fa2e 44bf b40a 8dbe 198c 3a3f aa86 373d
00000080: 073a 753e 60ac f23f 1b2c 9b3f 4c29 e73e
00000090: 1c20 c13e bd27 0ec0 1fbf 413d 01c7 093f
000000a0: b1fc 85bf e87a 313f eba3 553f d423 f73f
000000b0: a697 69bf b569 1abf c7f9 09bf b3e3 9e3f
000000c0: 6919 4abf 8684 acbf 4934 6ebf 24fd 743f
000000d0: d42d 6cbf 3366 a1bc dd80 bcbf 72c9 86bf
000000e0: 253e 2bbf 7aa9 7ebf 2ee2 ecbc e20a 8b3f
000000f0: 476c 3cbc 4540 8e3f e3a7 abbf b9a6 b93f
00000100: 3ea4 833f fe52 c4bf cd97 aabe de48 483e
00000110: 88b1 243f 7e00 643e c10a 9ebf 5992 3e3f
00000120: 5815 a63e 3835 b83f cfc7 773f a822 d6bf
00000130: 174d ccbf 2190 c8bf 6748 42bf 400f b5bc
00000140: bfc6 02bf 9123 4cbf c34e 85bb 7942 9bbd
00000150: 631e 583f 8e48 9f3f 7c41 88bf 8384 7ebe
00000160: d1b9 06bf 913f 833f a665 84bf 1d10 29bf
00000170: 1052 423f 1bc5 e53f fbc0 523f bb8b 873f
00000180: ea58 29be f559 e03d 8aad a1be 377a 2bbf
-1.4704212 0.39579892 -0.88005126 -0.31452352 -1.3665481 -0.729966 -0.10562762 0.68141264
0.42820147 1.8039752 -1.252542 -1.3539807 -1.0085986 -1.4770728 1.5234977 -1.2648108
-1.0744869 -1.2583914 -1.082311 -1.1131892 1.5476265 0.23556684 1.4720649 0.12704141
-0.1550918 0.5228774 -1.3793443 -1.8633424 -0.7663418 -0.27547228 0.7287002 0.04480616
0.23947917 1.8958855 1.2122835 0.45148695 0.3771981 -2.2211754 0.047301408 0.5381928
-1.046774 0.69328165 0.83453244 1.9307809 -0.9124702 -0.60317546 -0.53896755 1.2413238
-0.7894502 -1.3477943 -0.9304853 0.9569876 -0.9225743 -0.019702053 -1.4726826 -1.0530226
-0.668917 -0.9947735 -0.028916445 1.0862696 -0.011500425 1.1113364 -1.341061 1.4504005
1.0284498 -1.5337827 -0.3331894 0.19559047 0.6433339 0.22265813 -1.2347032 0.7444206
0.3243816 1.4391241 0.9678926 -1.6729326 -1.5961026 -1.5668985 -0.7589173 -0.022101998
-0.5108451 -0.7974177 -0.004068227 -0.07581038 0.84421366 1.2444017 -1.0644984 -0.24855237
-0.52627283 1.0253774 -1.0343521 -0.6604021 0.7590647 1.7950777 0.82325715 1.0589517
-0.16537824 0.10954658 -0.31577712 -0.6698336

res.2.weight f4 [26, 100]
00000000: 808e 413e 1f0b 1cbf 4ff7 10be 0271 c53b
00000010: e253 2d3e 27ca 293e 5a0f 81bd 6e93 84bd
00000020: e551 33bf 2331 1fbf 6249 533e 9c44 c03d
00000030: 8182 bcbd 5c54 213d 5d6d 88bf 5857 d2be
00000040: 544a 033e 4d1c 8bbe f12e 1dbf 56eb 053e
00000050: fc58 a5bf 0f48 b53c 97bb e2be 82e8 92be
00000060: 25a1 6abe dc7f 27be bb30 2b3d 95ee 4e3e
00000070: d551 6bbd 4402 9fbd c1a5 8fbe 5b75 61bd
00000080: 8ef6 c7bc d61d 73bf a2a5 d6be ef55 14be
00000090: 3002 5fbe 514a 903e f94c 36be 0846 f7bd
000000a0: 5dda 14bf e9f8 0dbf 8482 7bbd c5f1 d0be
000000b0: d117 11be ad1a 58be 6545 973e 13e5 a6be
000000c0: 6e5a b03c 5ded 783d 154e 6abd 2e93 1fbf
000000d0: 93a1 0a3e 8d20 5bbc 88b7 313e af93 c0bd
000000e0: 6373 89bd b174 923e 0c82 1f3e f95f 34be
000000f0: 9f9a 233e 224b bfbe 5d77 71bd 5384 9abe
00000100: 051a 67be 1533 5e3e 05aa 74be ef9c 81bf
00000110: 039c adbc 83c5 bcbe 90d9 debe 3255 1ebe
00000120: e8f7 97bd 9dbb acbe d3b1 5ebe ff12 8c3e
00000130: c3ba 3bbf 6650 023d d227 ef3d 8571 1dbe
00000140: 6114 023e 55fd 833e 3b21 6abe 2c78 833c
00000150: a9f9 22bf 3a7f 9abe 3c83 12bc ed48 71be
00000160: 667a 6dbd b522 53be 8f37 26bb 3f95 32be
00000170: e02c 50bd b849 b2be 9b77 a8bd 1d97 a6be
00000180: ec3e 1fbe 2037 4ebf 981f 77bd 42c1 08bf
00000190: cb17 513e 6e4c acbd 7bb4 203d 88d2 fabd
000001a0: 0b5e 9ebe 4cee 83be cbd7 503e 973a 22be
000001b0: 5829 68bf e092 d3be 17b3 5bbd cbb7 833e
000001c0: 6680 6b3e 2ac1 353d 2cc1 4fbe b823 01be
000001d0: 16d4 1b3e c048 8fbe a575 08bd 2d5c 723e
000001e0: 2701 8dbf 0495 22be 3736 68bf 1d34 99be
000001f0: aa72 99bd 8e1b 2d3d 9793 423e 05a5 393d
00000200: c66d dabd 3567 d03d 22f0 47bd d401 ee3c
00000210: ece9 8d3e f787 76bf f18f d5be ce98 5bbe
00000220: 9cb7 9bbe b6f2 6a3e 7f93 66be e304 273e
00000230: 3694 9abe 81a7 05bf a9bf fdbd c612 adbe
00000240: e4e7 abbe d6a2 2dbe 8180 0ebd 1792 c8be
00000250: 2b4d 02bf 647c 173e 9aac 1ebe 529b f7be
00000260: 03f1 223e 38d0 83bd caa7 ac3d 3488 4abe
00000270: dd5a d6bc 2127 56be b87a ae3c ba5e 79be
00000280: 7da8 e2be 5460 64be 41b2 893e 4dab 0dbf
00000290: 9784 a5be 547e 20bd 52f6 79be edf0 dabf
000002a0: 8fd3 3ebe 24ab aabe e911 243e b2d0 1abd
000002b0: 8326 08be 79e3 0cbe c55d 20bf 26d9 aebe
000002c0: 00c8 06bf bec2 74be 53f9 813c 61c8 4a3d
000002d0: a629 d8be 419a f63c 5136 3dbf 6acb 303e
000002e0: f150 db3d b709 ecbe d2f0 323e 77c7 8b3e
000002f0: e5d0 f03d e0b5 9cbf 5c64 543e 7ccb 7f3e
00000300: 7258 d3bd 7bbc 98be 75df 0cbf 2b65 c0be
00000310: 5f68 93bd fb53 c3be 70fd e7bd e3c8 2fbf
00000320: 9a34 93be 6030 22bf c10e f0bd 22d8 fbbd
00000330: 3682 95bc 6c83 f73d 7609 e3bd e6f0 3a3d
00000340: 042f cebd 091d adbe ea0e 943e 04a8 22be
00000350: 3d90 593d 5e7d 4b3e 2b1c 95be 9ec6 e7bd
00000360: 469d 0a3e ed18 9e3e ceb9 2ebd 9a37 803d
00000370: be7b 60bf 22e0 443d 9d4b 3fbf 34b4 ce3d
00000380: 563c f4bc 6022 b2be 70c7 8cbe 2761 fb3d
00000390: 8e67 1dbd d017 bd3d 99dd 67be 6896 1ebe
000003a0: f005 a13c 58b2 d0be 14bd 82be 7fd4 46bd
000003b0: 3edc a8be ac9c 443e c726 c4bc b07b 8bbe
000003c0: c50a 7e3e e3b4 febe 8d03 b8bd 077f 4fbf
000003d0: 4bd5 1cbe 6fff 05bf aca6 8ebe e321 02bf
000003e0: 0016 51bf d2ad b33d 68ca 23be 4968 d8be
000003f0: 6c7c 173e 47ab 96bd e49f 47be 021b 0dbe
0.18902016 -0.6095447 -0.1415684 0.0060254345 0.1692653 0.16581021 -0.06301756 -0.064734325
-0.70046836 -0.6218435 0.20633462 0.09388086 -0.09204579 0.039387092 -1.0658375 -0.41082263
0.12821323 -0.2717003 -0.6139975 0.13078055 -1.2917781 0.022129087 -0.44283745 -0.28693014
-0.22913034 -0.16357368 0.04179452 0.202082 -0.057451088 -0.07764104 -0.28056148 -0.05504356
-0.024409559 -0.949674 -0.41923243 -0.14485906 -0.21778178 0.281817 -0.178028 -0.12073904
-0.58145696 -0.5545793 -0.061403766 -0.40809456 -0.14169241 -0.21103926 0.2954513 -0.32596645
0.021527495 0.060773242 -0.05720337 -0.62333953 0.13538198 -0.01337446 0.17355168 -0.094031684
-0.067114614 0.28604653 0.15576953 -0.17614736 0.15976952 -0.3736201 -0.058951724 -0.3017908
-0.2256852 0.21699174 -0.23892982 -1.0126017 -0.021192556 -0.3686944 -0.43525362 -0.15462187
-0.07420331 -0.33736888 -0.21747522 0.27358243 -0.7333185 0.031814955 0.11677517 -0.15375336
0.12703086 0.25779215 -0.22864239 0.016048513 -0.636622 -0.3017519 -0.0089424215 -0.23562975
-0.057978056 -0.20618708 -0.0025362705 -0.17439745 -0.050824046 -0.34821868 -0.08225938 -0.32537165
-0.15551347 -0.80552864 -0.060332865 -0.5341989 0.20419233 -0.08413015 0.03923462 -0.12247187
-0.30931124 -0.25767744 0.20394818 -0.15842663 -0.90688086 -0.41322994 -0.05363759 0.2572616
0.22998199 0.04437367 -0.20288533 -0.12611282 0.15217623 -0.2798519 -0.03331532 0.23667975
-1.1015977 -0.15877157 -0.90707725 -0.29922572 -0.074925736 0.042262606 0.19001614 0.04532339
-0.10665469 0.10175935 -0.048812993 0.029053606 0.2771753 -0.96301216 -0.4171138 -0.21445009
-0.3041352 0.2294415 -0.22517203 0.16310458 -0.301912 -0.52208716 -0.12390072 -0.33803385
-0.33575356 -0.16956648 -0.03479052 -0.39173958 -0.50899 0.14793545 -0.1549553 -0.48360687
0.15912251 -0.06436199 0.08430441 -0.1977852 -0.026166374 -0.20913364 0.021298751 -0.24352542
-0.4426917 -0.22302371 0.2689381 -0.5533951 -0.3232772 -0.039182976 -0.2441037 -1.7104775
-0.1863539 -0.33333695 0.16022457 -0.037796684 -0.13295941 -0.13758649 -0.6264308 -0.34150046
-0.52648926 -0.23902413 0.015865957 0.049507502 -0.42219275 0.03010285 -0.73911005 0.17265096
0.10708798 -0.46101162 0.17474678 0.27300617 0.117585935 -1.2243004 0.20741409 0.24979967
-0.10319604 -0.298313 -0.5502847 -0.37577185 -0.071976416 -0.3815001 -0.11327636 -0.68665904
-0.2875107 -0.63355064 -0.11721564 -0.122970834 -0.018250566 0.120856136 -0.11085789 0.045639895
-0.10067561 -0.33811215 0.2891763 -0.15884405 0.053116072 0.19872043 -0.29123053 -0.1131718
0.13536558 0.30878392 -0.042657666 0.06260605 -0.87688816 0.048065312 -0.7472475 0.10092965
-0.029813927 -0.3479185 -0.2749591 0.1227439 -0.038428836 0.092330575 -0.22643127 -0.15487063
0.019656152 -0.40761065 -0.2553488 -0.048542496 -0.3298053 0.1920039 -0.023944272 -0.27242804
0.24808796 -0.4974738 -0.08985052 -0.81053203 -0.1531574 -0.52342886 -0.27861536 -0.5083296
-0.81674194 0.08773388 -0.1599518 -0.42267063 0.14793557 -0.07356887 -0.19494587 -0.13779834

res.2.bias f4 [26]
00000000: edd2 efbe 26d1 08be c830 92be 30c0 afbe
00000010: 247e 873e e4c7 bf3c 708b f639 6a2b df3d
00000020: cf9c 9b3e 7fab 943e 223f e7be 4602 15bf
00000030: 549e bdbe b5e8 653e b739 45be 4576 f43e
00000040: b530 123f 0df6 05be 8bf1 54be 8f9f 703e
00000050: 99fb 52bf 57b4 6abc 3358 133e c64b a4be
00000060: aca7 003e a349 d13e
-0.4684061 -0.13361034 -0.28552842 -0.34326315 0.26463425 0.023410745 0.00047024665 0.108969525
0.30393073 0.2903709 -0.45165354 -0.58206594 -0.37034857 0.22452052 -0.19260298 0.47746482
0.5710557 -0.13082142 -0.20795266 0.23498367 -0.8241516 -0.014325223 0.14389114 -0.3208906
0.12563962 0.40876493
