Braille_character_recognition/models/model_6_cells_map.pt (torch, 99125 bytes, 14 tensors)

l1.0.weight f4 [16, 3, 5, 5]
-0.0068323594 -0.052594937 0.100659974 0.10510216 0.040560026 -0.105959505 -0.0675024 -0.0039563235
0.11437334 0.09866083 -0.09318357 -0.1034578 -0.001206441 -0.0024104635 0.07345449 -0.029710434
-0.012073806 -0.09549914 -0.082546614 0.027984058 -0.025705189 -0.08013863 -0.082164265 -0.05345659
-0.08008237 -0.058030598 -0.05233672 0.091179654 0.06449312 -0.051448315 0.070243575 0.09580426
0.107167415 -0.09339315 0.00596918 -0.006618154 -0.031555768 0.048232373 0.06984055 0.05848019
0.01741675 -0.07620577 -0.07230281 0.04670245 -0.06202447 0.06942308 -0.04429698 -0.11780994
-0.020998962 -0.061493896 0.0287465 0.099359296 -0.036607523 -0.11625453 -0.03017625 0.097325906
-0.011025947 -0.051322736 0.0135477735 0.04864932 -0.065105796 0.010856558 0.042365897 -0.050809287
-0.07015186 0.0027520533 0.0020799367 0.057851028 0.080121316 0.09103444 -0.020019686 0.029110694
0.09031878 0.0030340513 -0.029100444 0.026885044 -0.08040611 -0.08690846 0.085644536 0.0061625475
-0.13107306 0.09304721 0.0739849 0.018551376 -0.101449855 0.033661667 -0.13669905 -0.048856046
-0.04936578 0.03098614 0.08970033 -0.021798067 -0.022917721 -0.11443569 -0.0073273163 -0.05327743
0.040890872 -0.07072946 0.067188144 0.054851256 -0.03357676 0.09075937 0.119431175 0.12406447
-0.048961483 -0.028675137 0.0014526155 0.059641626 0.09906284 -0.027333297 -0.029710198 -0.05812315
0.05500162 -0.0040979423 -0.010803814 -0.024495583 0.004536324 -0.08759131 0.008997751 -0.12183992
-0.04375452 0.0833479 0.11729534 -0.008837866 0.037527025 0.02776451 -0.0072065275 -0.0117529845
0.054505955 -0.047286693 0.07644357 -0.083734766 -0.04431491 -0.034445018 0.08875423 -0.009339424
-0.1489585 -0.15233453 0.06270543 -0.0548379 0.009138487 0.12833644 0.07970562 -0.052440282
-0.029434262 -0.055705514 -0.0056754006 -0.020670088 0.044288527 -0.11078565 0.061726507 -0.07156298
0.08437821 -0.08678194 -0.081125244 0.08788752 -0.0066540753 0.082175195 0.023942985 -0.004421763
0.08024367 -0.019267237 0.045202218 -0.049594965 -0.10591568 -0.06907746 -0.110468574 0.1057652
-0.0134126125 0.0267602 -0.025323637 -0.100308545 -0.0785604 -0.11158104 0.06685403 0.040318817
-0.016620854 -0.10143984 0.081641085 0.0693256 -0.066624075 0.088868335 0.05544969 0.0605356
-0.140112 -0.1255334 -0.021797383 -0.07556384 -0.05151946 0.08922932 0.08975201 -0.04541599
0.06484161 0.113042735 0.092087545 -0.07145617 0.07651117 -0.08209232 0.037466794 -0.0004032041
0.05350131 -0.024640389 0.0008430398 -0.06360746 -0.08249673 -0.0074737486 0.041352373 -0.09980019
0.016844144 -0.06946207 -0.09979237 0.0522674 -0.08672036 0.047426175 -0.10307103 -0.039644655
0.08259432 0.015195813 -0.064005546 0.080289535 -0.026613424 0.044575345 0.11935964 0.054713767
0.06305217 -0.039884683 0.075650856 -0.08629367 0.11154909 -0.03291082 0.040982302 -0.052740324
0.102182366 0.022222247 -0.07355719 -0.08546922 0.01192863 -0.07001326 -0.08088927 0.004829298
-0.046292856 -0.026227145 0.0075097014 -0.045919046 0.09891286 0.008023063 0.098355174 -0.10628486
0.1175392 -0.057947025 0.07653224 -0.06174909 0.042856924 0.060450315 -0.010312314 0.06226426
00000000: fce1 dfbb ca6d 57bd d126 ce3d cd3f d73d
00000010: 4522 263d 4c01 d9bd b33e 8abd 0ca4 81bb
00000020: 923c ea3d b00e ca3d 07d7 bebd afe1 d3bd
00000030: 7121 9eba def8 1dbb 4f6f 963d 4c63 f3bc
00000040: 36d1 45bc 0e95 c3bd 330e a9bd d33e e53c
00000050: b093 d2bc b91f a4bd bd45 a8bd 4cf5 5abd
00000060: 3a02 a4bd 7eb1 6dbd 075f 56bd 66bc ba3d
00000070: f814 843d 78bb 52bd dddb 8f3d 0635 c43d
00000080: 977a db3d e844 bfbd 1c99 c33b 19dd d8bb
00000090: 9f40 01bd 4f8f 453d 9008 8f3d ec88 6f3d
000000a0: 92ad 8e3c c511 9cbd 7f13 94bd 114b 3f3d
000000b0: 5f0d 7ebd b02d 8e3d c070 35bd 5646 f1bd
000000c0: 0406 acbc 06e1 7bbd c87d eb3c e37c cb3d
000000d0: c5f1 15bd db16 eebd 2f34 f7bc ce52 c73d
000000e0: 2ca6 34bc ca37 52bd 7bf7 5d3c 8244 473d
000000f0: 3056 85bd b4df 313c dd87 2d3d 661d 50bd
00000100: c7ab 8fbd cb5b 343b 8c4f 083b 33f5 6c3d
00000110: a516 a43d 4470 ba3d 5300 a4bc 8d79 ee3c
00000120: 0df9 b83d efd6 463b 0e64 eebc 063e dc3c
00000130: f5ab a4bd 10fd b1bd 6766 af3d 32ef c93b
00000140: 0438 06be 898f be3d 6585 973d 0ef9 973c
00000150: f1c4 cfbd d1e0 093d d6fa 0bbe 471d 48bd
00000160: c633 4abd a5d6 fd3c ceb4 b73d dc91 b2bc
00000170: f2bd bbbc 425d eabd fc19 f0bb 6f39 5abd
00000180: 307d 273d 9bda 90bd f099 893d b6ab 603d
00000190: c987 09bd 0ce0 b93d 5598 f43d 8315 fe3d
000001a0: d68b 48bd 1fe8 eabc b065 be3a c74a 743d
000001b0: 75e1 ca3d 14ea dfbc cd62 f3bc 8a12 6ebd
000001c0: 6149 613d 0848 86bb 7b02 31bc f6aa c8bc
000001d0: 72a5 943b 1363 b3bd 4e6b 133c 3587 f9bd
000001e0: f137 33bd 4eb2 aa3d 8a38 f03d b2cc 10bc
000001f0: f0b5 193d 6672 e33c bc24 ecbb 978f 40bc
00000200: a341 5f3d b1af 41bd 728e 9c3d 227d abbd
00000210: 8d83 35bd 3816 0dbd c7c4 b53d 6204 19bc
00000220: 9488 18be 95fd 1bbe b46b 803d b59d 60bd
00000230: 98b9 153c a16a 033e b33c a33d 9fcb 56bd
00000240: 1f20 f1bc 772b 64bd b6f8 b9bb 5154 a9bc
00000250: e367 353d 96e3 e2bd efd4 7c3d 9d8f 92bd
00000260: 7cce ac3d bbba b1bd fe24 a6bd 5ffe b33d
00000270: 6e0a dabb 784b a83d 1424 c43c 70e4 90bb
00000280: cb56 a43d 53d6 9dbc f625 393d 1724 4bbd
00000290: 52ea d8bd 7c78 8dbd 593d e2bd 6d9b d83d
000002a0: 93c0 5bbc 3538 db3c 8473 cfbc 916e cdbd
000002b0: 46e4 a0bd 9a84 e4bd c4ea 883d 5825 253d
000002c0: 7528 88bc b1bf cfbd 7133 a73d 95fa 8d3d
000002d0: 3472 88bd 9a00 b63d 371f 633d 2df4 773d
000002e0: 8579 0fbe d48b 00be 6d90 b2bc 37c1 9abd
000002f0: 1206 53bd ddbd b63d e7cf b73d 1e06 3abd
00000300: aecb 843d f382 e73d 6598 bc3d 9d57 92bd
00000310: e3b1 9c3d 0520 a8bd c876 193d 2365 d3b9
00000320: 3124 5b3d a4da c9bc 71ff 5c3a a144 82bd
00000330: 0cf4 a8bd 59e6 f4bb 1b61 293d 0b64 ccbd
00000340: bbfc 893c 2142 8ebd f15f ccbd 5716 563d
00000350: 729a b1bd f341 423d e716 d3bd 6f62 22bd
00000360: 3627 a93d dcf7 783c 5715 83bd d76e a43d
00000370: 6504 dabc a394 363d d472 f43d 8b1b 603d
00000380: 7f21 813d 1f5e 23bd d6ee 9a3d bcba b0bd
00000390: d973 e43d 7fcd 06bd 0fdd 273d 3d06 58bd
000003a0: fd44 d13d 6e0b b63c 27a5 96bd 7d0a afbd
000003b0: 4d70 433c 1d63 8fbd 46a9 a5bd 163f 9e3b
000003c0: 949d 3dbd 4fda d6bc f113 f63b 9c15 3cbd
000003d0: d392 ca3d 2a73 033c 706e c93d e0ab d9bd
000003e0: 64b8 f03d dc59 6dbd efbc 9c3d 9dec 7cbd
000003f0: be8a 2f3d c09a 773d fbf4 28bc cf08 7f3d

l1.0.bias f4 [16]
-0.09051267 -0.26573452 -0.18825707 -0.21760978 0.081879996 -0.10073849 -0.11383243 0.14613667
-0.073432215 -0.04868575 0.0076880627 0.13909355 -0.06338015 -0.18565917 -0.17280635 0.15392868
00000000: b55e b9bd 5b0e 88be 76c6 40be 19d5 5ebe
00000010: b3b0 a73d fb4f cebd fa20 e9bd daa4 153e
00000020: a163 96bd b66a 47bd 25ec fb3b 8a6e 0e3e
00000030: 74cd 81bd 701d 3ebe 26f4 30be 7b9f 1d3e

l1.2.weight f4 [16]
0.97817075 0.98512226 1.004269 1.0184902 1.0006186 0.9823257 0.9839924 1.0000633
1.0144473 0.9531321 0.99527645 0.96928275 0.9974895 0.99860716 1.0381411 0.988093
00000000: 6669 7a3f f930 7c3f e38b 803f e35d 823f
00000010: 4514 803f b279 7b3f ede6 7b3f 1302 803f
00000020: 69d9 813f 7700 743f 70ca 7e3f ea22 783f
00000030: 795b 7f3f b8a4 7f3f cfe1 843f aaf3 7c3f

l1.2.bias f4 [16]
-0.023303045 -0.0662119 0.056257978 -0.0038603405 0.10221012 0.069231786 -0.014400546 0.081715144
0.096774966 0.031100517 0.06832484 0.10843361 0.03792288 -0.03182907 0.1311643 0.14844178
00000000: 07e6 bebc 1b9a 87bd c46e 663d c4fd 7cbb
00000010: 8a53 d13d 65c9 8d3d 45f0 6bbc 455a a73d
00000020: f431 c63d 83c6 fe3c e5ed 8b3d 7112 de3d
00000030: 0655 1b3d 335f 02bd ef4f 063e 1f01 183e

l1.2.running_mean f4 [16]
0.079989284 0.020090863 0.023466239 0.025057526 0.11024924 0.03783568 0.062460408 0.09870266
0.03366004 0.25194463 0.066812746 0.24901824 0.07610925 0.033546586 0.047924675 0.24604021
00000000: 6cd1 a33d 9895 a43c 453c c03c 7145 cd3c
00000010: 5bca e13d 96f9 1a3d 7cd6 7f3d 9f24 ca3d
00000020: 1cdf 093d e3fe 803e 1fd5 883d a3fe 7e3e
00000030: 2bdf 9b3d 2568 093d aa4c 443d f7f1 7b3e

l1.2.running_var f4 [16]
0.042703476 0.007446712 0.00887567 0.011608021 0.049682032 0.014428509 0.045046747 0.033769675
0.014059847 0.054444883 0.030939352 0.07610511 0.036326524 0.017856257 0.024314122 0.034281604
00000000: d7e9 2e3d 8c03 f43b 426b 113c 922f 3e3c
00000010: 637f 4b3d 8e65 6c3c f082 383d 1252 0a3d
00000020: 465b 663c 9901 5f3d 8674 fd3c ffdc 9b3d
00000030: 1fcb 143d 4947 923c 692e c73c de6a 0c3d

l2.0.weight f4 [32, 16, 5, 5]
0.009734428 0.018601414 -0.028100794 -0.007902544 0.029032977 -0.01664365 -0.028506204 0.032821804
0.034224752 0.019880513 0.029903995 0.04549859 -0.019909982 -0.0365568 -0.012112016 -0.049560085
-0.008196887 0.042743426 0.001133202 -0.031938605 0.056634407 0.032777708 -0.017023457 -0.034837425
-0.006585882 0.06546933 -0.033336043 0.005476606 -0.033973362 -0.008989551 -0.028519329 -0.003836617
0.0073769013 -0.035102267 -0.04299139 0.027379856 0.009949791 0.018868668 0.032288194 0.006692501
-0.0038220948 -0.0038622753 0.024545815 -0.035153706 -0.005074455 0.02691211 -0.0357854 0.04684032
-0.0590577 -0.03294036 0.001514595 0.0058656516 -0.005706447 -0.034358148 -0.02387533 0.020258464
-0.029587641 0.0437971 -0.031453185 -0.051953692 -0.008139825 -0.005073494 -0.037790503 -0.05267155
-0.021988086 -0.043590955 -0.0613921 0.0014420191 -0.02944948 -0.029263496 0.04804954 0.017014751
-0.025446232 0.01525738 -0.0123825725 0.028338762 0.022998234 0.02169454 -0.049039636 0.023938477
0.0067914524 0.013866424 -0.021234116 -0.054958433 0.011125561 -0.0065764044 -0.0028270313 -0.0050543016
0.046200912 0.027614579 -0.038048893 0.03435375 0.0362653 0.001400584 0.033109542 -0.013493482
-0.01349378 0.04435675 0.013677359 -0.020665826 0.025667781 -0.05898571 0.028372822 -0.05294566
0.025662074 0.026762653 0.025968207 0.036525287 -0.0052514016 0.02797839 -0.05667726 0.017865801
0.015836604 -0.035330884 0.040830757 0.0021309385 -0.019482795 -0.014373734 -0.0421578 0.065515555
-0.0054387604 -0.01204761 0.014402187 0.007682746 0.027534073 -0.02599442 -0.026790561 -0.020723984
-0.013074549 0.012915779 -0.038631022 -0.04958049 -0.023486974 -0.003458916 0.017078973 0.013689322
0.02303987 -0.02251707 -0.003479868 -0.033079565 -0.024391115 -0.0023063186 0.007425772 -0.048236936
-0.009531681 0.041541435 0.041054513 0.036343817 -0.042016838 -0.019046472 0.066505134 0.044621754
0.013928939 0.040762533 0.04114586 -0.0003330355 -0.01717445 0.010103602 0.056744907 0.013094676
0.05195885 -0.04230915 -0.026789326 0.0048259115 0.009409122 0.02003116 -0.03480802 0.036361974
0.005848384 -0.0036225754 0.015107873 -0.070062146 0.012716109 -0.005030188 0.00089500635 -0.049766265
0.002419329 -0.0030033826 0.051367752 -0.04214046 -0.028228698 0.00047838752 -0.03332913 -0.046063185
-0.02193737 -0.04887555 -0.0431816 0.03031601 0.005111602 -0.07668748 0.038506843 0.025749872
-0.012388775 -0.025849795 -0.0030371528 -0.07812496 0.031269424 0.027615897 0.009528251 0.004872664
-0.013317059 -0.014559409 0.029052125 0.06265088 -0.022579031 -0.05624965 -0.0116510065 -0.00016667125
-0.034349132 0.032331947 0.024669763 0.04132464 -0.0021515624 -0.033534985 0.06207129 0.04120546
-0.026279764 -0.038378797 -0.03108579 0.032960527 0.013967487 0.0010031792 -0.05224496 0.0073182187
-0.009329562 -0.026227234 -0.04369332 0.0027212186 0.061976008 0.0003086609 -0.0037517895 -0.02199262
-0.007728306 -0.011167353 -0.013542277 -0.009788191 -0.020495478 0.058845792 0.05207914 -0.032541692
-0.027567904 -0.01985568 -0.0032200108 -0.043034244 0.018906174 0.017026078 0.025161816 -0.0470925
-0.019665137 -0.026303193 0.0060938983 0.03223519 0.011409259 -0.0030759799 -0.011820351 -0.035148885
00000000: 267d 1f3c fe61 983c a333 e6bc ac79 01bc
00000010: 91d6 ed3c 4458 88bc d885 e9bc 2870 063d
00000020: 412f 0c3d 75dc a23c 39f9 f43c bb5c 3a3d
00000030: 421a a3bc 95bc 15bd 7a71 46bc 84ff 4abd
00000040: 3c4c 06bc bb13 2f3d f387 943a 0ed2 02bd
00000050: 7bf9 673d eb41 063d c774 8bbc b0b1 0ebd
00000060: 62ce d7bb c914 863d 608b 08bd 1a75 b33b
00000070: a727 0bbd e948 13bc 5ea1 e9bc c16f 7bbb
00000080: efb9 f13b 65c7 0fbd bd17 30bd b84b e03c
00000090: 7304 233c 7792 9a3c a040 043d c44c db3b
000000a0: 1c7c 7abb 3a1e 7dbb 4e14 c93c 55fd 0fbd
000000b0: 9d47 a6bb c976 dc3c b693 12bd a3db 3f3d
000000c0: 7de6 71bd 79ec 06bd 6085 c63a a734 c03b
000000d0: 26fd babb 21bb 0cbd 3296 c3bc 14f5 a53c
000000e0: c861 f2bc 9764 333d 0ed5 00bd 65cd 54bd
000000f0: e75c 05bc 8d3f a6bb 37ca 1abd 20be 57bd
00000100: 5c20 b4bc 6e8c 32bd 4876 7bbd 2202 bd3a
00000110: 0940 f1bc 00ba efbc 98cf 443d 8562 8b3c
00000120: 9e74 d0bc 17fa 793c 46e0 4abc b126 e83c
00000130: cb66 bc3c bfb8 b13c c9dd 48bd a01a c43c
00000140: d58a de3b ff2f 633c 2bf3 adbc 181c 61bd
00000150: fc47 363c e17e d7bb b745 39bb 8e9e a5bb
00000160: 2b3d 3d3d f837 e23c 28d9 1bbd 85b6 0c3d
00000170: ec8a 143d cd93 b73a df9d 073d c413 5dbc
00000180: 0415 5dbc 6caf 353d 0017 603c 614b a9bc
00000190: 3d45 d23c 009b 71bd 1f6e e83c 8cdd 58bd
000001a0: 4539 d23c 5a3d db3c 47bb d43c 8a9b 153d
000001b0: f313 acbb f032 e53c 6a26 68bd 4d5b 923c
000001c0: c4bb 813c 1eb7 10bd 273e 273d 37a7 0b3b
000001d0: 629a 9fbc cf7f 6bbc a8ad 2cbd 052d 863d
000001e0: a137 b2bb 5763 45bc 27f7 6b3c 8bbf fb3b
000001f0: 238f e13c 40f2 d4bc e177 dbbc 58c5 a9bc
00000200: a236 56bc b49c 533c 903b 1ebd e914 4bbd
00000210: c167 c0bc fbae 62bb 34e9 8b3c 2e49 603c
00000220: 1cbe bc3c b875 b8bc 7f0e 64bb 707e 07bd
00000230: e0cf c7bc 9b25 17bb e453 f33b 1894 45bd
00000240: c52a 1cbc 5a27 2a3d c728 283d 41dd 143d
00000250: d919 2cbd 5907 9cbc d833 883d 4dc5 363d
00000260: 3436 643c 9df6 263d 9088 283d 459b aeb9
00000270: 6fb1 8cbc 9489 253c 596d 683d 0d8b 563c
00000280: ced2 543d 5c4c 2dbd 4a75 dbbc ae22 9e3b
00000290: b828 1a3c 6318 a43c db92 0ebd 4bf0 143d
000002a0: cda3 bf3b bb68 6dbb 0387 773c be7c 8fbd
000002b0: 3a57 503c 46d4 a4bb dc9e 6a3a b6d7 4bbd
000002c0: 9b8d 1e3b 66d4 44bb fe66 523d 7a9b 2cbd
000002d0: df3f e7bc 16d0 fa39 2084 08bd c0ac 3cbd
000002e0: 00b6 b3bc bb31 48bd 30df 30bd 4859 f83c
000002f0: 3a7f a73b 530e 9dbd 5ab9 1d3d 65f1 d23c
00000300: 4afa 4abc f3c2 d3bc f80a 47bb fbff 9fbd
00000310: 5e14 003d bc3a e23c 621c 1c3c deaa 9f3b
00000320: cb2f 5abc 968a 6ebc b9fe ed3c 1b4f 803d
00000330: a9f7 b8bc 0866 66bd dde3 3ebc 79c4 2eb9
00000340: adb1 0cbd 816e 043d 3e18 ca3c 0744 293d
00000350: 3a01 0dbb fb5b 09bd 773e 7e3d 0ec7 283d
00000360: a948 d7bc 1633 1dbd a0a7 febc 9e01 073d
00000370: e3d7 643c 1c7d 833a d0fe 55bd abcd ef3b
00000380: 05db 18bc 7fda d6bc c4f7 32bd 7956 323b
00000390: 8eda 7d3d c4d3 a139 95e0 75bb de29 b4bc
000003a0: bb3d fdbb 46f7 36bc 6de0 5dbc a65e 20bc
000003b0: 22e6 a7bc 4908 713d f050 553d 704a 05bd
000003c0: 16d6 e1bc 61a8 a2bc d106 53bb ad44 30bd
000003d0: 1fe1 9a3c 467a 8b3c 2720 ce3c 11e4 40bd
000003e0: c818 a1bc cb79 d7bc 53af c73b 0c09 043d
000003f0: e7ed 3a3c 6196 49bb 25aa 41bc 47f8 0fbd

l2.0.bias f4 [32]
-0.05038137 -0.093237475 -0.07394615 -0.05443528 -0.012791176 -0.039607435 0.00030627998 -0.05008069
-0.08059057 -0.067630455 0.016181154 -0.05865679 -0.10122612 -0.02771989 -0.07939953 -0.07496728
-0.031523544 -0.0017220587 -0.051729858 -0.015853478 -0.0024490596 0.0034724816 -0.11480405 -0.0053046704
-0.062537104 -0.09585423 -0.067427926 -0.101931565 -0.01686316 -0.07230222 -0.02319254 -0.0077517605
00000000: b25c 4ebd 4af3 bebd 1471 97bd 87f7 5ebd
00000010: 1592 51bc 683b 22bd 3494 a039 6921 4dbd
00000020: ab0c a5bd d681 8abd 578e 843c 1a42 70bd
00000030: a44f cfbd d314 e3bc 399c a2bd 7288 99bd
00000040: d51e 01bd b4b6 e1ba b0e2 53bd 27df 81bc
00000050: 6780 20bb 9392 633b 631e ebbd cdd2 adbb
00000060: 7413 80bd 394f c4bd a717 8abd 7fc1 d0bd
00000070: 9c24 8abc 3013 94bd 48fe bdbc 7b02 febb

l2.2.weight f4 [32]
1.0906091 1.0930829 1.0927434 1.0627652 1.0891281 1.1228641 1.0916889 1.1307408
1.1074754 1.0777836 1.0579314 1.1036221 1.1051675 1.111731 1.1054564 1.1128525
1.1102899 1.053376 1.1173981 1.0770828 1.0870898 1.0789865 1.1430156 1.0930674
1.0925723 1.0860388 1.0751911 1.092872 1.0896646 1.101247 1.0725058 1.1051644
00000000: 1499 8b3f 24ea 8b3f 04df 8b3f b108 883f
00000010: 8d68 8b3f 03ba 8f3f 76bc 8b3f 1dbc 903f
00000020: c1c1 8d3f d0f4 893f 4c6a 873f 7d43 8d3f
00000030: 2176 8d3f 344d 8e3f 987f 8d3f f371 8e3f
00000040: fb1d 8e3f 06d5 863f e706 8f3f d9dd 893f
00000050: c225 8b3f 3b1c 8a3f 564e 923f a2e9 8b3f
00000060: 69d9 8b3f 5203 8b3f dd9f 893f 3be3 8b3f
00000070: 217a 8b3f a9f5 8c3f df47 893f 0776 8d3f

l2.2.bias f4 [32]
-0.0024323177 -0.0033843173 -0.010827254 -0.004280043 -0.0015202037 -0.004646774 0.0024521674 -0.0011226807
-0.009497045 -0.0038872792 -0.0065683196 -0.003414563 -0.001796508 0.011635867 0.0065087033 0.013059616
-0.0028927275 -0.019950401 -0.009531662 -0.0050790603 -0.0026079176 -0.0018274185 -0.0052647362 -0.009355725
-0.0063954713 -0.013140641 -0.016295316 -0.0022838793 -0.0074852067 0.0036217608 -0.010439769 0.003957389
00000000: 8567 1fbb 6ccb 5dbb cb64 31bc 9a3f 8cbb
00000010: 9241 c7ba f743 98bb 8bb4 203b ea26 93ba
00000020: 7e99 1bbc b9c1 7ebb 0f3b d7bb dcc6 5fbb
00000030: ce78 ebba 5da4 3e3c f646 d53b 00f8 553c
00000040: ea93 3dbb 066f a3bc b02a 1cbc 3f6e a6bb
00000050: 99e9 2abb fd85 efba cf83 acbb c148 19bc
00000060: 1a91 d1bb d84b 57bc c17d 85bc 23ad 15bb
00000070: 7746 f5bb 105b 6d3b 910b 2bbc fcac 813b

l2.2.running_mean f4 [32]
0.03836477 0.01622542 0.021341791 0.05425181 0.05007628 0.020524753 0.04159348 0.033741605
0.022121858 0.08055705 0.1409634 0.027346559 0.023855835 0.039648015 0.02521231 0.043863658
0.02718462 0.16399036 0.04270234 0.0821141 0.036635578 0.06632428 0.017811371 0.09835337
0.04134561 0.031001016 0.062529124 0.029508725 0.048015054 0.025579529 0.05464597 0.026927937
00000000: 6124 1d3d 2ceb 843c fbd4 ae3c 2537 5e3d
00000010: c91c 4d3d 8723 a83c ed5d 2a3d a334 0a3d
00000020: e638 b53c 18fb a43d b658 103e e405 e03c
00000030: 506d c33c f565 223d 0c8a ce3c 61aa 333d
00000040: 48b2 de3c 17ed 273e a6e8 2e3d 702b a83d
00000050: 300f 163d 06d5 873d 27e9 913c 7e6d c93d
00000060: 045a 293d d8f5 fd3c 450f 803d 48bc f13c
00000070: 6fab 443d 298c d13c 74d4 5f3d fa97 dc3c

l2.2.running_var f4 [32]
0.015265955 0.005663054 0.009659766 0.02353443 0.022018667 0.010603755 0.019533703 0.015044152
0.010316064 0.048586097 0.10482189 0.011403837 0.010698197 0.013031421 0.009635537 0.012263809
0.011818654 0.08573972 0.019861415 0.051896002 0.015958518 0.033395212 0.007401586 0.05986677
0.020682713 0.017144214 0.03336861 0.009590923 0.020147959 0.007218716 0.026569083 0.0071897632
00000000: 0e1e 7a3c 2491 b93b ff43 1e3c 47cb c03c
00000010: 7e60 b43c 5fbb 2d3c 2505 a03c bf7b 763c
00000020: b504 293c 3702 473d dcac d63d 29d7 3a3c
00000030: 7e47 2f3c be81 553c 5fde 1d3c 25ee 483c
00000040: 07a3 413c 4e98 af3d 68b4 a23c e790 543d
00000050: 70bb 823c 6bc9 083d 0189 f23b dc36 753d
00000060: cb6e a93c 0672 8c3c 86ad 083d 3f23 1d3c
00000070: 550d a53c fb8a ec3b 68a7 d93c 1b98 eb3b

res.weight f4 [6, 1568]
0.00286787 -0.03327086 0.024120893 -0.01097523 0.013348552 0.0076550064 -0.0035074565 -0.013069044
-0.009618527 0.028789848 0.0055088326 -0.0020074178 0.020276874 -0.034280803 -0.010841046 -0.012116548
-0.020302827 0.03180121 0.043888286 0.03600205 0.0013780713 -0.041833267 -0.064010784 -0.03164003
-0.010840045 -0.0075478884 -0.02838678 0.031608175 -0.005756164 -0.028420653 -0.052925162 0.007096667
0.050308 -0.012177863 0.07158448 0.0044672717 -0.005967293 -0.013072061 -0.009050443 0.04577534
0.0193256 0.032343403 0.01256105 0.0125683565 0.031185519 0.02883423 -0.015921444 0.00034342462
-0.024809552 0.008199315 -0.0017452779 0.024000067 0.06560648 -0.03827302 -0.017528847 -0.045667622
-0.011407136 0.029298697 0.0032401527 -0.013707649 -0.016233167 -0.02276724 -0.0022429335 -0.0031922965
-0.016464958 0.015149295 -0.024849948 -0.005485063 -0.026867786 0.025800759 0.015274217 -0.0060906485
-0.03659234 0.035851203 0.03088106 0.014098429 0.0051548127 -0.033409555 0.011053243 -0.04415181
0.026503839 0.006999573 -0.031139083 0.028887602 0.023732502 -0.019534847 -0.025163935 0.044221662
0.018390711 -0.04022481 -0.016283847 0.03516775 0.0077800327 -0.022834495 0.009203171 0.028437257
-0.023120847 -0.024530718 0.009928801 0.026371911 -0.056647617 -0.011545438 -0.009736664 -0.001372338
0.029426917 0.05132839 0.07192478 0.031468514 0.011108638 -0.049936958 -0.039166465 0.0027975263
0.08193329 0.032363757 0.049367797 0.025860485 0.009107367 -0.029086532 0.063092925 0.026203137
-0.02480519 -0.06492559 -0.018622978 0.03757259 0.039409775 0.020329248 0.055990502 0.0047775777
-0.07444876 -0.01746346 0.0063060424 0.009477834 -0.022644551 -0.0033008556 -0.026504507 -0.010290089
0.008641677 -0.0050604213 -0.003652369 -0.002696499 -0.03294688 -0.01454801 0.021186957 0.012509585
-0.030224748 -0.024907568 -0.004635894 0.008392225 -0.0036609818 0.0044550966 0.05183169 0.017996592
0.03452851 0.0072990325 -0.020786682 0.013588796 0.016940868 0.047912937 -0.04258352 -0.016891127
-0.016695574 0.019955643 0.00048515596 0.0035487118 -0.03335181 0.029447624 0.0038566226 -0.020726424
0.005584853 0.011486995 -0.009659651 0.030634835 -0.034358207 0.006018751 -0.030004362 0.0153435785
0.054637805 -0.03342712 -0.029222522 -0.0068163015 0.028834604 0.033944704 0.013655507 -0.024872739
-0.042071234 0.0080419695 -0.02613741 0.008378884 -0.0022948037 -0.016375825 -0.025972098 4.743865e-05
0.03041631 0.02384584 -0.046877824 0.009809026 0.014582217 0.006926458 0.02751368 0.013146772
0.057869986 0.0743752 0.0006931438 0.013499377 -0.055509474 0.037918262 -0.019631036 -0.03549322
0.04411141 -0.025555016 0.012385563 0.03622984 0.0063717235 -0.027518127 0.029511489 -0.004936177
-0.016214205 -0.0011513387 -0.017667841 0.055894982 0.01754144 -0.017800655 0.035295036 0.018680958
-0.012101428 0.0023873844 -0.03648374 0.021934375 0.029711217 0.00048893056 -0.0030285418 -0.0062546064
-0.019028334 0.05559674 0.0018259151 -0.018141016 0.01107763 -0.020989146 0.00050422834 0.02567877
0.010701922 0.027554292 0.013761547 0.00420159 -0.012489569 0.035135843 0.03833976 -0.029040525
-0.004936494 -0.021775922 0.019211479 0.036887307 0.029229363 0.0020882632 -0.01906343 -0.011074174
00000000: e0f2 3b3b 0647 08bd 2e99 c53c 73d1 33bc
00000010: e3b3 5a3c d9d6 fa3b 5bdd 65bb 8b1f 56bc
00000020: 0797 1dbc b0d8 eb3c 7083 b43b e28e 03bb
00000030: b01b a63c 076a 0cbd a59e 31bc 7c84 46bc
00000040: 1d52 a6bc fc41 023d 34c4 333d e376 133d
00000050: 66a0 b43a 5c59 2bbd 1618 83bd fa98 01bd
00000060: 729a 31bc 4754 f7bb 648b e8bc 9377 013d
00000070: 349e bcbb 6ed2 e8bc 0ec8 58bd 288b e83b
00000080: c30f 4e3d a985 47bc e29a 923d 3162 923b
00000090: 4889 c3bb 332c 56bc 4f48 14bc ec7e 3b3d
000000a0: b850 9e3c 847a 043d ddcc 4d3c 82eb 4d3c
000000b0: c678 ff3c c335 ec3c b06d 82bc ac0d b439
000000c0: 673d cbbc 6b56 063c cfc1 e4ba ca9b c43c
000000d0: b15c 863d 2cc4 1cbd a898 8fbc f90d 3bbd
000000e0: ffe4 3abc d203 f03c be58 543b 0c96 60bc
000000f0: 6bfb 84bc 5d82 babc 2efe 12bb d935 51bb
00000100: 85e1 86bc c034 783c 1e92 cbbc 0bbc b3bb
00000110: d519 dcbc 1d5c d33c b640 7a3c 1094 c7bb
00000120: d9e1 15bd b6d8 123d 47fa fc3c 19fd 663c
00000130: b4e9 a83b 75d8 08bd a918 353c 87d8 34bd
00000140: 941e d93c ad5c e53b 6417 ffbc b1a5 ec3c
00000150: aa6a c23c 8b07 a0bc 9924 cebc c621 353d
00000160: 1ea8 963c c5c2 24bd b465 85bc 0f0c 103d
00000170: a5ef fe3b 680f bbbc e6c8 163c 40f5 e83c
00000180: ee67 bdbc a5f4 c8bc 69ac 223c e809 d83c
00000190: 5507 68bd 1429 3dbc 8786 1fbc 06e0 b3ba
000001a0: b810 f13c b83d 523d 4d4d 933d 21e5 003d
000001b0: 0101 363c b28a 4cbd 046d 20bd b456 373b
000001c0: a4cc a73d dc8f 043d e335 4a3d 5ed9 d33c
000001d0: 1137 153c e146 eebc dd36 813d f6a7 d63c
000001e0: 4134 cbbc b5f7 84bd 378f 98bc b7e5 193d
000001f0: 256c 213d 8689 a63c 4c56 653d 3a8d 9c3b
00000200: 9778 98bd 880f 8fbc eba2 ce3b eb48 1b3c
00000210: 1181 b9bc 2b53 58bb fb1f d9bc c397 28bc
00000220: d295 0d3c e4d1 a5bb 955c 6fbb bfb7 30bb
00000230: 4ff3 06bd c75a 6ebc 4590 ad3c 01f5 4c3c
00000240: e499 f7bc f50a ccbc b3e8 97bb 8b7f 093c
00000250: 15ed 6fbb 0ffc 913b 774d 543d 976d 933c
00000260: c46d 0d3d b92c ef3b d548 aabc 8ba3 5e3c
00000270: 93c7 8a3c 5b40 443d 0f6c 2ebd 435f 8abc
00000280: 28c5 88bc 047a a33c 885c fe39 8191 683b
00000290: e89b 08bd 253c f13c 64bf 7c3b 76ca a9bc
000002a0: 2401 b73b f333 3c3c 8343 1ebc e8f5 fa3c
000002b0: 31bb 0cbd f138 c53b b5cb f5bc a263 7b3c
000002c0: e4cb 5f3d e0ea 08bd 1264 efbc 485b dfbb
000002d0: 8c36 ec3c 9a09 0b3d 59bb 5f3c eac1 cbbc
000002e0: e352 2cbd 77c2 033c 1f1e d6bc 9647 093c
000002f0: 6b64 16bb 9826 86bc 70c3 d4bc ddf8 4638
00000300: a02b f93c 5a58 c33c f602 40bd 09b6 203c
00000310: 40ea 6e3c 57f7 e23b 5e64 e13c 8f65 573c
00000320: 1409 6d3d 0652 983d 18b4 353a 7e2c 5d3c
00000330: e75d 63bd 2e50 1b3d 44d1 a0bc 5761 11bd
00000340: 2aae 343d c158 d1bc d1ec 4a3c be65 143d
00000350: e4c9 d03b b26d e1bc 14c2 f13c a7bf a1bb
00000360: a7d3 84bc 84e8 96ba 26bc 90bc 23f2 643d
00000370: 11b3 8f3c aed2 91bc 8791 103d cf08 993c
00000380: 1145 46bc aa75 1c3b f96f 15bd b8af b33c
00000390: f064 f33c 932b 003a 807a 46bb 71f3 ccbb
000003a0: 4fe1 9bbc 68b9 633d 8b53 ef3a 789c 94bc
000003b0: f37e 353c 6ef1 abbc 312e 043a 495c d23c
000003c0: 1d57 2f3c 8ab9 e13c 1d78 613c 7ead 893b
000003d0: 0da1 4cbc 9aea 0f3d 270a 1d3d 65e6 edbc
000003e0: 50c2 a1bb 6b63 b2bc 6461 9d3c 2517 173d
000003f0: 6b72 ef3c 3edb 083b e92a 9cbc 7470 35bc

res.bias f4 [6]
0.03699827 -0.02985008 0.003582343 -0.021917263 -0.008253554 -0.034138843
00000000: 7f8b 173d 2888 f4bc bec5 6a3b d58b b3bc
00000010: ea39 07bc 2cd5 0bbd
