Braille_character_recognition/models/model_simple.pt (torch, 224565 bytes, 14 tensors)

l1.0.weight f4 [16, 3, 5, 5]
0	0xbdcb1261	-0.09915615
1	0xbc8ef88c	-0.0174525
2	0xbdc16f0c	-0.09445009
3	0xbd7c8427	-0.061649468
4	0x3bdba31a	0.006702793
5	0x3db1b34d	0.08676777
6	0x3d92c3a8	0.07166225
7	0xbd937e42	-0.07201816
8	0xbc901761	-0.017589273
9	0x3de88064	0.113526136
10	0x3dd6b776	0.10484211
11	0x3d0c72bd	0.03428911
12	0x3cce4bb2	0.025182579
13	0xbc2ad993	-0.01042785
14	0x3cc6c5ec	0.024264298
15	0xbdec6ea1	-0.11544538
16	0x3d9d1bad	0.07671294
17	0xb831cbd7	-4.238993e-05
18	0xbddcd52b	-0.10782846
19	0xbcaf6d1f	-0.021414338
20	0x3d5d635a	0.054049827
21	0xbd1415ae	-0.036153488
22	0xbc35c0da	-0.011093343
23	0xbc13aa20	-0.009012729
24	0xbd0fdbb1	-0.035121623
25	0x3dc5bc2c	0.096550316
26	0x3da11819	0.078659244
27	0xbd9885b8	-0.0744738
28	0xbd5ef619	-0.054433916
29	0x3dd3b2ec	0.10336861
30	0xbd1a5198	-0.03767547
31	0xbdc0081a	-0.09376545
32	0x3da9047b	0.08252808
33	0xbd574117	-0.05255231
34	0x3d3d8cd1	0.04627687
35	0xbcd01397	-0.025399966
36	0xbde92c23	-0.113853715
37	0xbd28f6bd	-0.041250933
38	0x3d59521c	0.05305682
39	0xbd357dba	-0.044309355
40	0x3d673465	0.05644645
41	0x3c6ff6a2	0.014646204
42	0x3d5dc465	0.054142375
43	0xbdbd0661	-0.09229732
44	0x3db3db09	0.08782012
45	0xbd974979	-0.07387061
46	0xbde1c2d7	-0.11023491
47	0xbdb8c430	-0.09021795
48	0xbd875803	-0.06608584
49	0xbd0c1b4c	-0.03420572
50	0x3cbbb210	0.022912055
51	0x3dde608e	0.1085826
52	0x3d2531c9	0.040330682
53	0xbc4b97e7	-0.012426353
54	0x3d4fabf6	0.050701104
55	0xbdb68205	-0.08911518
56	0x3a31f84c	0.0006789013
57	0x3dacd7a8	0.08439571
58	0x3d8f3238	0.06992
59	0x3d85c4f7	0.06531709
60	0xbd337b01	-0.043818478
61	0xbdea5ef4	-0.11443892
62	0xbd4a70ff	-0.049424168
63	0x3c635cee	0.013877137
64	0x3dda9c27	0.10674315
65	0xbdc1a879	-0.09455962
66	0xbdc36977	-0.095416
67	0x3c50ac8f	0.012736454
68	0xbd5556f0	-0.052084863
69	0xbd9cb9da	-0.07652636
70	0xbdf63472	-0.12021722
71	0x3de225f1	0.11042393
72	0xbdf0bbcc	-0.117545694
73	0x3d9234a7	0.07138949
74	0x3dc75524	0.09733036
75	0x3c2620ac	0.0101396255
76	0x3d0b0a43	0.033945333
77	0x3c962bc1	0.01833141
78	0xbd142093	-0.036163878
79	0x3d15f260	0.0366081
80	0xbd92da3f	-0.071705334
81	0xbdbc09c9	-0.09181554
82	0xbcfc410b	-0.030792734
83	0x3d16851e	0.036748044
84	0xbd5f2133	-0.05447502
85	0xbd668255	-0.056276638
86	0xbde4308e	-0.111420736
87	0xbdeabb90	-0.11461556
88	0xbc90439d	-0.017610366
89	0xbcde681d	-0.027149254
90	0xbd0878b9	-0.033318255
91	0xbdcb73d5	-0.099342026
92	0x3dcf5383	0.101233505
93	0x3d981b05	0.074270286
94	0xbc790e48	-0.015201159
95	0x3d7c7eb5	0.061644275
96	0xbb2991cf	-0.0025874262
97	0x3d1912b6	0.03737136
98	0x3dc52f48	0.09628159
99	0x3c861daf	0.016371576
100	0xbc9dc522	-0.01925904
101	0x3c80fac5	0.015744576
102	0xbc1cebfb	-0.0095777465
103	0xbd2ca857	-0.04215273
104	0x3df2e6bf	0.118604176
105	0xbd8cbe8f	-0.06872284
106	0x3d1e066d	0.038580347
107	0xbdafa995	-0.08577267
108	0xbdd815f4	-0.10551062
109	0x3d0d57fc	0.034507737
110	0xbde12aa4	-0.10994461
111	0xbd732753	-0.059363674
112	0xbda9c9d7	-0.08290451
113	0xbcf1b1a9	-0.02950366
114	0xbdcf66f4	-0.101270586
115	0xbda5bdbb	-0.08092829
116	0xbdc4c56d	-0.096079685
117	0xbcd89754	-0.026439346
118	0x3d788aca	0.060679235
119	0xbd7f5705	-0.062338848
120	0xbdda971b	-0.10673352
121	0xbd55e82a	-0.052223362
122	0xbcb3b1e5	-0.021935413
123	0xbd64248c	-0.055698916
124	0xbdb48d69	-0.08816034
125	0xbd82aae4	-0.06380251
126	0xbd03272c	-0.03201978
127	0x3d8c9113	0.06863608
128	0xbd5604d1	-0.052250687
129	0x3b0f23c5	0.0021841389
130	0xbdb7ca65	-0.089741506
131	0xbd3f9250	-0.046770394
132	0x3df6c352	0.12048973
133	0x3d1ef462	0.03880728
134	0x3d3d92a7	0.046282437
135	0xbd7065b2	-0.058690734
136	0x3d9140d5	0.07092444
137	0x3d303f31	0.043029014
138	0x3dcdea44	0.10054448
139	0x3dad6c45	0.084679164
140	0xbd6861a0	-0.056733727
141	0xbd5de27c	-0.05417107
142	0x3c849e6d	0.016188825
143	0xbdba31eb	-0.09091552
144	0x3d3f2210	0.046663344
145	0x3d8d8826	0.06910734
146	0x3dcda7d4	0.10041776
147	0x3d4804f7	0.04883286
148	0x3e10cdff	0.14141081
149	0xbd59b18e	-0.053147845
150	0xbd95b842	-0.07310535
151	0x3d23d356	0.039996468
152	0xbdae4d4e	-0.085108384
153	0x3d5b3d2f	0.053525146
154	0xbda14033	-0.07873573
155	0x3dcd556e	0.1002606
156	0xbd5c5148	-0.053788453
157	0x3c0f55dc	0.008748498
158	0xbaef69ec	-0.001826582
159	0xbd894c87	-0.067040496
160	0xbdccf251	-0.10007156
161	0xbdd575b2	-0.10422839
162	0x3d9e0d6f	0.07717406
163	0x3d6326b9	0.05545685
164	0x3d1a042d	0.03760164
165	0x3c7bf948	0.0153792575
166	0x3d446412	0.047946997
167	0x3d9e7700	0.07737541
168	0x3c1d4159	0.0095981
169	0xbcdd1099	-0.026985453
170	0xbc4c2c59	-0.012461745
171	0x3d4d5a15	0.050134737
172	0xbd25e617	-0.040502634
173	0x3d29533a	0.041339137
174	0x3c824101	0.015900137
175	0xbcbe501c	-0.023231559
176	0x3d3ec8c2	0.046578176
177	0xbd105df7	-0.03524586
178	0xbdaff3dc	-0.08591434
179	0xbdbf8793	-0.093520306
180	0x3da9901d	0.082794406
181	0xbdba4f0b	-0.090971075
182	0x3d607aeb	0.054804724
183	0xbdbcd5ad	-0.09220443
184	0x3b06394d	0.0020480931
185	0xbdd19e98	-0.102353275
186	0x3d962364	0.07330969
187	0x3dc85ac7	0.097829394
188	0x3dabbb35	0.08385316
189	0x3d9ee081	0.077576645
190	0x3d9aba9a	0.07555123
191	0xbdb71906	-0.0894032
192	0xbc74b572	-0.014935838
193	0xbd86bdba	-0.06579156
194	0xbcbf8016	-0.023376506
195	0x3d78ad57	0.060712185
196	0xbd5b3cff	-0.053524967
197	0xbd83b6a8	-0.06431323
198	0x3d03d0a4	0.032181397
199	0xbd9a8c31	-0.07546271
200	0x3dc4409f	0.09582638
201	0xbc9dc794	-0.019260205
202	0x3de94df9	0.11391825
203	0xbda49a97	-0.08037298
204	0x3c9ee870	0.019397944
205	0xbd64d1cd	-0.055864144
206	0x3d8cc9e9	0.06874449
207	0xbc73e95f	-0.014887183
208	0x3d374e06	0.044752143
209	0x3d39ef16	0.045394026
210	0xbdf3a5a0	-0.11896825
211	0xbdbd3a9c	-0.092396945
212	0xbd42d4f1	-0.047566358
213	0x3d3f7ea7	0.046751644
214	0x3d7a95a2	0.061177857
215	0x3c26673e	0.010156451
216	0x3c176acf	0.009241774
217	0xbd857e21	-0.06518198
218	0xbd7e2f42	-0.062056787
219	0xbdd6c54f	-0.104868524
220	0x3b07b969	0.0020709878
221	0x3dd8fcf5	0.10595123
222	0x3d7ffb9f	0.062495824
223	0xbba4202e	-0.005008719
224	0x3da55846	0.080734774
225	0x3e080bb0	0.13285708
226	0xbd878950	-0.06617987
227	0x3d48bf76	0.049010716
228	0x3c3e1bd1	0.011603312
229	0x3d9520a4	0.07281616
230	0x3d33c11f	0.043885347
231	0xbdb6c2be	-0.08923863
232	0x3da82061	0.08209301
233	0x3cce7c34	0.025205709
234	0x3a31a206	0.00067761575
235	0xbd2e8888	-0.042610675
236	0xbdc404b4	-0.095712095
237	0xbcf2fdf3	-0.029662108
238	0x3db9a820	0.090652704
239	0xbda87df7	-0.08227151
240	0x3d3d3a64	0.046198264
241	0x3d81b172	0.06332673
242	0x3c9f2b65	0.019429872
243	0x3d865f5e	0.065611586
244	0xbcc1c8e4	-0.023655362
245	0x3df1947f	0.117959015
246	0x39d93d08	0.00041434937
247	0x3dbc73c9	0.09201772
248	0x3d5b4368	0.05353108
249	0x3dd79dd2	0.10528149
250	0x3cf767fa	0.030200947
251	0xbd4e9b77	-0.05044123
252	0x3daa21f5	0.08307258
253	0xbdef886a	-0.11695941
254	0xbde6e583	-0.11274245
255	0xba638749	-0.0008679522

l1.0.bias f4 [16]
0	0x3d9cf134	0.07663193
1	0xbde104b1	-0.10987223
2	0x3dbf1ba9	0.09331448
3	0xbda96f00	-0.08273125
4	0xbda22528	-0.07917243
5	0xbd9e299d	-0.07722781
6	0xbe3feb29	-0.1874205
7	0xbc9f738a	-0.019464273
8	0xbe0da32b	-0.13831775
9	0xbe093d60	-0.13402319
10	0xbdb726dc	-0.08942959
11	0x3de70922	0.11281039
12	0xbcdbadec	-0.02681633
13	0x3d8331de	0.06405996
14	0xbba26f88	-0.004957143
15	0x3ce578a6	0.028011631

l1.2.weight f4 [16]
0	0x3f7dfd70	0.9921484
1	0x3f7d074d	0.98839265
2	0x3f80e3c3	1.0069507
3	0x3f80da1c	1.0066562
4	0x3f8067a4	1.0031629
5	0x3f8089a6	1.0042007
6	0x3f81dc96	1.0145442
7	0x3f804a5e	1.0022695
8	0x3f8093a2	1.0045054
9	0x3f80e32d	1.0069329
10	0x3f7df4d0	0.9920168
11	0x3f7ead94	0.9948361
12	0x3f7e33d9	0.99297863
13	0x3f7f5297	0.997354
14	0x3f7d5954	0.9896443
15	0x3f7dda8d	0.9916161

l1.2.bias f4 [16]
0	0x3be4c157	0.0069810557
1	0x3c84a0a3	0.016189879
2	0x3c6b953b	0.014378841
3	0x3c2953d5	0.0103349285
4	0xbd5489f6	-0.051889382
5	0x3b906107	0.004406098
6	0xbb7c0bac	-0.0038459105
7	0x3c141290	0.009037629
8	0x3c3408ce	0.010988427
9	0xbcb0a5df	-0.021563469
10	0xbbda752b	-0.0066667995
11	0xbbca0997	-0.006165694
12	0xbcbddc11	-0.023176225
13	0x3da9a359	0.08283109
14	0x3c57ccb8	0.013171367
15	0x3bd9ea09	0.0066502136

l1.2.running_mean f4 [16]
0	0x3e0047ca	0.12527385
1	0x3de50f88	0.11184603
2	0x3da2e76e	0.07954298
3	0x3d40d855	0.04708131
4	0x3dba90e0	0.09109664
5	0x3cde97f3	0.027172064
6	0x3d06e5bf	0.032933947
7	0x3d3ff492	0.0468641
8	0x3d722755	0.05911954
9	0x3d3ae1e6	0.04562559
10	0x3d721b7d	0.059108246
11	0x3f080fb0	0.5314894
12	0x3f389c66	0.72113645
13	0x3e3699ea	0.17832151
14	0x3ef47f39	0.47753313
15	0x3ec78ba6	0.3897373

l1.2.running_var f4 [16]
0	0x3da7446e	0.08167349
1	0x3daae21c	0.08343908
2	0x3c9d4d98	0.019202039
3	0x3c59a59f	0.013284116
4	0x3d49b0c6	0.04924085
5	0x3bf348fe	0.007424473
6	0x3c522327	0.012825764
7	0x3c79d3d6	0.0152482595
8	0x3d0574d2	0.03258211
9	0x3c8ba381	0.017045738
10	0x3cda02d2	0.026612673
11	0x3e0f0945	0.1396838
12	0x3e80ca15	0.25154176
13	0x3cb6a9eb	0.02229782
14	0x3e0c036b	0.13673179
15	0x3e430f26	0.19048747

l2.0.weight f4 [32, 16, 5, 5]
0	0x3bb945c2	0.0056540677
1	0xbb541b0c	-0.0032364754
2	0x3d3b8fcb	0.04579143
3	0xbbe641a4	-0.007026868
4	0xbd516ba3	-0.05112804
5	0xbd37644e	-0.044773392
6	0x3d3b4f9b	0.045730215
7	0x3c78f0f0	0.015194163
8	0xbd403124	-0.046921864
9	0x3b81e264	0.0039637554
10	0x3cf50232	0.029908273
11	0xbc7fd6db	-0.01561519
12	0x3c15885c	0.009126749
13	0xbc70c5d3	-0.0146956025
14	0xbb74a5bf	-0.0037330238
15	0xbc5d08d9	-0.013490879
16	0xbd324c9e	-0.0435301
17	0xbbdff1f2	-0.006834262
18	0x3d390290	0.04516846
19	0x3b3110a5	0.0027017978
20	0xbca6814e	-0.02032533
21	0xbd03762e	-0.032095127
22	0x3d3cf3ea	0.046131052
23	0xbd59a5c9	-0.05313662
24	0xbc2abb6f	-0.010420664
25	0x3d037343	0.032092344
26	0x3c284c87	0.010272152
27	0x3d41f117	0.04734906
28	0x3cce9cdc	0.02522128
29	0xbc42f200	-0.011898518
30	0xbd112781	-0.035438064
31	0xbc1c2062	-0.009529205
32	0xbcaf9fd2	-0.021438513
33	0xbc82e507	-0.01597835
34	0xbc20cebd	-0.009814915
35	0x3c9194ce	0.01777115
36	0xbd120788	-0.035651714
37	0x3be5fc11	0.007018574
38	0x3b892cfc	0.0041862708
39	0x3d344dd8	0.04401955
40	0xbb3dc264	-0.0028954977
41	0xbbccb179	-0.0062467423
42	0x3d22bc7d	0.039730538
43	0x3b91303c	0.004430799
44	0xbcf0ac5e	-0.029379066
45	0xbc1e7b4d	-0.009672952
46	0xbcf3eff5	-0.029777506
47	0xbd422442	-0.04739786
48	0x3c35d79a	0.011098767
49	0x3c70b072	0.014690505
50	0x3c9709fb	0.018437376
51	0xbc0e1202	-0.008671286
52	0xbd5ead98	-0.05436477
53	0x3bc1a4c8	0.005909536
54	0xbbd105ba	-0.0063788565
55	0x3cc20f01	0.023688795
56	0x3ba24cf4	0.004953021
57	0x3cccd660	0.025004566
58	0xbcbf8d0c	-0.023382686
59	0x3b60391f	0.0034213734
60	0x3d0660c5	0.03280713
61	0x3ba2838d	0.0049595297
62	0xbd26758d	-0.04063945
63	0xbd01a980	-0.03165579
64	0xbd17fc69	-0.03710595
65	0x3d1339cc	0.03594379
66	0x3d1dbda6	0.03851094
67	0xbd08e81f	-0.033424493
68	0x3c1a234d	0.00940783
69	0x3d292425	0.041294236
70	0xbc902c4b	-0.017599246
71	0xbaa3bab5	-0.0012491556
72	0xbc79eebf	-0.015254675
73	0xbd2f752b	-0.04283635
74	0x3d388711	0.045050684
75	0x3ce49dd1	0.027907284
76	0x3d1d27df	0.038368102
77	0xbd378947	-0.044808652
78	0xbcfa95fd	-0.030589098
79	0xbca3a0ef	-0.0199742
80	0x3d088c5a	0.033336975
81	0xbd2b014f	-0.041749295
82	0x3d0d3bd3	0.03448088
83	0x3d81788b	0.0632182
84	0x3d09ff53	0.03369076
85	0x3cd77e66	0.026305389
86	0x3d15b402	0.036548622
87	0x3d40922a	0.047014393
88	0xbc8feab2	-0.017567966
89	0xbcaf982d	-0.021434868
90	0x3be935a4	0.00711699
91	0xbcc367a5	-0.023853133
92	0xbcd0d1d2	-0.025490675
93	0x3d3139cb	0.043268006
94	0x3d0439d0	0.032281697
95	0x3c97e1a5	0.018540213
96	0x3d50707c	0.050888523
97	0xbcef6ab8	-0.029225692
98	0xbbf5511a	-0.0074864747
99	0x3cfc2ea9	0.030783968
100	0x3c05af93	0.008159536
101	0xbc0f596a	-0.008749345
102	0x3d34de5b	0.044157367
103	0xbd2af98f	-0.041741904
104	0x3be11270	0.006868653
105	0x3d4bfa34	0.04979916
106	0x3a79c327	0.0009527676
107	0x3d4c3390	0.04985386
108	0xbc90e9f4	-0.017689683
109	0x3d7997c0	0.060935736
110	0x3c81a338	0.0158249
111	0x3b91af4c	0.004445946
112	0x3d553cf2	0.052060075
113	0xbcf2f8d6	-0.02965967
114	0x3d0b3940	0.033990145
115	0x3cace63e	0.021105882
116	0x3cefeb6e	0.029287066
117	0xbd05a483	-0.032627594
118	0x3d2e85e7	0.042608168
119	0xbcd94007	-0.026519788
120	0x3c60da8c	0.013723981
121	0x3d3af592	0.04564435
122	0xbb54da80	-0.003247887
123	0x3c5d8d88	0.013522513
124	0x3ab1831b	0.0013543101
125	0xbcc69254	-0.024239697
126	0x3d35177d	0.044211853
127	0x3c8f12fe	0.01746511
128	0xbc74ad39	-0.014933878
129	0x3b8c3e13	0.0042798608
130	0x3d0214a9	0.031757984
131	0xbc912887	-0.01771952
132	0xbd06ed20	-0.032940984
133	0x3bd129e2	0.0063831666
134	0xbd2b9e88	-0.041899234
135	0xbce4378a	-0.027858514
136	0xbd2c0929	-0.042000923
137	0x3c9a2405	0.018816004
138	0xbc5ebc1e	-0.013594655
139	0xbca5b830	-0.020229429
140	0x3a3568c7	0.0006920215
141	0x3d1a1b65	0.03762378
142	0x3ab35a6f	0.0013683568
143	0xbd5ae066	-0.05343666
144	0xbd2c3599	-0.042043302
145	0xbb29ceb4	-0.0025910558
146	0x3d102e5c	0.03520046
147	0x3d0f1cd4	0.034939602
148	0xbc0addef	-0.008475765
149	0xbd3499db	-0.04409204
150	0x3cffb9d1	0.031216534
151	0x3d42adf2	0.04752917
152	0x3c995fea	0.018722493
153	0xbce05cc0	-0.027387977
154	0x3d72bec8	0.059263974
155	0x3ccc3b83	0.024930721
156	0xbc852e55	-0.016257444
157	0xbca12da7	-0.019675089
158	0xbd348d1a	-0.044079877
159	0x3d0da8f5	0.034584958
160	0x3d7019ad	0.058618236
161	0xbca6a1a8	-0.020340756
162	0x3d4411fe	0.04786872
163	0x3c9610ac	0.018318497
164	0x3d0111ee	0.03151124
165	0xbc732437	-0.014840177
166	0x3d1e3aaa	0.038630165
167	0x3c05132f	0.0081222495
168	0x3c0148a1	0.007890851
169	0xbd19b0a1	-0.037521962
170	0x3d15b100	0.036545753
171	0xbd13bdb6	-0.036069594
172	0x3d2639a0	0.0405823
173	0x3cf4944b	0.029855868
174	0x3c8022a4	0.015641518
175	0xbcbbee1b	-0.022940686
176	0x3d0b3e90	0.03399521
177	0x3cde51a4	0.027138539
178	0x3be249ff	0.0069057937
179	0x3ccefd6b	0.025267323
180	0x3bf9d882	0.0076246867
181	0xbd14a4b3	-0.036289882
182	0xbcf40f6e	-0.029792514
183	0x3bc7561e	0.006083264
184	0x3c5d2e75	0.013499846
185	0x3bc1ce9d	0.005914523
186	0xbc282205	-0.010262017
187	0x3c03794f	0.008024528
188	0x3cfc7454	0.030817188
189	0x3cd58bc9	0.026067631
190	0x3af6eea5	0.0018839432
191	0xbd10f885	-0.035393257
192	0x3c9b1df9	0.01893519
193	0xbd8545b6	-0.06507437
194	0xbc768257	-0.015045724
195	0xbce1d0d6	-0.027565401
196	0xbd0debdd	-0.034648765
197	0xbc964d2d	-0.018347347
198	0xbd0a566f	-0.033773836
199	0xbcb4a40f	-0.022050885
200	0x3b975f15	0.004619489
201	0xbcadfefd	-0.021239752
202	0x3d1f140c	0.038837478
203	0x3d165e5c	0.03671108
204	0x3d89e1e9	0.06732542
205	0xbc3dbcfe	-0.011580704
206	0xbc0e91ff	-0.0087018
207	0xbcdf46ff	-0.027255533
208	0xbc76c84a	-0.015062401
209	0x3d466a78	0.04844138
210	0x3d0cf589	0.034413848
211	0xbd0df623	-0.034658562
212	0xbd15f55f	-0.036610957
213	0x3d4f6001	0.050628666
214	0xbc8c6174	-0.017136313
215	0xbd20be51	-0.039244
216	0xba492afa	-0.00076739455
217	0xbc13a261	-0.009010882
218	0x3d387cd5	0.045040924
219	0x3c54273c	0.012948807
220	0xbc726fdb	-0.014797176
221	0xbcb520c9	-0.02211036
222	0xbc9c683e	-0.019092675
223	0xbbf23976	-0.007392104
224	0x3cdc107b	0.026863327
225	0xbd0b05ec	-0.033941194
226	0x3d3304ed	0.04370587
227	0xbd51f5bf	-0.051259752
228	0x3cb39cf7	0.021925433
229	0x3d04511d	0.03230392
230	0x3d3bce6d	0.04585116
231	0xbd4158a2	-0.047203667
232	0x3c079f4c	0.008277725
233	0xbd3a075e	-0.045417182
234	0x3bcd191c	0.006259097
235	0x3d076d25	0.033063073
236	0x3ce55207	0.027993215
237	0x3c2bf44e	0.0104952585
238	0x3cbc9059	0.02301805
239	0xbc4acf26	-0.01237849
240	0xbced4ded	-0.028967822
241	0x3cbc10d2	0.02295724
242	0xbc4b1e80	-0.0123974085
243	0x3cc17dee	0.023619618
244	0xbc05ba8b	-0.008162151
245	0x3c378b64	0.011202667
246	0x3d1440be	0.036194555
247	0x3c563151	0.013073281
248	0x3bd91c5b	0.0066256947
249	0x3d32508e	0.043533854
250	0x3d23b8a8	0.039971024
251	0x3ba4be3d	0.005027561
252	0xbc791205	-0.01520205
253	0x3d0c1375	0.034198243
254	0x3b874a50	0.004128732
255	0xbd40a713	-0.047034334

l2.0.bias f4 [32]
0	0xbb4a248b	-0.0030844535
1	0xbd401df5	-0.04690357
2	0xbd664b9a	-0.056224443
3	0xbb5256a7	-0.0032095106
4	0xbcef05db	-0.029177597
5	0x38d179bd	9.988572e-05
6	0xbd802132	-0.062563315
7	0xbd69cf6a	-0.05708257
8	0xbd259c87	-0.04043248
9	0x3c43bb42	0.011946501
10	0xbd045d9f	-0.032315847
11	0x3c62bd64	0.0138391
12	0x3ba249af	0.0049526314
13	0xbc222564	-0.00989661
14	0x3c05b542	0.008160891
15	0xbd852db8	-0.06502861
16	0xbd255692	-0.040365763
17	0x3d053ea2	0.032530434
18	0xbd4163c2	-0.047214277
19	0xbd265c9f	-0.040615674
20	0xbc7fca06	-0.015612131
21	0xbd0ba291	-0.034090582
22	0x3cf1accb	0.02950134
23	0xbcf5df05	-0.03001357
24	0x3ca59703	0.02021361
25	0x3c2cc548	0.010545082
26	0xbd2cd47a	-0.04219482
27	0xbd8b23b6	-0.06793921
28	0xbc291e19	-0.010322117
29	0xbc4ac118	-0.012375139
30	0xbd171e4c	-0.036894128
31	0x3c606a09	0.013697156

l2.2.weight f4 [32]
0	0x3f86e9a1	1.0540048
1	0x3f88a066	1.067395
2	0x3f880aca	1.0628293
3	0x3f851deb	1.0399755
4	0x3f8749cb	1.0569395
5	0x3f8561dd	1.042049
6	0x3f85ec8a	1.0462811
7	0x3f86ad44	1.0521626
8	0x3f8681de	1.0508382
9	0x3f86e23f	1.0537795
10	0x3f862513	1.0480064
11	0x3f84d10f	1.03763
12	0x3f84b469	1.0367557
13	0x3f86dca8	1.0536089
14	0x3f85eeb8	1.0463476
15	0x3f87d1f6	1.061095
16	0x3f880e55	1.0629374
17	0x3f834011	1.0253927
18	0x3f82f1b8	1.0230017
19	0x3f875142	1.0571673
20	0x3f86e19e	1.0537603
21	0x3f864a41	1.049141
22	0x3f86812e	1.0508173
23	0x3f87383e	1.0564039
24	0x3f84b2bc	1.0367045
25	0x3f8704e2	1.0548365
26	0x3f839fc8	1.0283136
27	0x3f8633cb	1.0484556
28	0x3f8877b0	1.0661526
29	0x3f890888	1.0705729
30	0x3f8ab994	1.0837884
31	0x3f861f4a	1.0478299

l2.2.bias f4 [32]
0	0xbc52cb98	-0.012865923
1	0xbba45702	-0.005015255
2	0xbc280e73	-0.010257351
3	0xbc0788c1	-0.008272351
4	0xbc2b93f5	-0.010472287
5	0xbc23c756	-0.009996256
6	0xbbca8128	-0.0061799474
7	0xbb8fc4b8	-0.0043874644
8	0x3b6406a4	0.0034793997
9	0xbbdf9897	-0.00682361
10	0xbc538f31	-0.012912557
11	0xbbda11ff	-0.0066549773
12	0x3a76ae8e	0.0009410166
13	0xbc051b03	-0.008124116
14	0xbc13d605	-0.009023194
15	0xbc0d0618	-0.00860741
16	0x3c19ece1	0.009394855
17	0xbc00bd9e	-0.007857708
18	0x3b863e0b	0.0040967516
19	0xbbb143b8	-0.005409684
20	0xbc199d54	-0.009375889
21	0xbc1314b5	-0.008977105
22	0xbc71349b	-0.014722015
23	0xbb7fc754	-0.003902872
24	0xbbc8ddaf	-0.0061299424
25	0xbc364572	-0.0111249555
26	0xbc280d57	-0.010257087
27	0xbaf3a2a6	-0.0018587902
28	0xbc430220	-0.011902362
29	0x3c14a356	0.009072145
30	0xbac748a9	-0.001520415
31	0xbbac88d7	-0.005265336

l2.2.running_mean f4 [32]
0	0x3e4456bb	0.1917371
1	0x3d9bda1d	0.07609961
2	0x3d5dace6	0.054119967
3	0x3e809c56	0.25119275
4	0x3e471f8f	0.19445632
5	0x3e3ac904	0.18240744
6	0x3d90906e	0.07058798
7	0x3d838de3	0.06423547
8	0x3d50d77a	0.050986744
9	0x3e04c296	0.12964854
10	0x3f2181cc	0.6308868
11	0x3e1146b6	0.1418713
12	0x3dce6c71	0.10079277
13	0x3dfe85a8	0.12427837
14	0x3dc281d9	0.09497423
15	0x3da56ba0	0.080771685
16	0x3d3f4ed2	0.04670603
17	0x3e3f5d2f	0.1868789
18	0x3d6a6e34	0.057234004
19	0x3d975e85	0.07391075
20	0x3de92baa	0.113852814
21	0x3e2f983c	0.17147917
22	0x3e95a5cb	0.29228052
23	0x3d612351	0.05496532
24	0x3e03a3e2	0.12855485
25	0x3e3708a5	0.17874391
26	0x3ea708e2	0.32623965
27	0x3d4fb43f	0.050709005
28	0x3db8f749	0.09031541
29	0x3dbbde1a	0.09173222
30	0x3d13dac4	0.036097303
31	0x3e2bcc2d	0.16777106

l2.2.running_var f4 [32]
0	0x3df060e4	0.117372304
1	0x3d1dd33a	0.03853152
2	0x3cd9cc42	0.026586656
3	0x3e6dd05f	0.23224019
4	0x3e08fbfa	0.13377371
5	0x3df37b84	0.11888793
6	0x3d0e3fc0	0.034728765
7	0x3d07efb5	0.033187587
8	0x3c6cb60d	0.014447701
9	0x3d83d502	0.064371124
10	0x3f4b21dc	0.7934854
11	0x3d8d8c66	0.069115445
12	0x3d2d94d8	0.042378277
13	0x3d790307	0.060793903
14	0x3d478070	0.048706472
15	0x3d188312	0.037234373
16	0x3c5043d1	0.012711481
17	0x3dd65ba7	0.104667
18	0x3ca49f79	0.020095574
19	0x3cfeb9de	0.031094488
20	0x3d4c03d9	0.049808357
21	0x3dd6f782	0.10496427
22	0x3e42a25e	0.1900725
23	0x3cb7fe84	0.02246023
24	0x3d7e1f40	0.06204152
25	0x3e00d16f	0.12579893
26	0x3e64fd38	0.2236222
27	0x3c9d7539	0.019220935
28	0x3d29d6c8	0.041464597
29	0x3d042752	0.03226406
30	0x3c5f6bd7	0.013636551
31	0x3dc3afc2	0.095550075

res.weight f4 [26, 1568]
0	0xbcbfd5b8	-0.023417339
1	0x3be823fe	0.0070843687
2	0xbccf6dd2	-0.025320921
3	0xbc9cc944	-0.01913894
4	0x3bd66bf6	0.0065436317
5	0xbc779c99	-0.015113019
6	0xbcb59e0a	-0.022170085
7	0xbc4807cf	-0.012208893
8	0x3b4a4705	0.0030865085
9	0x3c2ab04d	0.01041801
10	0x3c17f9f8	0.009275906
11	0xbd30d374	-0.043170407
12	0xbc953d51	-0.018217715
13	0xbcb9c6d1	-0.02267781
14	0x3ca7511a	0.020424414
15	0x3ae018f9	0.0017097286
16	0x3c5a76ef	0.01333402
17	0xbc3e1841	-0.011602462
18	0x3a2ce6d2	0.0006595674
19	0x3bfd4b97	0.0077299583
20	0x3bdc19b6	0.006716932
21	0xbcf0024f	-0.029297976
22	0xbcdcdd98	-0.026961133
23	0x3c7ebe16	0.01554825
24	0x3a8248e4	0.0009939936
25	0xbbb3f869	-0.0054922593
26	0xbc5ea5ed	-0.0135893645
27	0xbb0f0a6b	-0.0021826278
28	0xbc0d046b	-0.00860701
29	0xbc83bb83	-0.016080623
30	0x3ab9d475	0.0014177697
31	0x3bec6b96	0.0072149737
32	0xbd1934cc	-0.037403867
33	0x3a17480c	0.00057709287
34	0x3b7e4a6b	0.003880168
35	0xbc218c21	-0.0098600695
36	0x3c66f1ab	0.014095704
37	0xbc91587b	-0.017742386
38	0xbcdbbc5f	-0.02682322
39	0xbbc0cfad	-0.005884132
40	0xbd05464c	-0.032537743
41	0xbca6ba45	-0.020352492
42	0x3b9fdb11	0.0048784097
43	0x3a98fa05	0.0011671191
44	0xbc169afe	-0.009192226
45	0xbc69598e	-0.014242543
46	0xbce2ff01	-0.027709486
47	0xbc18f78b	-0.009336363
48	0xbcaf954f	-0.0214335
49	0x3b38f7cf	0.0028223877
50	0x3b7f953c	0.0038998863
51	0x3a02a63b	0.0004983877
52	0xbc0c7e68	-0.0085750595
53	0xbc77aa17	-0.015116236
54	0x3a64a710	0.0008722404
55	0x3c942369	0.018083291
56	0xbb585b49	-0.0033013395
57	0x3bcbc73b	0.0062188185
58	0xbcd5461d	-0.02603441
59	0xbc35b814	-0.011091251
60	0x3c28cf3e	0.010303317
61	0x3b8f6d37	0.004377033
62	0x3c4f958a	0.01266993
63	0xbcdef900	-0.027218342
64	0x3cf72086	0.030166876
65	0xbb28899b	-0.0025716785
66	0xbcc6d5b0	-0.024271816
67	0xbcd1a546	-0.025591504
68	0x3c2365bb	0.009972985
69	0x3ce675f9	0.028132426
70	0x3b840dfd	0.004029988
71	0x3c9ec130	0.019379228
72	0xbd0bd189	-0.034135375
73	0xbc7e3a2b	-0.015516798
74	0xbc5c5390	-0.013447657
75	0xbd0be994	-0.034158304
76	0x3ba646f8	0.005074378
77	0xbcc07200	-0.02349186
78	0xbca3af63	-0.019981092
79	0x3ad63f19	0.0016345709
80	0x3b9ff179	0.0048810807
81	0x3c06cac2	0.008227052
82	0x395d617b	0.00021112517
83	0xbc68c1b9	-0.014206343
84	0xbd061e99	-0.032744024
85	0x3b63cc9a	0.0034759403
86	0xbbe2b136	-0.006918098
87	0xbc9bab1b	-0.019002488
88	0xbccd9bd3	-0.025098717
89	0xbcb4ca2a	-0.022069056
90	0xbc9bbcab	-0.019010862
91	0xbcf737b5	-0.03017793
92	0xbcc595f8	-0.024119362
93	0x3c369601	0.011144162
94	0x3c9d2700	0.019183636
95	0xbbe4295f	-0.0069629396
96	0xbc0e2e3b	-0.008678014
97	0x3d18b4db	0.037281852
98	0x3af15912	0.0018413386
99	0x3b036a29	0.002005229
100	0xbc0cdb27	-0.008597172
101	0xbc373c12	-0.0111837555
102	0x3ca65fc8	0.020309344
103	0x3d031020	0.0319978
104	0x3c59285c	0.013254251
105	0xbc397b63	-0.011320922
106	0xba87f93e	-0.0010373963
107	0xbbd08e68	-0.0063646324
108	0xbcd4c4c5	-0.025972733
109	0xbbd5d324	-0.006525414
110	0xbb0ea183	-0.002176375
111	0xbd066884	-0.032814518
112	0xbcc1e408	-0.023668304
113	0xbcb93cee	-0.022612061
114	0x3c9f4c98	0.019445702
115	0xbcd67424	-0.026178427
116	0xbb12055d	-0.0022281029
117	0xbcab40a9	-0.020904856
118	0xbce03585	-0.02736927
119	0xbc875f01	-0.016524794
120	0xbbe3dc19	-0.006953728
121	0xbce25aae	-0.02763113
122	0xbc8978c0	-0.01678121
123	0xbd1ef598	-0.038808435
124	0xbb577902	-0.0032878523
125	0xbc7533e8	-0.014965989
126	0xbc268c2c	-0.0101652555
127	0xbcfbd98d	-0.030743385
128	0xba832d08	-0.0010007927
129	0xbc1dddaf	-0.009635373
130	0xbba98611	-0.0051734527
131	0xbce051a5	-0.027382681
132	0xbcbeff4f	-0.0233151
133	0x3bebaae0	0.0071920007
134	0xbc0911c3	-0.008366051
135	0xbd0b2e13	-0.033979487
136	0xbd09b6b1	-0.033621494
137	0xbd042e7c	-0.032270893
138	0xbcaae9ae	-0.02086338
139	0xbc85e8e0	-0.016346395
140	0xbb2e6abe	-0.0026613916
141	0xba92d669	-0.0011202815
142	0xbca911c9	-0.020638363
143	0xbba81db8	-0.005130496
144	0xbba2ee89	-0.0049722833
145	0x3befa7bc	0.0073136967
146	0x3bd453b5	0.006479705
147	0x3cec28bd	0.02882802
148	0x3c9cf17c	0.019158117
149	0x3c871945	0.016491542
150	0x3c014b23	0.007891449
151	0x3b4428e6	0.0029931604
152	0x3c494028	0.012283362
153	0xbb35868a	-0.00276986
154	0xbcdb2a18	-0.02675347
155	0x3c535b54	0.012900192
156	0x3cf8496a	0.030308444
157	0xbb7f9d0b	-0.0039003517
158	0xbb85ff36	-0.0040892614
159	0x3bdf9331	0.0068229665
160	0xba821725	-0.000992511
161	0xb93cd873	-0.00018009711
162	0xbc046710	-0.008081213
163	0xbb8ece4d	-0.004358089
164	0xbc8890e6	-0.016670655
165	0xbc164f34	-0.009174157
166	0xbcf7809e	-0.030212697
167	0xb989392d	-0.00026173276
168	0x39633631	0.00021668595
169	0xbc8a9ecb	-0.016921422
170	0xbcc5fb5f	-0.024167715
171	0xbd0b6003	-0.03402711
172	0xbc5cfa92	-0.013487475
173	0x3c1974b9	0.009366208
174	0xbcbb3e70	-0.022856921
175	0xb9b96a42	-0.00035365118
176	0xbb845a1e	-0.004039063
177	0xbc9827a2	-0.018573586
178	0xbd02b7ba	-0.031913497
179	0xbca333fc	-0.019922249
180	0xbc20f709	-0.009824523
181	0x3c1ffaf5	0.009764423
182	0xbcd922de	-0.026505884
183	0xbcc3ff26	-0.023925375
184	0x3baf2571	0.0053450395
185	0x3c3b94be	0.011449037
186	0xbc72a562	-0.014809938
187	0xbc514f84	-0.012775306
188	0xbc17df44	-0.009269539
189	0xbcb42236	-0.02198897
190	0x3c96037e	0.018312212
191	0xbc10fd2f	-0.008849426
192	0xbc82537a	-0.015908945
193	0x3bd3996b	0.006457498
194	0x3cc63df8	0.02419947
195	0xbb8e907d	-0.0043507204
196	0x3c289573	0.010289538
197	0xbbb9fb40	-0.0056757033
198	0xbbd8cc23	-0.006616132
199	0x3c3d64dc	0.011559691
200	0xbd155d34	-0.03646584
201	0x3c17ab74	0.009257186
202	0xbc998079	-0.018738018
203	0xbc4a3e82	-0.012344005
204	0x3b40c606	0.0029414906
205	0xbbc0f5cd	-0.0058886767
206	0xbbe02270	-0.006840043
207	0xbcb296e4	-0.021800466
208	0xbd06b8da	-0.032891132
209	0xbd06a4cd	-0.03287201
210	0xbcbe6206	-0.0232401
211	0xbb5c35f9	-0.0033601506
212	0xbb4b125e	-0.003098629
213	0xbce8142a	-0.028329927
214	0xbc761acb	-0.015021036
215	0xbbc10e6e	-0.0058916127
216	0xbcbc146c	-0.022958957
217	0x3bcc5994	0.0062362645
218	0x3bcd881f	0.0062723304
219	0xbd045321	-0.03230584
220	0xbd002e44	-0.031294122
221	0xbb6088a6	-0.0034261136
222	0xbd13cd3b	-0.036084395
223	0x3c1a8a40	0.009432375
224	0xbc64abec	-0.013957005
225	0xbcab52ee	-0.020913567
226	0x3c4cbcc9	0.012496182
227	0xbb81710a	-0.003950243
228	0x3b9d21c6	0.004795286
229	0x3b9daecc	0.004812097
230	0x3bfa952a	0.0076471763
231	0xbd1d86d3	-0.038458657
232	0x3bf845e6	0.007576692
233	0xbc685816	-0.014181158
234	0xbc9c6daa	-0.01909526
235	0x3bb8e688	0.005642716
236	0xbceac846	-0.028659951
237	0x3c3cd650	0.011525705
238	0x3c0598bb	0.00815409
239	0x3ca4b726	0.020106863
240	0xbca83969	-0.020535188
241	0x3c0402d6	0.008057317
242	0xbc914ded	-0.017737353
243	0xbc9d1eb4	-0.01917968
244	0x3c85908d	0.016304279
245	0x3ba630a8	0.0050717182
246	0xbc6a82dd	-0.014313427
247	0xbc66d3c5	-0.014088576
248	0x3c0b3a70	0.008497819
249	0x3c3ca1ec	0.011513215
250	0xbce82780	-0.028339148
251	0xbc29e511	-0.010369555
252	0x3cb14663	0.021640008
253	0x3bc96e81	0.0061472063
254	0x3c6bd994	0.014395136
255	0xbcdb063f	-0.026736377

res.bias f4 [26]
0	0x3d02273a	0.03177569
1	0x3c256f51	0.010097341
2	0xbc25fca1	-0.010131032
3	0xbc4eee02	-0.012629988
4	0x3ca43062	0.020042602
5	0x3a9097d8	0.0011031581
6	0x3ba5d847	0.0050611827
7	0x3b9771c4	0.004621716
8	0x3b2ddd67	0.002652967
9	0xbbaee23d	-0.0053370283
10	0xbc536b88	-0.012904055
11	0x3c7c02ba	0.015381509
12	0x3c0b5169	0.008503296
13	0xbc5bb6ba	-0.013410265
14	0xbc9ac2fe	-0.018891808
15	0xbce27d0b	-0.027647516
16	0x3c4bd273	0.012440312
17	0xbc97e381	-0.0185411
18	0xbc806cad	-0.01567682
19	0x3c8ca5b1	0.017168852
20	0xbb95268b	-0.004551714
21	0xbcc1c7c1	-0.02365482
22	0x3c9ef22a	0.019402582
23	0xbbb5e816	-0.0055513484
24	0x3c8db5c7	0.017298592
25	0x3caec265	0.021332929
