Braille_character_recognition/models/model_6cells_map_best.pt (torch, 99125 bytes, 14 tensors)

l1.0.weight f4 [16, 3, 5, 5]
-0.00673352 -0.05254301 0.100961864 0.10572447 0.040975038 -0.106190175 -0.066821806 -0.005375598
0.11360234 0.09779347 -0.092673786 -0.104193285 -0.00221145 -0.0019493278 0.07305373 -0.03013238
-0.012872385 -0.09689943 -0.082666025 0.027315222 -0.027814709 -0.08110886 -0.08047782 -0.052228298
-0.08081148 -0.057931755 -0.052284792 0.091481544 0.06511543 -0.051033303 0.070012905 0.096484855
0.105748 -0.09416415 0.0051017604 -0.006108373 -0.032291237 0.0472274 0.070301674 0.058079455
0.016994804 -0.07700444 -0.073703095 0.046582803 -0.062693365 0.06731365 -0.045267325 -0.11612349
-0.01977069 -0.062223144 0.028845316 0.0994112 -0.036305513 -0.11563222 -0.029761204 0.097095236
-0.010345372 -0.05274201 0.0127767045 0.047781866 -0.06459601 0.010121128 0.041360926 -0.050348077
-0.07055262 0.0023301106 0.0012813582 0.056450784 0.080001906 0.09036568 -0.022129206 0.028140336
0.09200522 0.004262313 -0.029829668 0.027380453 -0.080477335 -0.0871025 0.083451636 0.0068708607
-0.1317114 0.0927672 0.072318256 0.019065535 -0.0992569 0.034993958 -0.13753022 -0.049939737
-0.049812745 0.028418157 0.08852435 -0.022038829 -0.024167972 -0.11416558 -0.008229392 -0.053819984
0.04093654 -0.07280137 0.06558965 0.055798143 -0.033081263 0.09068814 0.11923713 0.12187157
-0.0482532 -0.029313743 0.0011726549 0.057974942 0.099577084 -0.02514019 -0.028377945 -0.058954354
0.05391793 -0.004544901 -0.013371826 -0.02567164 0.0042955726 -0.08884158 0.009267778 -0.122742
-0.044297077 0.083393596 0.11522343 -0.010436279 0.03847391 0.02825992 -0.0072776824 -0.011947101
0.052313164 -0.04657841 0.075805016 -0.08401477 -0.045981593 -0.033930812 0.09094718 -0.008007182
-0.14978968 -0.15341836 0.062258534 -0.057406034 0.00796245 0.12809573 0.07845535 -0.05217022
-0.030336307 -0.05624807 -0.00562975 -0.022741891 0.04269014 -0.10983877 0.06004672 -0.07164228
0.08229585 -0.0865642 -0.08049336 0.0865751 -0.007031142 0.08033246 0.024322134 -0.003917795
0.07802372 -0.019870657 0.046994075 -0.04990786 -0.10651529 -0.06999163 -0.1114737 0.10524511
-0.013895388 0.025249979 -0.02642555 -0.10084084 -0.08038221 -0.11345521 0.06452466 0.03863903
-0.016700082 -0.103522204 0.08185883 0.06995749 -0.067936495 0.08849122 0.053607095 0.06091482
-0.13960795 -0.12775359 -0.022400804 -0.07377182 -0.051832356 0.088629715 0.08883784 -0.046421032
0.064321525 0.11255999 0.090577416 -0.072558135 0.075978875 -0.08391414 0.035592534 -0.002732678
0.051821526 -0.024719616 -0.0012393125 -0.06338969 -0.08186485 -0.00878623 0.04097533 -0.10164293
0.017223293 -0.068958186 -0.10201232 0.05166397 -0.08492834 0.04711328 -0.103670634 -0.04055878
0.08158919 0.014675823 -0.06448829 0.07877941 -0.027715337 0.04404301 0.11753783 0.052839506
0.06072278 -0.039243855 0.075531505 -0.08844442 0.11109203 -0.03204209 0.03986088 -0.055212907
0.10240757 0.020688338 -0.07426153 -0.085884884 0.009692301 -0.07090392 -0.079321854 0.0039480007
-0.04780915 -0.027054911 0.0074271807 -0.043544564 0.100290805 0.006965611 0.097479366 -0.105307005
0.119226746 -0.056642435 0.07717294 -0.06186834 0.0407061 0.0599933 -0.00944365 0.061142854
00000000: dca4 dcbb 5737 57bd 18c5 ce3d 1286 d83d
00000010: 71d5 273d 3c7a d9bd dfd9 88bd c925 b0bb
00000020: 58a8 e83d f147 c83d c1cb bdbd 4a63 d5bd
00000030: f9ed 10bb 9680 ffba 329d 953d 2ed8 f6bc
00000040: b2e6 52bc 3573 c6bd ce4c a9bd 2cc4 df3c
00000050: acdb e3bc 671c a6bd 8ed1 a4bd 57ed 55bd
00000060: 7d80 a5bd d949 6dbd 9428 56bd ad5a bb3d
00000070: 3d5b 853d 4c08 51bd ed62 8f3d da99 c53d
00000080: 6892 d83d 22d9 c0bd ab2c a73b bf28 c8bb
00000090: d143 04bd 8571 413d 53fa 8f3d b9e4 6d3d
000000a0: b038 8b3c 81b4 9dbd a6f1 96bd 9ccd 3e3d
000000b0: 6165 80bd bddb 893d 3b6a 39bd 27d2 edbd
000000c0: 24f6 a1bc b2dd 7ebd 034d ec3c 1998 cb3d
000000d0: 17b5 14bd 96d0 ecbd c5cd f3bc ded9 c63d
000000e0: a37f 29bc 0208 58bd 6255 513c ebb6 433d
000000f0: ea4a 84bd 16d3 253c 136a 293d c939 4ebd
00000100: e47d 90bd c5b4 183b 3ff3 a73a f038 673d
00000110: 0ad8 a33d a411 b93d 4f48 b5bc 9086 e63c
00000120: 3c6d bc3d dfaa 8b3b 595d f4bc f94c e03c
00000130: 4dd1 a4bd cc62 b2bd b1e8 aa3d f524 e13b
00000140: 5adf 06be bbfc bd3d 981b 943d 532f 9c3c
00000150: 3447 cbbd d355 0f3d b9d4 0cbe 9c8d 4cbd
00000160: 7308 4cbd 32cd e83c 414c b53d c68a b4bc
00000170: e9fb c5bc a5cf e9bd 92d4 06bc 5872 5cbd
00000180: 13ad 273d e218 95bd de53 863d 988c 643d
00000190: 3880 07bd b4ba b93d 9932 f43d cd97 f93d
000001a0: 26a5 45bd 6023 f0bc c5b3 993a 2277 6d3d
000001b0: 12ef cb3d cdf2 cdbc dd78 e8bc 1f7a 71bd
000001c0: 0cd9 5c3d 65ed 94bb 8115 5bbc 554d d2bc
000001d0: e0c1 8c3b 93f2 b5bd e1d7 173c 2860 fbbd
000001e0: da70 35bd 43ca aa3d 43fa eb3d edfc 2abc
000001f0: d296 1d3d 5981 e73c a079 eebb c6bd 43bc
00000200: 5446 563d 01c9 3ebd a93f 9b3d f00f acbd
00000210: 3257 3cbd 09fb 0abd 8442 ba3d 8e30 03bc
00000220: 7762 19be b419 1dbe ce02 7f3d 9722 6bbd
00000230: f074 023c 872b 033e 33ad a03d 71b0 55bd
00000240: d983 f8bc 6064 66bd c479 b8bb 344d babc
00000250: dbdb 2e3d 26f3 e0bd 8df3 753d 30b9 92bd
00000260: ba8a a83d 9248 b1bd b4d9 a4bd 494e b13d
00000270: 7e65 e6bb 5885 a43d 363f c73c d960 80bb
00000280: e6ca 9f3d cac7 a2bc dc7c 403d 2f6c 4cbd
00000290: b024 dabd c657 8fbd 534c e4bd c08a d73d
000002a0: 7ba9 63bc 0bd9 ce3c 657a d8bc a485 cebd
000002b0: 6e9f a4bd 355b e8bd 8125 843d f643 1e3d
000002c0: 9cce 88bc 7303 d4bd 9aa5 a73d df45 8f3d
000002d0: 4a22 8bbd e23a b53d 1d93 5b3d d181 793d
000002e0: 63f5 0ebe d6d1 02be e481 b7bc ae15 97bd
000002f0: 2a4e 54bd 7f83 b53d 9df0 b53d fb23 3ebd
00000300: 01bb 833d da85 e63d a780 b93d 5c99 94bd
00000310: d09a 9b3d 2ddb abbd 7ac9 113d bb16 33bb
00000320: cf42 543d cb80 cabc 6d70 a2ba 74d2 81bd
00000330: c2a8 a7bd 1ff4 0fbc bfd5 273d 2b2a d0bd
00000340: dd17 8d3c f339 8dbd d6eb d0bd 999d 533d
00000350: e9ee adbd dbf9 403d 4551 d4bd f720 26bd
00000360: 3c18 a73d dd72 703c 7012 84bd 1957 a13d
00000370: 460b e3bc 7166 343d acb7 f03d 3d6e 583d
00000380: 73b8 783d 2abe 20bd 43b0 9a3d 5922 b5bd
00000390: 3884 e33d 913e 03bd 2945 233d ee26 62bd
000003a0: 0fbb d13d 977a a93c 6e16 98bd 6ae4 afbd
000003b0: 75cc 1e3c 1336 91bd 7f73 a2bd 3b5e 813b
000003c0: 87d3 43bd 43a2 ddbc b55f f33b c95b 32bd
000003d0: 4465 cd3d c83f e43b 43a3 c73d 33ab d7bd
000003e0: 272d f43d e601 68bd d90c 9e3d a869 7dbd
000003f0: 71bb 263d 89bb 753d 8ab9 1abc ee70 7a3d

l1.0.bias f4 [16]
-0.08813955 -0.26239035 -0.18545756 -0.21365446 0.08266147 -0.0952758 -0.10783375 0.14661063
-0.071114354 -0.049590666 0.015987838 0.13437238 -0.06163676 -0.18083645 -0.17303932 0.14879714
00000000: 8282 b4bd 0758 86be 96e8 3dbe 3cc8 5abe
00000010: 6b4a a93d f51f c3bd f1d7 dcbd 1921 163e
00000020: 67a4 91bd 951f 4bbd edf8 823c ea98 093e
00000030: d476 7cbd 312d 39be 3831 31be 475e 183e

l1.2.weight f4 [16]
0.98027253 0.98803526 1.004942 1.0176425 1.0010573 0.98405325 0.98326755 0.99834865
1.0167125 0.9550048 0.9970809 0.9698254 0.9970035 0.9984694 1.037024 0.9878334
00000000: 24f3 7a3f e1ef 7c3f f1a1 803f 1c42 823f
00000010: a522 803f eaea 7b3f 6cb7 7b3f c793 7f3f
00000020: a323 823f 327b 743f b240 7f3f 7a46 783f
00000030: 9f3b 7f3f b19b 7f3f 34bd 843f a6e2 7c3f

l1.2.bias f4 [16]
-0.020926995 -0.063079745 0.053420857 -0.006322604 0.09670287 0.06598464 -0.013420531 0.07559668
0.091711745 0.03095136 0.06674591 0.10116312 0.037053354 -0.02862465 0.12578312 0.13764606
00000000: 176f abbc f42f 81bd d4cf 5a3d d92d cfbb
00000010: 280c c63d f422 873d c9e1 5bbc 6fd2 9a3d
00000020: 5ed3 bb3d b58d fd3c 14b2 883d 9c2e cf3d
00000030: 42c5 173d 3e7e eabc 4acd 003e 17f3 0c3e

l1.2.running_mean f4 [16]
0.08247533 0.021492325 0.022983767 0.024113283 0.11729228 0.04073196 0.06861457 0.10077707
0.03524367 0.2511108 0.074831635 0.2575736 0.081217304 0.038500044 0.048932537 0.24703315
00000000: d3e8 a83d ac10 b03c 7448 bc3c 3889 c53c
00000010: ef36 f03d 8ed6 263d cc85 8c3d 3564 ce3d
00000020: ab5b 103d 9891 803e 5441 993d b0e0 833e
00000030: 4255 a63d 39b2 1d3d 7c6d 483d 42f6 7c3e

l1.2.running_var f4 [16]
0.043264806 0.0076049883 0.0080211 0.010708769 0.051230103 0.0146729555 0.04554523 0.034163445
0.0142639745 0.055494785 0.03307432 0.08034892 0.038286712 0.019116607 0.024637794 0.035626892
00000000: 7036 313d 4433 f93b ef6a 033c d573 2f3c
00000010: a8d6 513d d666 703c a38d 3a3d f8ee 0b3d
00000020: 72b3 693c 804e 633d f078 073d f98d a43d
00000030: 87d2 1c3d 6e9a 9c3c 33d5 c93c 81ed 113d

l2.0.weight f4 [32, 16, 5, 5]
0.008506045 0.016743535 -0.028976163 -0.007866994 0.029027002 -0.018294226 -0.030218367 0.033183623
0.034139182 0.019034484 0.028341213 0.044404753 -0.01942929 -0.036580022 -0.011187543 -0.048640497
-0.009545123 0.04338287 0.0009612537 -0.031518366 0.057385925 0.03174669 -0.018287612 -0.036351994
-0.007913799 0.069914274 -0.032590814 0.00539955 -0.034394328 -0.0105795665 -0.027839165 -0.0043399422
0.009040522 -0.036672335 -0.043318857 0.02837522 0.009166623 0.021084443 0.03463849 0.010122743
-0.0043777092 -0.0026846665 0.028500188 -0.032717913 -0.0035916672 0.029254688 -0.03536516 0.047865428
-0.058165204 -0.03232101 -0.000104682746 0.0065685534 -0.006592204 -0.034324702 -0.025516056 0.02018725
-0.028179461 0.04414523 -0.0310567 -0.05241694 -0.008419203 -0.005896489 -0.039532494 -0.052927814
-0.023060637 -0.0432862 -0.058320317 0.0043165386 -0.030938143 -0.030512849 0.048983496 0.017923761
-0.026521245 0.014444906 -0.0133552225 0.02930854 0.021184783 0.02046291 -0.049077056 0.022326855
0.0060621817 0.012813669 -0.021748189 -0.053928852 0.010865101 -0.0074808584 -0.001268664 -0.0043080207
0.04602876 0.026842795 -0.03746245 0.03519566 0.036664903 0.0011576605 0.03222489 -0.012444121
-0.014621077 0.04511487 0.013906763 -0.020034233 0.02696543 -0.05675499 0.026240915 -0.054037265
0.025446367 0.027931297 0.027432255 0.036218964 -0.009094568 0.026761316 -0.056484126 0.018508986
0.015858311 -0.037002444 0.03984512 0.0025605548 -0.019013932 -0.013549435 -0.04363289 0.06395127
-0.002439718 -0.011318983 0.013845543 0.006878394 0.02670506 -0.024819667 -0.027892498 -0.024321385
-0.014640993 0.01206443 -0.039944414 -0.049563486 -0.025015473 -0.005418022 0.01843999 0.013376953
0.021689286 -0.023685193 -0.0049264524 -0.03310032 -0.024520012 -0.0030132907 0.007552597 -0.047875464
-0.009960451 0.042075872 0.040130816 0.0352039 -0.04262275 -0.01935174 0.06663628 0.04401927
0.01395877 0.040651806 0.040777434 -0.0007108354 -0.01825994 0.009186013 0.055443116 0.013340336
0.053427406 -0.04218572 -0.026450802 0.0067616715 0.008456754 0.020181317 -0.03500398 0.037504036
0.006650377 -0.0053185066 0.01600294 -0.06931785 0.012591249 -0.005740698 -0.00042334094 -0.04976558
0.0030626426 -0.0017316442 0.04896093 -0.041152705 -0.029849598 0.0015499836 -0.03445557 -0.046084158
-0.02136 -0.04770622 -0.04131628 0.03148964 0.00544486 -0.07663656 0.038157452 0.02428128
-0.01268312 -0.027065787 -0.0019864573 -0.074806914 0.030335654 0.028949415 0.007993123 0.0050017303
-0.016239818 -0.015408422 0.028775971 0.062380973 -0.022263603 -0.056996003 -0.013528284 1.4174891e-05
-0.036396228 0.031579945 0.024640422 0.04087422 -0.004309776 -0.03426779 0.06114561 0.040716026
-0.026073003 -0.038151324 -0.032506812 0.032273147 0.016234983 0.0013873 -0.051764607 0.00509892
-0.010119334 -0.02640844 -0.044002302 0.002604441 0.059869926 -0.0011270826 -0.0047645783 -0.022100767
-0.008391682 -0.01180846 -0.014082751 -0.010266123 -0.020475253 0.05833018 0.050734937 -0.034134753
-0.027768651 -0.021384168 -0.0029769323 -0.042986855 0.017793167 0.017078962 0.024342673 -0.046726417
-0.019965518 -0.026777007 0.006704483 0.03176104 0.010491331 -0.004164344 -0.012838511 -0.03379376
00000000: f05c 0b3c bd29 893c 6b5f edbc 90e4 00bc
00000010: 09ca ed3c c6dd 95bc 828c f7bc 8deb 073d
00000020: 87d5 0b3d 35ee 9b3c d52b e83c c2e1 353d
00000030: 2d2a 9fbc efd4 15bd f54b 37bc 423b 47bd
00000040: 2663 1cbc 3cb2 313d a5fc 7b3a 6719 01bd
00000050: 810d 6b3d d108 023d e7cf 95bc d4e5 14bd
00000060: e1a8 01bc 372f 8f3d f27d 05bd b5ee b03b
00000070: 11e1 0cbd eb55 2dbc f60e e4bc 1336 8ebb
00000080: b31e 143c bb35 16bd 1d6f 31bd 2673 e83c
00000090: 9a2f 163c 48b9 ac3c 17e1 0d3d ddd9 253c
000000a0: e372 8fbb 3bf1 2fbb 3a79 e93c 3803 06bd
000000b0: 2d62 6bbb 87a7 ef3c 0fdb 10bd 8a0e 443d
000000c0: a33e 6ebd 0963 04bd 1f89 dbb8 053d d73b
000000d0: 6a03 d8bb 0f98 0cbd 0c07 d1bc bb5f a53c
000000e0: 9dd8 e6bc a1d1 343d 9f6a febc 25b3 56bd
000000f0: b2f0 09bc 5637 c1bb d3ec 21bd d6ca 58bd
00000100: a9e9 bcbc df4c 31bd 49e1 6ebd c071 8d3b
00000110: fd71 fdbc 15f6 f9bc eba2 483d dad4 923c
00000120: 1543 d9bc 54aa 6c3c ddcf 5abc 7718 f03c
00000130: b68b ad3c d5a1 a73c 0605 49bd cfe6 b63c
00000140: 44a5 c63b 6cf0 513c 4229 b2bc 80e4 5cbd
00000150: 8903 323c fd21 f5bb 4d49 a6ba 4c2a 8dbb
00000160: a788 3c3d 6ce5 db3c 3a72 19bd 5329 103d
00000170: f02d 163d a4bc 973a 3ffe 033d 6de2 4bbc
00000180: 3e8d 6fbc 5fca 383d 31d9 633c d51e a4bc
00000190: 9be6 dc3c ec77 68bd 30f7 d63c 2e56 5dbd
000001a0: e674 d03c 2dd0 e43c 9cb9 e03c 565a 143d
000001b0: 6201 15bc 8c3a db3c e65b 67bd 28a0 973c
000001c0: 4ae9 813c e08f 17bd a334 233d fbce 273b
000001d0: 1bc3 9bbc 73fe 5dbc 67b8 32bd e2f8 823d
000001e0: ade3 1fbb 4173 39bc 6bd8 623c 2764 e13b
000001f0: 92c4 da3c 9d52 cbbc cf7e e4bc a43d c7bc
00000200: c7e0 6fbc e3a9 453c c19c 23bd 1503 4bbd
00000210: 40ed ccbc aa89 b1bb 760f 973c 022b 5b3c
00000220: bbad b13c 7307 c2bc 146e a1bb 3394 07bd
00000230: 31de c8bc a17a 45bb c77b f73b 1019 44bd
00000240: 2931 23bc c057 2c3d 3660 243d f731 103d
00000250: 3195 2ebd 8a87 9ebc 9a78 883d 8d4d 343d
00000260: 53b3 643c 8282 263d 3d06 273d 5b57 3aba
00000270: df95 95bc ee80 163c 5218 633d 6d91 5a3c
00000280: b2d6 5a3d efca 2cbd 5aaf d8bc 0391 dd3b
00000290: 328e 0a3c 4a53 a53c 5560 0fbd d59d 193d
000002a0: 68eb d93b de46 aebb 9918 833c 84f6 8dbd
000002b0: 874b 4e3c 771c bcbb dcf3 ddb9 fed6 4bbd
000002c0: 9eb6 483b 56f8 e2ba 428b 483d bd8f 28bd
000002d0: 2587 f4bc d228 cb3a 4921 0dbd bec2 3cbd
000002e0: 2bfb aebc 9967 43bd 423b 29bd 48fb 003d
000002f0: cc6a b23b a1f3 9cbd fd4a 1c3d 89e9 c63c
00000300: dccc 4fbc 12b9 ddbc 392f 02bb 5e34 99bd
00000310: 7a82 f83c 5327 ed3c 96f5 023c 8ee5 a33b
00000320: 5e09 85bc 9b73 7cbc 96bb eb3c 3183 7f3d
00000330: 2962 b6bc a474 69bd bca5 5dbc b1d0 6d37
00000340: 3614 15bd f959 013d b6da c93c ba6b 273d
00000350: 0539 8dbb 625c 0cbd d273 7a3d d9c5 263d
00000360: 0d97 d5bc 9044 1cbd dd25 05bd d930 043d
00000370: 3aff 843c 10d6 b53a 2007 54bd d714 a73b
00000380: 90cb 25bc 8356 d8bc c23b 34bd 45af 2a3b
00000390: 2b3a 753d 9eba 93ba 2e20 9cbb ab0c b5bc
000003a0: 447d 09bc 4578 41bc 57bb 66bc 3e33 28bc
000003b0: b8bb a7bc a0eb 6e3d 70cf 4f3d e2d0 0bbd
000003c0: 157b e3bc da2d afbc a318 43bb fc12 30bd
000003d0: fac2 913c 2ee9 8b3c 496a c73c 3364 3fbd
000003e0: ba8e a3bc 745b dbbc 48b1 db3b dd17 023d
000003f0: d5e3 2b3c 0d75 88bb 9e58 52bc 536b 0abd

l2.0.bias f4 [32]
-0.047179554 -0.08916306 -0.07193224 -0.048083965 -0.009054445 -0.03837964 0.003334289 -0.047711756
-0.07928106 -0.06573437 0.01855242 -0.05449333 -0.100939326 -0.026646784 -0.07671308 -0.07286133
-0.029491201 0.0023081775 -0.04979836 -0.013127975 0.0018164831 0.0058461837 -0.11397545 -0.0029538986
-0.058078784 -0.094320506 -0.06309797 -0.097165085 -0.011130732 -0.07098536 -0.020997884 -0.00462193
00000000: 593f 41bd 1f9b b6bd 3651 93bd b1f3 44bd
00000010: 1859 14bc f833 1dbd 1684 5a3b 676d 43bd
00000020: 1c5e a2bd be9f 86bd 3ffb 973c 6634 5fbd
00000030: 47b9 cebd 5b4a dabc bf1b 9dbd 5238 95bd
00000040: 8897 f1bc cb44 173b 5df9 4bbd b816 57bc
00000050: 0f17 ee3a 5891 bf3b f66b e9bd 3296 41bb
00000060: 05e4 6dbd 1c2b c1bd 8239 81bd 7dfe c6bd
00000070: ac5d 36bc c660 91bd c103 acbc 8f73 97bb

l2.2.weight f4 [32]
1.079466 1.0809364 1.0796589 1.0541646 1.0788387 1.1090971 1.0813143 1.1171794
1.0945756 1.0688666 1.051148 1.0910112 1.0925089 1.0994833 1.0921569 1.1004196
1.0982143 1.0463202 1.104336 1.0685143 1.0761497 1.0699075 1.126422 1.0829319
1.081666 1.0752661 1.0658991 1.0812163 1.0787784 1.0888575 1.064104 1.0915004
00000000: f12b 8a3f 205c 8a3f 4332 8a3f deee 863f
00000010: 6317 8a3f e5f6 8d3f 8268 8a3f bcff 8e3f
00000020: 0e1b 8c3f 9fd0 883f 058c 863f 41a6 8b3f
00000030: 55d7 8b3f debb 8c3f cccb 8b3f 8dda 8c3f
00000040: 4992 8c3f d2ed 853f e25a 8d3f 14c5 883f
00000050: 46bf 893f bbf2 883f 992e 903f 839d 8a3f
00000060: 0874 8a3f 52a2 893f 626f 883f 4c65 8a3f
00000070: 6915 8a3f af5f 8b3f 8f34 883f 49b6 8b3f

l2.2.bias f4 [32]
-0.0025117917 -0.0031530957 -0.010410744 -0.004023082 -0.0017725744 -0.0046619326 0.002193023 -0.0009991849
-0.009163137 -0.0038609416 -0.00633493 -0.003528092 -0.0018565909 0.010833701 0.0059850453 0.011961661
-0.0030772542 -0.019130368 -0.009377966 -0.0048299176 -0.0026197238 -0.0019485126 -0.004971469 -0.008969627
-0.006169946 -0.012557859 -0.015682431 -0.0023401459 -0.0074552554 0.003012405 -0.010006264 0.003540663
00000000: df9c 24bb 2ba4 4ebb d391 2abc 0fd4 83bb
00000010: ba55 e8ba 20c3 98bb d2b8 0f3b 15f7 82ba
00000020: fb20 16bc da07 7dbb 3f95 cfbb 9037 67bb
00000030: da58 f3ba d67f 313c 331e c43b d8fa 433c
00000040: c2ab 49bb 4ab7 9cbc 0aa6 19bc 4944 9ebb
00000050: acaf 2bbb 3c65 ffba b4e7 a2bb 58f5 12bc
00000060: 422d cabb 7abf 4dbc 7178 80bc 225d 19bb
00000070: 374b f4bb c56b 453b 50f1 23bc 780a 683b

l2.2.running_mean f4 [32]
0.045415655 0.019954642 0.025056913 0.07068973 0.056404356 0.027217789 0.054083694 0.041583836
0.027124332 0.09167863 0.15722224 0.03457454 0.024454769 0.044667993 0.02674386 0.057031706
0.034248717 0.18470383 0.042519014 0.09787692 0.042182017 0.07633381 0.01917666 0.10987573
0.044415243 0.038941905 0.07768369 0.034058653 0.05248273 0.032442786 0.0646393 0.031925827
00000000: c405 3a3d eb77 a33c 2844 cd3c c7c5 903d
00000010: 4108 673d d7f7 de3c dd86 5d3d d053 2a3d
00000020: d933 de3c 01c2 bb3d defe 203e 089e 0d3d
00000030: 5e55 c83c c9f5 363d f115 db3c 149a 693d
00000040: 6248 0c3d 0023 3d3e 6b28 2e3d b273 c83d
00000050: 0dc7 2c3d e754 9c3d 5f18 9d3c 8706 e13d
00000060: c2ec 353d 8c81 1f3d a018 9f3d 1681 0b3d
00000070: 22f8 563d bae2 043d 9c61 843d a8c4 023d

l2.2.running_var f4 [32]
0.018703967 0.007113989 0.011403424 0.032190226 0.025613684 0.014445624 0.026493924 0.02020513
0.012991406 0.055987414 0.11818397 0.015077649 0.010799367 0.015867215 0.010308187 0.017336057
0.015619805 0.09567453 0.019053591 0.06469965 0.017128503 0.038854588 0.008281318 0.06666677
0.022326019 0.02213736 0.04279604 0.01071838 0.021304827 0.009740943 0.034081295 0.008168748
00000000: 1039 993c 771c e93b 6dd5 3a3c e6d9 033d
00000010: cad3 d13c 57ad 6c3c c909 d93c 3b85 a53c
00000020: e8d9 543c 0f53 653d 700a f23d 3e08 773c
00000030: d4ef 303c f6fb 813c ace3 283c 5904 8e3c
00000040: 36ea 7f3c 02f1 c33d 4716 9c3c 4081 843d
00000050: 1351 8c3c fd25 1f3d 5dae 073c 9688 883d
00000060: 0ee5 b63c 6959 b53c e74a 2f3d 259c 2f3c
00000070: 7687 ae3c 7a98 1f3c d498 0b3d 36d6 053c

res.weight f4 [6, 1568]
0.0037498632 -0.03057263 0.02162867 -0.012048092 0.012048187 0.006644651 -0.0051691495 -0.012458142
-0.008995671 0.028266218 0.008266474 -0.0011149902 0.019497344 -0.03330167 -0.009905621 -0.012274239
-0.019567935 0.030515358 0.041225042 0.035708133 0.0005121982 -0.040902358 -0.060159184 -0.030041924
-0.010422956 -0.0066882106 -0.028099092 0.030553136 -0.0076532844 -0.024772573 -0.04799138 0.0062189847
0.047550924 -0.012154113 0.06865811 0.001855166 -0.0060373805 -0.013524099 -0.009403481 0.043824404
0.018326148 0.030469634 0.013612138 0.012706509 0.028616898 0.027659765 -0.016524483 -0.0001105679
-0.024303325 0.008609171 -0.002527263 0.022104781 0.062955745 -0.035957042 -0.015006132 -0.044345666
-0.012048182 0.028552456 0.0024646986 -0.012074333 -0.013692094 -0.02284063 -0.0014877155 -0.0035553726
-0.014797561 0.014695049 -0.023134349 -0.004233899 -0.025133569 0.024817849 0.015505288 -0.0024137313
-0.031946257 0.033656366 0.028973237 0.012777469 0.0042214408 -0.031999744 0.0115936035 -0.04146811
0.025457341 0.006260064 -0.028681718 0.028167056 0.021424865 -0.019383889 -0.02428547 0.044229053
0.017494425 -0.039186582 -0.015540118 0.03417647 0.007019087 -0.021693315 0.011017956 0.026238691
-0.022519838 -0.024847968 0.009952653 0.0262355 -0.05414443 -0.012245906 -0.008419978 -0.00076596724
0.028766569 0.04918508 0.06919502 0.029701177 0.007964234 -0.04958828 -0.037711956 0.0037144183
0.077484556 0.031163618 0.04726746 0.02379397 0.009325941 -0.02893016 0.059292194 0.022688424
-0.023017194 -0.0625956 -0.017301925 0.035627343 0.038157176 0.020048205 0.05339073 0.0045316746
-0.069355614 -0.017236654 0.008157027 0.008417546 -0.022558251 -0.0033914037 -0.026384596 -0.010775769
0.0072613377 -0.004866268 -0.0034561183 -0.0019326978 -0.03153425 -0.014421904 0.017627334 0.012599734
-0.02951202 -0.023426885 -0.0046975543 0.0078094243 -0.0022834963 0.0030514044 0.049218852 0.016726468
0.03198764 0.0057676574 -0.01880165 0.0148896165 0.018216405 0.04635672 -0.040434342 -0.01653285
-0.015400002 0.019836094 -0.00063198723 0.0045595514 -0.032164488 0.027540697 0.0032118028 -0.021565625
0.0055462327 0.011359875 -0.010229003 0.029637186 -0.031859502 0.0053912913 -0.027819132 0.014341431
0.05411718 -0.031162564 -0.02884269 -0.007441555 0.027866868 0.033491418 0.013144189 -0.02425116
-0.04165049 0.008836012 -0.024887675 0.009231787 -0.0020963834 -0.015567204 -0.023712248 -0.0015582585
0.028844079 0.023485195 -0.04598261 0.009938651 0.014731358 0.006866623 0.027193623 0.012668313
0.054899815 0.07004958 0.00035969654 0.0129902745 -0.052974623 0.03537679 -0.01942373 -0.03475262
0.042890374 -0.025486529 0.01161446 0.035243645 0.005292403 -0.026845671 0.02676885 -0.0052081225
-0.016034637 -0.0022004251 -0.0175586 0.051907964 0.016755736 -0.016778722 0.033392746 0.017994722
-0.010573803 0.002360766 -0.03633038 0.02186545 0.028148169 0.00013743965 -0.0029420801 -0.0054139877
-0.017592676 0.052228916 0.0011364864 -0.018476143 0.010911136 -0.020966722 0.0016179495 0.025695276
0.010534943 0.02612682 0.0125009855 0.003950431 -0.012317545 0.03458316 0.038748577 -0.027536374
-0.0047236765 -0.021195704 0.018284451 0.036421888 0.029371727 0.0026257923 -0.017217346 -0.00856624
00000000: 44c0 753b 7473 fabc 9c2e b13c 5c65 45bc
00000010: c265 453c 5fbb d93b f861 a9bb 3c1d 4cbc
00000020: 9462 13bc 8e8e e73c 1b70 073c dd24 92ba
00000030: e5b8 9f3c 5567 08bd 304b 22bc e419 49bc
00000040: ef4c a0bc 58fb f93c 97db 283d b142 123d
00000050: 0a45 063a 3b89 27bd 7a69 76bd 7b1a f6bc
00000060: 0cc5 2abc c728 dbbb 1130 e6bc 924a fa3c
00000070: 67c8 fabb daef cabc 9c92 44bd a0c8 cb3b
00000080: c2c4 423d 0b22 47bc a09c 8c3d 0b29 f33a
00000090: 38d5 c5bb 2f94 5dbc 0f11 1abc 3881 333d
000000a0: b820 963c 749b f93c 7205 5f3c f62e 503c
000000b0: fc6d ea3c bb96 e23c 5a5e 87bc b0e0 e7b8
000000c0: c417 c7bc 7b0d 0d3c 70a0 25bb 1615 b53c
000000d0: f1ee 803d b147 13bd 48dc 75bc cda3 35bd
000000e0: bd65 45bc d7e6 e93c c886 213b 6cd3 45bc
000000f0: ce54 60bc 461c bbbc 73ff c2ba 4101 69bb
00000100: 7871 72bc 81c3 703c 3f84 bdbc 85bc 8abb
00000110: eae4 cdbc cd4e cb3c e409 7e3c b12f 1ebb
00000120: 14da 02bd 42db 093d 4859 ed3c 9758 513c
00000130: 0354 8a3b 2a12 03bd 19f3 3d3c 77da 29bd
00000140: ea8b d03c 3921 cd3b ecf5 eabc 99be e63c
00000150: 3383 af3c f6ca 9ebc 52f2 c6bc 8629 353d
00000160: 7850 8f3c 1c82 20bd fb9b 7ebc a0fc 0b3d
00000170: 5f00 e63b 2eb6 b1bc a884 343c 86f2 d63c
00000180: 867b b8bc f78d cbbc 7410 233c d5eb d63c
00000190: 8dc6 5dbd 0da3 48bc f3f3 09bc 31cb 48ba
000001a0: dea7 eb3c 4b76 493d 1eb6 8d3d e24f f33c
000001b0: 6b7c 023c 151d 4bbd da77 1abd 996d 733b
000001c0: 39b0 9e3d d84a ff3c 869b 413d 92eb c23c
000001d0: d5cb 183c f1fe ecbc 5fdc 723d 13dd b93c
000001e0: 8e8e bcbc 1f32 80bd c4bc 8dbc faed 113d
000001f0: b34a 1c3d 223c a43c 3db0 5a3d 717e 943b
00000200: 510a 8ebd e233 8dbc 0da5 053c bfe9 093c
00000210: 15cc b8bc 5042 5ebb 8224 d8bc da8c 30bc
00000220: 84f0 ed3b 3775 9fbb 0b80 62bb 9452 fdba
00000230: 0f2a 01bd da49 6cbc 3367 903c 1d6f 4e3c
00000240: 31c3 f1bc bde9 bfbc f1ed 99bb 33e6 ff3b
00000250: b6a6 15bb 12fa 473b b599 493d f205 893c
00000260: 7905 033d 9efe bc3b eb05 9abc 94f3 733c
00000270: 923a 953c 8be0 3d3d 7b9e 25bd e66f 87bc
00000280: 4a50 7cbc 4e7f a23c f2ab 25ba 4a68 953b
00000290: e9be 03bd 079d e13c 1c7d 523b 65aa b0bc
000002a0: 2cbd b53b c51e 3a3c 8c97 27bc afc9 f23c
000002b0: 1c7f 02bd 6ea9 b03b f3e4 e3bc 52f8 6a3c
000002c0: faa9 5d3d a248 ffbc 8147 ecbc 4ad8 f3bb
000002d0: 0f49 e43c 4c2e 093d b95a 573c 5eaa c6bc
000002e0: b499 2abd ecc4 103c 3de1 cbbc ec40 173c
000002f0: 7a63 09bb 960d 7fbc 3040 c2bc 7b3e ccba
00000300: 6b4a ec3c 0664 c03c 4358 3cbd b9d5 223c
00000310: cb5b 713c 6901 e13b 29c5 de3c c28e 4f3c
00000320: a1de 603d 2776 8f3d a795 bc39 29d5 543c
00000330: ebfb 58bd 41e7 103d 841e 9fbc c358 0ebd
00000340: d1ad 2f3d 20c9 d0bc 934a 3e3c a45b 103d
00000350: e56b ad3b 74eb dbbc 594a db3c e6a8 aabb
00000360: 125b 83bc 0235 10bb 0ed7 8fbc 729d 543d
00000370: 5343 893c 8873 89bc d5c6 083d ab69 933c
00000380: bf3d 2dbc 15b7 1a3b 2acf 14bd 2c1f b33c
00000390: fd96 e63c ad1d 1039 eacf 40bb d267 b1bb
000003a0: 841e 90bc fded 553d 28f6 943a 485b 97bc
000003b0: 9fc4 323c 67c2 abbc 6011 d43a e67e d23c
000003c0: c19a 2c3c ea07 d63c efd0 4c3c 9e72 813b
000003d0: 87cf 49bc 12a7 0d3d d4b6 1e3d f693 e1bc
000003e0: 12c9 9abb 9da2 adbc 46c9 953c 1e2f 153d
000003f0: fa9c f03c 7c15 2c3b 640b 8dbc 6a59 0cbc

res.bias f4 [6]
0.036225047 -0.029625233 0.0039317417 -0.021936668 -0.007846663 -0.03348874
00000000: b760 143d 9eb0 f2bc d7d5 803b 87b4 b3bc
00000010: 4a8f 00bc 7d2b 09bd
