Braille_character_recognition/models/model_simple_best.pt (torch, 224565 bytes, 14 tensors)

l1.0.weight f4 [16, 3, 5, 5]
00000000: 7c43 c9bd 79be 8cbc 9407 c1bd 9473 7bbd
00000010: caeb e03b 7fd0 b23d 108a 933d 2549 93bd
00000020: f248 8fbc ce6b e83d fa3f d83d fcd0 0e3d
00000030: 0288 d13c f051 2abc 2f1a c93c 36a8 ebbd
00000040: 6864 9d3d e4f7 5eb8 148c ddbd 01f9 afbc
00000050: 4c58 5e3d eac5 14bd e83b 3bbc ce5b 19bc
00000060: e1af 12bd 118b c73d a4a6 a13d 401e 98bd
00000070: 86e5 5dbd 7407 d43d 4917 18bd b241 bfbd
00000080: 9839 a93d dad9 56bd ad63 3d3d 7df1 c9bc
00000090: 03fd e7bd 9658 27bd 0174 593d 9b53 34bd
000000a0: 36c1 683d 743c 723c 1bb9 5d3d 4abd bdbd
000000b0: 15b8 b33d fdce 96bd f51a e2bd 9073 b9bd
000000c0: 370e 88bd 7cef 0ebd 86ed c23c 19ef de3d
000000d0: c500 263d af55 47bc 1155 503d d364 b5bd
000000e0: f395 8a3a c50c ad3d d365 8f3d 61b0 853d
000000f0: fa69 30bd d42f e9bd d8d2 48bd 91e4 633c
00000100: 3831 db3d 0ee2 c0bd bc20 c3bd 627f 503c
00000110: b7c4 56bd cedc 9cbd f6b9 f5bd d3cd e13d
00000120: 2c6b f1bd 737e 913d 08eb c53d 0376 183c
00000130: a14d 083d bf4f 963c cefc 14bd 3632 153d
00000140: c966 93bd f943 bcbd 6c7a f9bc e98e 173d
00000150: 7313 5fbd be10 67bd 9fd1 e3bd 03b0 e9bd
00000160: fa1a 8dbc 97f7 dbbc 83d7 09bd 5a4e cbbd
00000170: 91a8 d03d c785 983d c578 78bc ad53 7a3d
00000180: 75a4 43bb 4578 173d 91e4 c33d 2ff0 7f3c
00000190: 729a a4bc 0903 773c fca3 1cbc 9284 2dbd
000001a0: a586 f23d 194b 8dbd 0f92 1d3d edf7 aebd
000001b0: 0d91 d7bd bc65 0d3d da71 e1bd 7869 72bd
000001c0: 4abe a8bd 0689 eebc d1ca cebd 1c6d a6bd
000001d0: f29f c4bd 1c43 d3bc 3960 793d a631 7fbd
000001e0: a4ac dbbd 5a89 57bd b7e6 b6bc eab9 66bd
000001f0: cc16 b6bd 3860 84bd cee3 05bd 119a 8c3d
00000200: 0ce1 56bd 9920 033b ef56 b8bd ae06 40bd
00000210: fa74 f73d 2dfe 1f3d 67a0 3d3d 1bf4 70bd
00000220: c49f 913d 4256 323d 6fb4 ce3d 6808 ae3d
00000230: 6ac0 69bd 8797 5dbd a5f2 893c 29c7 b9bd
00000240: 6f47 3f3d 9d72 8c3d 3ed7 cc3d 866a 463d
00000250: a028 103e 5ec4 5cbd 9008 97bd 8444 223d
00000260: 653f afbd e6f9 593d 18ae a2bd 160b cb3d
00000270: 2f8c 5dbd 7f6d 083c b72c 11bb 305a 89bd
00000280: 7e8a cebd 0d86 d6bd 702b 9d3d c5b3 613d
00000290: 255e 193d 022f 663c 0e73 403d 038e 9d3d
000002a0: fb2f 1d3c 78a1 dabc e058 55bc a960 4d3d
000002b0: a91a 27bd b76b 293d 584d 823c 7391 c3bc
000002c0: f039 3d3d 2a42 12bd 8195 b0bd 78f5 c0bd
000002d0: c545 a73d 84ec babd d5c0 5e3d 6ea1 bdbd
000002e0: 1e84 043b c536 d3bd 0913 953d c878 c73d
000002f0: bb01 ab3d 7a8d 9e3d 5001 983d 8511 b9bd
00000300: 73fd 7bbc e6bf 86bd f510 bdbc 3862 763d
00000310: 6b36 5bbd f450 84bd 21e9 033d 2089 9abd
00000320: 51f0 c23d 25e5 a0bc e25b e83d 3c3c a5bd
00000330: e230 993c 7b66 69bd 702c 8c3d bad1 7abc
00000340: 91b6 353d c0d3 393d cd3d f5bd f74a bebd
00000350: e898 44bd b30b 3e3d 9aef 793d f89c 103c
00000360: c3a6 073c 1e67 86bd 9f33 7ebd 8929 d6bd
00000370: bf0e c63a 4400 d93d 0cc7 7e3d 4e5c a3bb
00000380: 575b a53d 7d6d 073e b115 88bd d633 4a3d
00000390: 8dae 4f3c 78a2 953d 747a 333d 2280 b6bd
000003a0: 5d4c a93d 9012 d83c a81f c63a 01ef 30bd
000003b0: 5f9b c4bd 0266 edbc d056 bb3d a435 a7bd
000003c0: 1243 3a3d eb8b 803d 4810 a03c 5d10 873d
000003d0: e103 bebc 0770 ef3d 39e9 31ba d7c9 bc3d
000003e0: 9289 5c3d aab8 d83d 6d76 f23c 32b4 4fbd
000003f0: 21dc aa3d 1556 edbd af63 e6bd 5532 75ba
-0.09827325 -0.017180668 -0.094252735 -0.06138952 0.0068640457 0.08731174 0.07204068 -0.071916856
-0.017490838 0.11348687 0.105590776 0.03486727 0.025577549 -0.010395512 0.024548618 -0.11506693
0.076851666 -5.315979e-05 -0.108177334 -0.021481039 0.054283425 -0.036321558 -0.011427857 -0.009360267
-0.035812262 0.09743322 0.07893112 -0.07427645 -0.05417397 0.10352984 -0.03713158 -0.09338702
0.08262938 -0.052453853 0.046237636 -0.024651283 -0.11327555 -0.040855967 0.053089146 -0.044025045
0.056824885 0.014784921 0.05413161 -0.0926462 0.08775345 -0.07363699 -0.11040298 -0.09055245
-0.06643336 -0.03489636 0.0237949 0.10885448 0.040528078 -0.012166425 0.050862376 -0.08857121
0.0010573253 0.08449701 0.07001843 0.06527782 -0.043069817 -0.113860756 -0.0490292 0.013909475
0.10702747 -0.094181165 -0.09527728 0.012725683 -0.052433696 -0.07659303 -0.1199836 0.11025586
-0.117880195 0.071041964 0.09663969 0.00930548 0.033277158 0.018348573 -0.036373906 0.036424838
-0.07197339 -0.09192652 -0.030453883 0.037001524 -0.054461908 -0.05641245 -0.111239664 -0.11410525
-0.017224777 -0.026851458 -0.033652794 -0.09927054 0.101884015 0.07447391 -0.015165512 0.061114956
-0.0029852663 0.036979932 0.0956508 0.015621229 -0.020093177 0.015076407 -0.009560581 -0.042362757
0.11842088 -0.06899089 0.03846937 -0.08543382 -0.10525713 0.03452085 -0.110080436 -0.059182614
-0.0823942 -0.029118072 -0.10097278 -0.0812628 -0.0960082 -0.025788836 0.06088278 -0.062303208
-0.10726288 -0.052621223 -0.02232681 -0.056329645 -0.08891067 -0.06463665 -0.032687955 0.06865323
-0.052460715 0.0020008443 -0.09000956 -0.04688137 0.120828584 0.03906076 0.04629555 -0.058826547
0.07110551 0.043539293 0.10093009 0.08497697 -0.057068266 -0.054099586 0.016839335 -0.0907119
0.046698984 0.06857798 0.10001992 0.048441432 0.14077997 -0.053898208 -0.0737468 0.039616123
-0.085570134 0.053216837 -0.07943362 0.09914224 -0.054088768 0.008326887 -0.0022151896 -0.06706655
-0.10085009 -0.10474787 0.07674301 0.055103082 0.0374433 0.0140492935 0.046984725 0.07693102
0.009593959 -0.026688322 -0.013021678 0.05014101 -0.04079691 0.04136249 0.015906021 -0.023873067
0.04619783 -0.03570763 -0.086222656 -0.094218194 0.08167604 -0.09127143 0.054383118 -0.09259306
0.002022035 -0.10313181 0.07279021 0.09739834 0.083499394 0.07741828 0.07422125 -0.09036545
-0.015380251 -0.065795705 -0.023079375 0.060152262 -0.053518694 -0.06460753 0.03220475 -0.07545686
0.09518493 -0.019640515 0.1134565 -0.080681294 0.018700067 -0.0569825 0.06844413 -0.015308792
0.044363562 0.045367956 -0.11974678 -0.09291642 -0.047997385 0.046397876 0.061019517 0.008826487
0.008279505 -0.06562637 -0.06206095 -0.10457141 0.0015110596 0.10595754 0.062201545 -0.004985369
0.08074062 0.1322536 -0.06644762 0.04936584 0.0126758935 0.07306379 0.043817952 -0.08911158
0.08266518 0.026376039 0.0015115635 -0.043196682 -0.09599947 -0.028979305 0.091474175 -0.08164528
0.04547412 0.06276687 0.019539014 0.06594918 -0.023195209 0.116912894 -0.0006786767 0.092181854
0.053842135 0.10582097 0.029597485 -0.050708957 0.083427675 -0.115886845 -0.11249482 -0.00093535084

l1.0.bias f4 [16]
00000000: fafe 9c3d 9b1a dfbd 8667 bb3d 2dfc a7bd
00000010: 983d a3bd 0ba0 9fbd 4371 3dbe 3df4 91bc
00000020: 78e7 0cbe 2b2d 07be 250a b5bd af6c e63d
00000030: d551 d9bc 954d 7a3d 2e72 a8bb 329a e73c
0.076658204 -0.108937465 0.09150605 -0.082023956 -0.079707325 -0.07794198 -0.18500237 -0.017816657
-0.13760173 -0.13200824 -0.088398255 0.112511985 -0.026528278 0.061109144 -0.0051405644 0.028271768

l1.2.weight f4 [16]
00000000: 7b08 7e3f 8808 7d3f c9e1 803f 4dce 803f
00000010: b071 803f c385 803f 28d0 813f 2550 803f
00000020: ce9f 803f 81e6 803f a2fc 7d3f 10d0 7e3f
00000030: 7224 7e3f b94c 7f3f 1376 7d3f 37f5 7d3f
0.9923169 0.9884114 1.0068904 1.0062958 1.0034695 1.0040821 1.0141649 1.0024458
1.0048769 1.0070344 0.9921361 0.9953623 0.9927436 0.99726444 0.9900829 0.99202293

l1.2.bias f4 [16]
00000000: 720c cc3b 1eef 833c 2258 473c 030b 103c
00000010: 4c9c 4cbd 1020 563b 6783 75bb 7e44 0a3c
00000020: 554e 243c 285d aabc ae78 c9bb d653 c8bb
00000030: 85fd b5bc 6015 9f3d f241 4b3c f7a2 c63b
0.0062270695 0.01610523 0.012167009 0.008791688 -0.049953744 0.003267292 -0.0037462355 0.008439181
0.010028441 -0.020796373 -0.0061484193 -0.0061135096 -0.022215614 0.07767749 0.012405859 0.0060619074

l1.2.running_mean f4 [16]
00000000: a30b 043e bcbf ee3d 8f1e 9c3d 7764 3e3d
00000010: 6e84 b53d 2595 e53c c010 0a3d a00a 423d
00000020: aed5 6d3d 5431 393d c89d 763d 5140 073f
00000030: 12c1 3d3f ee5b 263e baf8 ff3e 7c19 cf3e
0.12895064 0.11657664 0.07623016 0.04648253 0.088631496 0.02802522 0.03370738 0.047373414
0.05806511 0.04521306 0.060209066 0.52832514 0.74122727 0.16246006 0.4999445 0.4044913

l1.2.running_var f4 [16]
00000000: 29e8 a33d 788b a83d dae7 953c 8f23 553c
00000010: 595b 433d b5b9 f13b b8ba 4f3c fe8d 703c
00000020: 3e50 003d c683 873c f793 d23c 53f7 0e3e
00000030: a867 833e 944c 923c 2379 133e f431 473e
0.080032654 0.082297266 0.018299032 0.013008966 0.047694538 0.0073768743 0.012678795 0.014682291
0.031326525 0.016542327 0.02570532 0.13961534 0.2566502 0.01785878 0.14401679 0.1945265

l2.0.weight f4 [32, 16, 5, 5]
00000000: 67f0 c83b e200 4bbb 5153 3b3d 434f d8bb
00000010: 9530 50bd 8b88 35bd c7c4 3b3d fdb4 793c
00000020: f2a4 3ebd 4e86 8c3b 8c2c f93c d726 7cbc
00000030: ac43 163c d57d 6bbc 3b18 4fbb 59d4 5fbc
00000040: 8229 32bd 2186 e7bb cfc0 383d bf77 363b
00000050: db68 abbc 57e0 04bd 053a 3c3d aa02 5abd
00000060: de23 26bc 9f93 043d 3b3d 2c3c b208 423d
00000070: 3c33 d13c fca4 3dbc 1dc9 0ebd 517c 19bc
00000080: de6e afbc 5f43 82bc 18ca 1cbc 3145 943c
00000090: d709 12bd 5c83 e43b 4a9f 8a3b 4a14 353d
000000a0: e426 20bb 1a1b bfbb 55f4 223d 93a7 8d3b
000000b0: 16ac eebc b58a 23bc 0228 f5bc 56c1 42bd
000000c0: 7b64 333c 4b14 6d3c ae7f 993c 86e2 08bc
000000d0: a388 5cbd 6e59 ce3b 997a cbbb 1047 c53c
000000e0: 7da7 a83b 6fca ce3c 8fd4 bebc f53e 6f3b
000000f0: 52ce 073d f743 ad3b 8ff2 24bd 7dfc ffbc
00000100: 5192 17bd c1a6 153d eadd 1f3d d901 07bd
00000110: 50fa 213c 06f9 293d 78d0 90bc e56f 90ba
00000120: 349e 77bc 4b9c 2ebd d121 393d 51c8 e53c
00000130: 0f42 1e3d 2a5b 35bd e7a9 fbbc b31c a3bc
00000140: ed75 083d bdaf 2abd d35f 0e3d 7235 813d
00000150: ea81 073d 447e d93c 2998 143d 5cf1 403d
00000160: 9225 90bc 46a3 afbc bc17 f13b c229 c0bc
00000170: 7990 cebc a2b3 313d 9675 033d f973 983c
00000180: 8ee9 4f3d c508 eebc 863c f6bb 022d fa3c
00000190: 59b5 073c 853b 0dbc e7fa 343d f520 2bbd
000001a0: 0f66 de3b 7f9a 4c3d dc3e 8c3a 1ccf 4b3d
000001b0: 36fb 91bc 1859 783d c593 823c 58fd 913b
000001c0: 0747 553d 81bf f2bc 4862 0b3d 49b8 a63c
000001d0: 0439 eb3c 1ebf 07bd 9b94 2c3d 1bc8 dcbc
000001e0: e3a3 593c 8d81 393d 71f3 59bb d510 633c
000001f0: 2d8c ce3a 3d6c c2bc 723e 353d ba3b 953c
00000200: 051b 6fbc 6dcf 8e3b f3c9 043d 27ce 8ebc
00000210: a2bc 06bd 8797 db3b 1e46 2cbd cb25 e2bc
00000220: d017 2bbd 3cf8 9f3c a7ae 56bc 85b3 a1bc
00000230: 248b a53a c329 1a3d 4202 cd3a a776 59bd
00000240: 01ce 2bbd 841a 2cbb 6da2 0f3d 0fd7 103d
00000250: e360 ffbb f5e6 33bd 6cb1 fe3c 2da1 433d
00000260: 2b50 9a3c 35f3 debc ddcc 713d 3932 d03c
00000270: 4f41 84bc 8093 a2bc 7454 34bd aa87 0e3d
00000280: 7f8a 6f3d bc7a a8bc f162 443d 3b35 973c
00000290: 5163 003d 7ab8 6bbc 83eb 1e3d 8b10 053c
000002a0: af0d 053c d0d6 17bd e215 143d 1264 13bd
000002b0: 5bf5 263d 41b1 f43c 0e66 803c c1cf b9bc
000002c0: dd9b 0d3d 000a e13c afc0 e73b 1885 d13c
000002d0: 66fd 053c 2eb4 14bd 6c52 f0bc 3623 ce3b
000002e0: bce8 643c 79e0 cc3b 5253 25bc bdaa 083c
000002f0: c4fd fc3c 2b6b d63c 2ce7 cf3a e4ba 10bd
00000300: 4864 9b3c 3c20 84bd 9af4 73bc 635b e3bc
00000310: 31e4 0ebd 73b7 97bc 3921 0bbd 83cc b3bc
00000320: 92c5 9c3b f5c1 abbc d69a 1e3d fde2 153d
00000330: 3539 893d 17a2 3fbc 7ba3 12bc fd45 e0bc
00000340: fb2e 7cbc 21ff 453d 51cc 0d3d 5619 0fbd
00000350: 4d9f 15bd aaa2 4e3d eaf1 8ebc c0d4 1ebd
00000360: 8ec0 87b9 8e11 0dbc 91b5 383d 2c47 573c
00000370: 9000 71bc b525 b6bc 0bba 9bbc 96ac f3bb
00000380: 1912 d93c b35a 0abd ab48 333d 84fa 51bd
00000390: 900d b63c 86e5 043d 28ac 3c3d 8539 41bd
000003a0: 3121 0a3c 96bc 38bd 25bc ca3b 2795 083d
000003b0: 0fec e43c 62dd 293c 784d c03c a37c 46bc
000003c0: 9fe6 eebc 106e bb3c 84c5 4abc 017e c13c
000003d0: 5f2e 0bbc c339 323c 30a3 133d 2245 553c
000003e0: dc98 dc3b 330d 343d 04c4 253d b423 a33b
000003f0: a994 75bc c3be 0e3d 36a8 8d3b f11d 40bd
0.006132174 -0.0030975868 0.045733754 -0.0066012456 -0.05082758 -0.04431967 0.04584196 0.015240905
-0.046544023 0.0042884713 0.03041675 -0.0153901195 0.009171408 -0.014373262 -0.0031600136 -0.0136614675
-0.043496616 -0.00706555 0.04510575 0.002784237 -0.020924022 -0.03244051 0.04595377 -0.053225197
-0.010140387 0.032367345 0.010512645 0.047371574 0.025537126 -0.01157498 -0.034859765 -0.009368018
-0.02141517 -0.015901266 -0.009569667 0.0180994 -0.035653915 0.006973667 0.0042304145 0.044208802
-0.0024437243 -0.005832088 0.039783794 0.004322955 -0.029134791 -0.009981801 -0.029926304 -0.04754766
0.010949249 0.01447017 0.01873764 -0.008354789 -0.053841244 0.006297282 -0.006209683 0.024081737
0.0051469193 0.025243012 -0.023294715 0.0036506031 0.033155747 0.005287643 -0.040270384 -0.031248325
-0.037004773 0.036535982 0.039029993 -0.032960746 0.009886339 0.041497253 -0.01767753 -0.0011019675
-0.015113402 -0.04262952 0.045198265 0.02804962 0.038637217 -0.044276394 -0.030720664 -0.019911146
0.033315588 -0.041671503 0.034759354 0.06309022 0.03308288 0.026549466 0.036277924 0.04710518
-0.01759604 -0.02144016 0.0073575657 -0.023457412 -0.025215374 0.0433842 0.03209456 0.018609988
0.050759844 -0.029056916 -0.007514539 0.03053904 0.008282983 -0.008620148 0.04418459 -0.041779477
0.0067870687 0.049952026 0.0010699886 0.04975806 -0.017819982 0.06063184 0.015939603 0.0044552498
0.05206969 -0.029632332 0.034029275 0.020351546 0.02871371 -0.033141248 0.04213391 -0.026950886
0.013283703 0.045289565 -0.0033256675 0.013858994 0.0015758328 -0.023733253 0.044249006 0.018216956
-0.014593844 0.004358223 0.032419156 -0.017432285 -0.032894738 0.006701413 -0.042059056 -0.027605912
-0.041770756 0.019527547 -0.013103164 -0.019738922 0.0012629968 0.037637483 0.0015640932 -0.05309167
-0.041944508 -0.0026260922 0.03506701 0.035361346 -0.007793532 -0.04392143 0.03109046 0.04776113
0.018837055 -0.02721558 0.059033263 0.025414573 -0.016144423 -0.019845724 -0.044025853 0.034797348
0.05848169 -0.020566337 0.04794592 0.018458 0.031344716 -0.014387244 0.03879882 0.00812162
0.008120938 -0.037070096 0.03615368 -0.035984106 0.040761333 0.029869677 0.015673663 -0.022682073
0.03457247 0.027470589 0.00707253 0.02557616 0.008178091 -0.036304645 -0.029336177 0.0062908186
0.013971504 0.006252345 -0.010090666 0.008341488 0.030882724 0.026174149 0.0015861741 -0.035334483
0.018968716 -0.06451461 -0.0148898605 -0.027753538 -0.03488559 -0.018520093 -0.03396723 -0.021948105
0.0047842944 -0.02096651 0.03872188 0.036593426 0.067003645 -0.01169636 -0.00895011 -0.027377123
-0.01539206 0.048339013 0.03461868 -0.03493627 -0.036528874 0.050448097 -0.017449338 -0.038777113
-0.0002589267 -0.008610142 0.04509503 0.013139527 -0.014709607 -0.022234777 -0.01900961 -0.0074363453
0.026497887 -0.033777904 0.043770473 -0.0512643 0.022223264 0.032445453 0.04606262 -0.047173996
0.008430765 -0.045101725 0.0061869794 0.033345368 0.027944593 0.010367723 0.02347444 -0.012114677
-0.029162703 0.02287963 -0.012376193 0.023619654 -0.008494942 0.010878029 0.0360443 0.013016971
0.0067320894 0.0439579 0.04047014 0.0049786214 -0.014989057 0.034849893 0.004323031 -0.046903554

l2.0.bias f4 [32]
00000000: 30e9 06bb 59b7 39bd b2cc 5fbd 1ddf 39bb
00000010: 19ce e8bc 922b 313a 77ba 7dbd 01d0 67bd
00000020: 6a56 1dbd dfe6 4c3c 8f8d 03bd 0f51 6c3c
00000030: 9d9e bc3b 1d7b 09bc 731e 163c 232e 83bd
00000040: b6ef 1fbd 395d 083d c9bf 3cbd 8b57 20bd
00000050: 5b35 68bc 5274 08bd 1352 f63c 95ff eabc
00000060: 2a93 ae3c 4ee1 353c 283d 2bbd 4b69 88bd
00000070: d5f8 12bc 4435 26bc f4b8 0fbd cf09 723c
-0.0020585768 -0.04534087 -0.054638572 -0.0028361746 -0.028418588 0.00067585066 -0.061945405 -0.056594852
-0.03841249 0.012506216 -0.032117423 0.014423623 0.005756213 -0.008391169 0.009162533 -0.06405284
-0.039046966 0.03329203 -0.046081338 -0.039145987 -0.014172877 -0.033314057 0.030068433 -0.028686324
0.021310408 0.01110108 -0.04180637 -0.06660708 -0.008970459 -0.010144535 -0.035088494 0.014772846

l2.2.weight f4 [32]
00000000: a2b0 863f 5855 883f e5c4 873f ebf7 843f
00000010: 8710 873f 9f32 853f 66af 853f d76d 863f
00000020: f632 863f 0ca4 863f 74f9 853f d1a4 843f
00000030: 5f80 843f 309f 863f 7eb3 853f cc92 873f
00000040: efc0 873f d517 833f 16be 823f 040d 873f
00000050: 74a4 863f a216 863f 2a54 863f 9ae6 863f
00000060: 5682 843f 63d1 863f 177c 833f c8ec 853f
00000070: d22e 883f 56ab 883f 5a4c 8a3f 02e5 853f
1.0522654 1.0651045 1.0606962 1.0388159 1.0551919 1.0406073 1.0444152 1.050227
1.0484302 1.0518813 1.0466752 1.0362798 1.0351676 1.051733 1.0445402 1.0591674
1.0605754 1.0241648 1.021426 1.0550847 1.0518937 1.0475657 1.0494435 1.0539124
1.0352275 1.053265 1.0272244 1.0462885 1.0639288 1.0677288 1.0804551 1.0460513

l2.2.bias f4 [32]
00000000: f8e2 4dbc 7a59 9fbb ea17 24bc 6130 05bc
00000010: 835f 27bc 3695 20bc 3199 c1bb 5f61 8fbb
00000020: df44 613b 98b4 dabb 0986 4fbc 9e7d d4bb
00000030: c8ca 6e3a ce26 02bc 65dc 11bc 1b97 0abc
00000040: b8df 153c 31b8 fabb 3a39 833b cdc7 b1bb
00000050: 28e8 15bc 7b1f 10bc ac52 6cbc ed5a 77bb
00000060: 5aaf c4bb 0c22 33bc 7105 24bc 8c42 f3ba
00000070: efad 3fbc b3d1 123c 610d caba 470c acbb
-0.012566321 -0.0048629614 -0.010015467 -0.00812921 -0.010215643 -0.0098012 -0.0059081544 -0.004375621
0.0034373326 -0.0066743605 -0.012666234 -0.0064847013 0.0009109196 -0.007943822 -0.008902644 -0.008458878
0.009147577 -0.007651352 0.0040046247 -0.0054254294 -0.009149589 -0.008796568 -0.014424007 -0.0037743405
-0.006002349 -0.01093341 -0.010011063 -0.0018559261 -0.011699184 0.008961129 -0.0015415364 -0.005250487

l2.2.running_mean f4 [32]
00000000: caed 4a3e 017c 9b3d f6b5 763d fdba 7e3e
00000010: 4b3e 4f3e 7c95 383e 74d8 813d 4582 893d
00000020: 2b5c 4e3d 3cd2 033e 0b8d 1d3f 991d 0a3e
00000030: 7a1c cc3d 9298 053e ed5d c83d a9f3 a43d
00000040: 7a46 533d 8419 443e 1c79 783d d423 9f3d
00000050: 87a3 f73d 85fc 2c3e 43dd 933e 9d4b 563d
00000060: 265c 033e 5401 383e 407e a53e 7904 5a3d
00000070: 7af0 bd3d ab88 bf3d 28ef 083d 4281 293e
0.19817272 0.07592011 0.060232125 0.24876018 0.20238607 0.18025774 0.06340113 0.067143
0.050380867 0.12873167 0.6154334 0.13487853 0.09966369 0.13046482 0.0978354 0.08054287
0.051580884 0.19150358 0.060662374 0.077705055 0.12091737 0.16893204 0.28879747 0.052318204
0.1282812 0.17969257 0.32322884 0.05322692 0.09274383 0.09352239 0.033431202 0.16553214

l2.2.running_var f4 [32]
00000000: c450 fb3d cccd 193d 4581 0b3d 6407 653e
00000010: 113c 0d3e d3f4 f63d db34 023d 2ccb 153d
00000020: cfba 6e3c 6752 833d a1b2 443f 5a55 873d
00000030: b6a9 373d a85c 843d 99e3 5f3d 7275 1b3d
00000040: 52b2 6f3c da96 d33d 7503 b73c a6b0 073d
00000050: 4068 583d 2e0c d33d d277 423e 8c3f b43c
00000060: b2e0 813d 62de 053e 1642 653e 3334 a83c
00000070: 014f 353d 24bd 083d eed5 643c ef3c c03d
0.12271264 0.03754978 0.034058828 0.223661 0.13792445 0.12058415 0.03178869 0.036570713
0.014570906 0.064122014 0.76835066 0.066080764 0.044839583 0.06462985 0.054660413 0.0379538
0.014629917 0.10331507 0.022340516 0.03312745 0.052833796 0.103050575 0.1899102 0.022002958
0.06341685 0.13073114 0.22388491 0.020532703 0.044264797 0.033383504 0.01396702 0.09386622

res.weight f4 [26, 1568]
00000000: f257 bdbc 3277 e53b 67a2 ccbc d152 99bc
00000010: 0bbf d63b 5f84 71bc cf15 b5bc 5746 42bc
00000020: ba8d 5b3b ef4c 2d3c 40e5 143c eb3e 2fbd
00000030: 9703 92bc 0026 b6bc 3088 a43c 4576 b33a
00000040: 3fc7 593c b616 3ebc 4f99 6f3a 4940 003c
00000050: d8a0 e03b 05d3 eebc 6180 dabc 0bbc 7d3c
00000060: 3112 9e3a 8ef2 acbb 7e06 5bbc 5329 03bb
00000070: 9236 0bbc 15d9 81bc a950 c93a a005 f13b
00000080: 2c7b 18bd c753 493a 3b33 843b a3b7 1fbc
00000090: 6bf2 653c 2526 90bc 7e7d dabc 7f12 bcbb
000000a0: f9a8 04bd a2c0 a5bc f814 a83b e357 ad3a
000000b0: 4a82 12bc bc50 66bc c16c e1bc f0bb 16bc
000000c0: 15a4 afbc c6eb 483b 7a54 773b 1dfc 353a
000000d0: afb7 09bc 8bff 71bc b162 873a 4d3e 943c
000000e0: 2c18 47bb 7a69 c63b f568 d7bc df38 39bc
000000f0: e532 2d3c 6a5e 903b 625d 4d3c 56af dfbc
00000100: 01c6 f13c 8369 1dbb 5420 c5bc ac24 d1bc
00000110: 7f50 253c b9bf e33c 09a0 8b3b c5be 993c
00000120: 2605 0bbd 3f4c 7bbc a6e4 58bc a096 0bbd
00000130: 1a18 9e3b 0d5b bfbc 13bd a2bc 4434 d83a
00000140: 0e84 a23b 05db 083c 7e8f 9939 0557 6bbc
00000150: 5914 05bd a432 5f3b 2b38 e1bb 50ca 9bbc
00000160: 6af9 ccbc a462 b4bc d529 9dbc 6d0b f4bc
00000170: 3dcc c4bc 62b4 363c dca1 9d3c 4214 e3bb
00000180: de52 10bc 41cf 163d 2fb3 183b cbe7 de3a
00000190: c927 0bbc e39d 32bc 0344 a43c 0163 013d
000001a0: 4f69 583c 1efe 34bc 3080 25ba 690a d2bb
000001b0: fc66 d4bc 2ef3 ccbb f15c 04bb 4338 05bd
000001c0: 98f2 bcbc 5701 bcbc df48 9d3c 4c5b d5bc
000001d0: 61ec 17bb 590b aabc ea8e debc 5186 85bc
000001e0: 018d e1bb fa04 e1bc c162 87bc 7d8b 1ebd
000001f0: 5cf5 4cbb afbe 70bc b101 28bc 62cf fbbc
00000200: e119 78ba b4f2 1bbc 0625 a6bb bd44 dfbc
00000210: c82f bebc 12c8 eb3b 87ef 05bc 7971 0abd
00000220: 3e09 09bd 87c8 03bd 41ff a9bc 7115 85bc
00000230: 7f9a 0bbb 9093 83ba a4da a7bc 1cb4 a0bb
00000240: 3d2b a0bb f4d1 f13b b493 d63b 4289 ec3c
00000250: 3a0c 9c3c 23c6 843c c6b5 f93b 462f 523b
00000260: 921e 4d3c fee1 21bb 0625 dabc 0636 583c
00000270: 688c f73c bd71 83bb 7c3b 7ebb 3867 ed3b
00000280: f962 48ba e372 6fb8 3f61 00bc c1c6 90bb
00000290: de8a 87bc 3b10 12bc 2db1 f5bc 9082 f4b8
000002a0: 7c53 b739 10b4 8abc bb3c c5bc 7d96 0abd
000002b0: ce89 5abc 60f4 1b3c c279 b9bc 5137 9db9
000002c0: 9863 82bb 8918 97bc f700 02bd 5ce2 a1bc
000002d0: 7511 1ebc 3fce 213c d81c d8bc cd8e c1bc
000002e0: ab8d b73b c79a 3e3c 29ac 6fbc 5611 4fbc
000002f0: d620 16bc 3a2e b4bc 9a8b 953c 63c3 12bc
00000300: b210 83bc 5d13 d03b 584f c53c 2bb8 92bb
00000310: 7250 2d3c 5475 bebb 4783 ddbb efba 3f3c
00000320: 9035 14bd 6d9a 1d3c ed5f 97bc 887d 45bc
00000330: 0e55 5d3b 6531 b5bb c034 dfbb 3673 aebc
00000340: ce78 04bd ba87 04bd 9415 bdbc 85ae 6abb
00000350: 0550 67bb 0362 e9bc f561 74bc 4ae9 bfbb
00000360: 1e74 babc aa9e d63b 426a d23b f637 03bd
00000370: e61a ffbc fae3 53bb 4717 13bd 1702 1e3c
00000380: 7965 67bc d4e1 aabc 7b2e 483c 930b 7ebb
00000390: 95fc a23b 00f0 a23b 06da ff3b 078e 1cbd
000003a0: 2cb5 f63b 2e5b 67bc 5e58 9bbc b4d8 bc3b
000003b0: 8b62 eabc 1385 3e3c c679 063c 2e35 a43c
000003c0: 6472 a8bc 64ab 033c 4078 91bc 28c9 9dbc
000003d0: e324 853c 468f a33b b3f1 6dbc ec81 64bc
000003e0: fb36 093c e4e3 3b3c 7a93 e6bc 6496 29bc
000003f0: 0a85 b13c 8ba8 d03b 96d3 723c 7e86 d9bc
-0.023113225 0.0070027346 -0.024979783 -0.018716248 0.006553536 -0.014741032 -0.022105126 -0.011857591
0.0033501224 0.010577424 0.009087861 -0.042784613 -0.017823977 -0.022234917 0.02008447 0.0013691863
0.013292133 -0.011602094 0.0009139971 0.007827827 0.0068551116 -0.029153356 -0.026672544 0.0154867275
0.0012059865 -0.005277938 -0.013368247 -0.0020013645 -0.008496897 -0.015850583 0.0015359122 0.007355407
-0.03722684 0.00076800253 0.0040344275 -0.009748372 0.014034848 -0.017596314 -0.026671167 -0.0057395096
-0.032387707 -0.020233456 0.005129453 0.0013225045 -0.008942196 -0.0140573345 -0.027517678 -0.009200081
-0.021440545 0.003065811 0.003773956 0.000694217 -0.00840561 -0.014770399 0.0010329095 0.018096114
-0.0030379398 0.0060550543 -0.026295165 -0.011305063 0.010571216 0.0044057863 0.012534471 -0.027305286
0.029513361 -0.0024019189 -0.024063267 -0.025530182 0.010089993 0.027801381 0.004261021 0.018767724
-0.033940457 -0.015338003 -0.013238108 -0.034079194 0.0048246505 -0.023358846 -0.019865548 0.0016495069
0.00495959 0.008353 0.00029289344 -0.014364009 -0.03249011 0.0034057284 -0.006873151 -0.019017369
-0.025021274 -0.022019692 -0.019184986 -0.029790604 -0.02402317 0.011151405 0.01924222 -0.006929905
-0.00880882 0.036818746 0.002330016 0.0017006336 -0.008493372 -0.010901901 0.020051962 0.031588558
0.013208701 -0.011046914 -0.0006313352 -0.0064099324 -0.025928013 -0.006254575 -0.0020197 -0.03252436
-0.023064896 -0.022949858 0.019199787 -0.02604451 -0.0023181664 -0.020757364 -0.027167756 -0.016299399
-0.006883264 -0.027468193 -0.016526582 -0.038707245 -0.0031274175 -0.0146939 -0.0102543095 -0.030738536
-0.00094643055 -0.009518314 -0.0050703315 -0.027254457 -0.023216143 0.007195481 -0.008174784 -0.033799622
-0.03345608 -0.03217366 -0.020751597 -0.016245576 -0.0021301804 -0.0010038484 -0.020489998 -0.004904283
-0.004887967 0.0073797647 0.0065483693 0.028874043 0.019048799 0.01620776 0.007620546 0.0032071634
0.012519496 -0.0024701352 -0.026628982 0.013196474 0.030218318 -0.0040113614 -0.003879278 0.0072449706
-0.00076441426 -5.7089037e-05 -0.007835685 -0.0044182246 -0.01654571 -0.008915002 -0.02999171 -0.00011659146
0.0003496668 -0.016931564 -0.02407681 -0.033834923 -0.013338519 0.009518713 -0.022641066 -0.00029986587
-0.0039791577 -0.018444316 -0.0317392 -0.019761257 -0.009647717 0.009875833 -0.026380941 -0.023627663
0.005601605 0.0116335815 -0.0146284485 -0.012638411 -0.009163102 -0.021994699 0.018255044 -0.008957717
-0.015999172 0.0063499645 0.024085686 -0.004477521 0.010578262 -0.0058123264 -0.0067600342 0.011702283
-0.036183894 0.0096193375 -0.018478358 -0.012053855 0.003377262 -0.00552957 -0.006811708 -0.021295171
-0.03234177 -0.032356 -0.023081578 -0.0035809588 -0.0035295498 -0.028489118 -0.014915933 -0.0058566676
-0.022760447 0.006549676 0.0064213583 -0.03203579 -0.031140756 -0.003233193 -0.03591087 0.009644053
-0.014123314 -0.020859636 0.012218113 -0.0038764223 0.004973958 0.004972458 0.007807973 -0.038221385
0.0075289216 -0.01412086 -0.018963035 0.0057631377 -0.028611442 0.011628407 0.008207744 0.02004489
-0.020562358 0.008036468 -0.017757535 -0.019260958 0.01625294 0.0049914448 -0.014522958 -0.013946991
0.008374925 0.011467908 -0.028146494 -0.010350797 0.021669883 0.006367748 0.014820954 -0.026553389

res.bias f4 [26]
00000000: 2d49 013d 831e 253c 85ba 24bc c464 4fbc
00000010: 0f37 a33c 8aec 8d3a c5e4 a73b 0129 9b3b
00000020: de61 2b3b 76b3 b1bb 6456 56bc a44a 7a3c
00000030: 9a74 0a3c bd6e 59bc 026e 9abc 81f1 e2bc
00000040: e346 4c3c 32ee 97bc 810c 80bc 5310 8c3c
00000050: 8247 90bb 13df c0bc 0bce 9f3c fbdc b3bb
00000060: 1d84 8d3c ae6b af3c
0.031563926 0.010078075 -0.010054235 -0.012658302 0.019923715 0.001082794 0.005123707 0.0047351127
0.0026150863 -0.0054230047 -0.013082121 0.015276585 0.008450652 -0.013271031 -0.018851284 -0.027703049
0.012468073 -0.018546198 -0.015630962 0.017097628 -0.0044030556 -0.02354387 0.019507429 -0.0054889894
0.01727491 0.02141365
